Simplified/data/gp_torch_models/gp2_retrained_dim4.pth (torch, 43173 bytes, 5 tensors)

covar_module.base_kernel.raw_lengthscale f4 [1, 8]
00000000: c807 3340 f92f 2940 fe61 3e40 57f2 4a40
00000010: 3682 e63f a4df a13f 11b4 3e40 903e 5140
2.79735 2.643553 2.974731 3.1710413 1.8008487 1.2646375 2.9797404 3.2694435

X_mean f4 [8]
00000000: d314 b03e 6173 303f 92c4 56bc 4e1b f5ba
00000010: 8c2c 873f 494e cdbd 0d81 013f c6cb ff3e
0.34390888 0.68926054 -0.013108389 -0.0018700154 1.056047 -0.10024697 0.5058754 0.49960154

X_std f4 [8]
00000000: e8be 263e ca08 2e3e 42e8 403f 0fec 0b3f
00000010: 1484 3e40 84f6 e240 1b4c ec3e 1134 e43e
0.16283762 0.1699554 0.753544 0.5465707 2.9768114 7.0925922 0.46151814 0.44570974

X_train f4 [1000, 8]
00000000: cdcc 2c3f f628 803f 0000 0000 0000 0000
00000010: db0f c93f 0000 0000 ec36 8239 dae6 ce38
00000020: 21b8 2c3f ef4f 7e3f f924 e7bc 65b6 c8be
00000030: a016 c93f bfe2 933c 5f14 493a fe41 273b
00000040: 6795 2b3f 272a 763f a496 1dbe 1587 61bf
00000050: 8880 c93f 7b3f e83d 28bf 103b 1aee 983b
00000060: a83c 283f b4c4 673f afaa c2be 284b afbf
00000070: a2aa ca3f 94e9 843e b410 783b d8f2 aa3b
00000080: c1a6 213f 410d 533f 4640 28bf 9dfc eebf
00000090: 72f2 cc3f b52c f73e 5001 203b bcab 103c
000000a0: b77d 163f f688 383f a23b a1bf d438 07c0
000000b0: 81c4 d23f 6d84 4440 1af2 123c 4e3d bd3b
000000c0: 2046 003f c4e9 203f 22e7 00c0 acdf d7bf
000000d0: 0f42 0540 b974 4441 8625 ab3b cdfb 443c
000000e0: d13b c63e 3e87 0e3f 7c1f 21c0 d8ad 8fbf
000000f0: 8416 2f40 45d5 5641 829e 903b 2467 343b
00000100: 5df0 813e 02af 053f 3f67 2fc0 b8a9 7dbe
00000110: 4f04 5b40 7679 5d41 4812 223c 74ce 3f3c
00000120: f7ea f33d 63b3 083f 3087 23c0 6953 333f
00000130: 41ea 7f40 4d35 0441 c4f5 923c fef8 d438
00000140: 4126 a53b 7fe8 153f 765e fcbf 7268 a33f
00000150: 7f07 8840 e4e7 2840 3dce a63c 0136 b739
00000160: 9fb3 9abd d791 273f 8418 9fbf fac4 b63f
00000170: 1885 8b40 918f 1040 78a6 413c 3961 993c
00000180: 6753 f3bd 7849 393f ded5 f9be 4c04 a63f
00000190: e291 8f40 47dc 3340 ce2d 903c 5aa5 133b
000001a0: 7e75 01be 40b5 473f 17c5 143e d891 6c3f
000001b0: b082 9440 f892 5540 9089 263c 8589 c33c
000001c0: 115b dcbd 8c4f 503f 6cec 133f 24b3 cd3e
000001d0: 5621 9a40 3054 6940 bb05 a83c ac55 d13c
000001e0: 1b2e 93bd 96ad 513f e3c7 503f 2867 4ebe
000001f0: 8634 a040 004c 7b40 bcac c13c 0c6b ae3c
00000200: 4743 edbc 1e15 4b3f 74b8 643f cd45 53bf
00000210: b983 a640 6e7c 7b40 abec 303c 29b0 513c
00000220: 392f 953c 172d 3d3f 4f0d 813f b983 a5bf
00000230: 9c4d a940 81a8 4cc0 588f 1b3b e845 bf3c
00000240: 6992 923d 2af8 293f e2ce 923f d481 d8bf
00000250: 0777 9d40 86c9 2dc1 5871 483c 8e80 8c3c
00000260: c627 0b3e caf1 123f 8cdf bb3f 3c0d e7bf
00000270: f6d3 8740 6411 83c1 25e5 073d ead1 3c3c
00000280: 5e81 603e be39 033f 1110 e03f c243 81be
00000290: 92bd 5040 580f a7c1 7d57 a83c b291 db3b
000002a0: 50c5 993e d7a9 063f ede5 c93f 330a 2d3f
000002b0: 4f6e 1340 8f9a 58c1 8f86 c73c ce9c 153d
000002c0: 81a9 c23e 3b72 113f b638 cb3f a6c5 4c3f
000002d0: 8a9a 0240 4000 88bf c4af af3c 37d1 253d
000002e0: bd0b ea3e c505 1a3f cf87 ba3f 1543 143f
000002f0: 493d 0340 2d99 d13f a413 d63b 69f3 903c
00000300: b5b7 043f 6235 233f a4cc 763f 4251 5e3f
00000310: 513f 1040 ee02 a840 7be3 653b c93a bc3b
00000320: b906 0f3f b9b8 2d3f 122e 253f ddae 3e3f
00000330: f5f9 2040 e460 a240 342c 213b 26d1 3f3d
00000340: 14b4 143f c594 353f 5fa0 823e e45e ee3e
00000350: 0ce8 2c40 458e f03f 7953 093d d0f7 473c
00000360: 57a8 163f 8a2f 393f c4c0 943d 7f7c b83d
00000370: accf 2e40 799f 78be f6f4 233c 70af a43b
00000380: e15e 163f 3815 383f 693c 05be 42ce 7fbe
00000390: 778f 2b40 d19c e3bf a422 6e3c 54a5 d03c
000003a0: 5214 133f ac09 333f 70b9 cebe dcae 05bf
000003b0: 8143 2440 3732 29c0 2f50 403d b694 493c
000003c0: d3b5 0b3f 4d0c 2b3f f49a 3fbf 73d5 3abf
000003d0: b734 1c40 3a58 1cc0 46b5 923c b2e4 0f3d
000003e0: 8123 003f a569 203f 6f3a 89bf c956 66bf
000003f0: 1abe 1440 72fb 02c0 bb2d c33b b9dc 403d
0.675 1.00125 0.0 0.0 1.5707964 0.0 0.00024836452 9.865845e-05
0.6746846 0.9934072 -0.028215872 -0.39201656 1.571003 0.018052457 0.0007670577 0.0025521512
0.67024845 0.9615807 -0.15389496 -0.88096744 1.574235 0.11340233 0.0022086594 0.004667056
0.65717554 0.9053452 -0.38020846 -1.3694811 1.5833323 0.25959456 0.0037851753 0.0052169375
0.6314507 0.824421 -0.65723073 -1.8670841 1.6011488 0.48276296 0.0024414845 0.008830007
0.58785576 0.72083986 -1.2596323 -2.1128435 1.6466218 3.0705826 0.008968854 0.0057751304
0.50107 0.628567 -2.0141072 -1.6865134 2.082157 12.278497 0.005222979 0.012022925
0.3871751 0.55675113 -2.5175467 -1.1224928 2.7357492 13.427068 0.004413427 0.0027527297
0.25378695 0.52220166 -2.7406766 -0.24771774 3.422138 13.842154 0.009892054 0.011706937
0.1191005 0.5339872 -2.5551262 0.7004915 3.9986727 8.263013 0.017939456 0.00010155326
0.0050399606 0.58557886 -1.9716327 1.2766249 4.250915 2.6391535 0.020362014 0.00034944716
-0.07553791 0.6545691 -1.2429357 1.4278862 4.359997 2.2587626 0.011819474 0.018723117
-0.11881142 0.7237773 -0.4879598 1.2970061 4.486558 2.8103197 0.017599966 0.0022528977
-0.12642476 0.7801094 0.14528309 0.9241004 4.640953 3.3370953 0.010164633 0.023869285
-0.10759557 0.8137138 0.57782626 0.40175736 4.8165693 3.6457634 0.020510545 0.025553547
-0.07186528 0.81905496 0.81555 -0.20156538 5.0064116 3.9265137 0.023641936 0.021291278
-0.028962744 0.793291 0.89343953 -0.8252838 5.2035794 3.9294696 0.010798614 0.0127983475
0.018210994 0.73896927 1.0082186 -1.2930824 5.290724 -3.1977847 0.0023736563 0.023348764
0.07156832 0.66394293 1.1469386 -1.691462 4.9207797 -10.8617 0.0122340545 0.017151143
0.13589391 0.5740019 1.4677596 -1.8050914 4.244624 -16.383492 0.033177514 0.011524657
0.2192435 0.5125998 1.7504903 -0.25247008 3.2615705 -20.882492 0.02054953 0.006700718
0.3003335 0.52602905 1.5773293 0.6759369 2.3036077 -13.537734 0.024356155 0.036526494
0.38019946 0.56814927 1.5876682 0.7998909 2.0406823 -1.0625076 0.021446116 0.040482726
0.4571208 0.60165054 1.4572695 0.5791486 2.0506155 1.637487 0.006533103 0.017694192
0.51842815 0.6375333 0.96406007 0.8684274 2.2538645 5.2503576 0.0035078216 0.0057443124
0.5586963 0.6785999 0.6452342 0.7448557 2.5152562 5.0743275 0.0024592998 0.04683032
0.5808728 0.7093013 0.25512978 0.4655677 2.701663 1.8793417 0.03352687 0.012205079
0.58850616 0.72338164 0.072633296 0.09008121 2.7314253 -0.24279584 0.010007134 0.0050257966
0.58738524 0.7190738 -0.13011326 -0.24981025 2.6806314 -1.7782232 0.014534626 0.02546946
0.5745288 0.69936633 -0.40375853 -0.5221994 2.56662 -2.6436899 0.04695147 0.012303522
0.54574317 0.66815645 -0.74845815 -0.7298195 2.4407175 -2.442885 0.017908704 0.03513021
0.50054175 0.626612 -1.0720958 -0.89976174 2.3241029 -2.046597 0.005956379 0.047085498

Y_train f4 [1000]
00000000: 0000 0000 00f0 8e39 0094 a23a 007c 373b
00000010: 00c4 ab3b a02f 3a3d b06d 013e 4037 0a3e
00000020: 00ef 0a3e 60c4 993d 0007 c43c 0061 bd3c
00000030: 00b7 ea3c 8082 0a3d 8085 163d 80d4 203d
00000040: 80dc 203d 8062 2abd c045 e9bd 00d3 2ebe
00000050: c0d5 53be 6080 dfbd 00a4 fcbb 80ad b33c
00000060: 0079 573d 4025 4f3d 002d 783c 0068 75bb
00000070: 0058 9abc 80f5 d7bc 8066 cabc 80ce a3bc
00000080: 0035 7d3c c0e6 513d 4037 a73d 208e b83d
00000090: a04a bd3d c038 a63d 00e3 0d3d 00d0 933a
000000a0: 00f0 febb 0012 24bc 002d 81bc 00ac 0dbd
000000b0: c074 93bd 80c3 bbbd e058 acbd c007 9cbd
000000c0: 4062 52bd 00f4 fbbc 00f4 7abc 007a a9bb
000000d0: 00c0 d8b9 0094 bf3b 00d8 113c 0028 7c3c
000000e0: 808e a83c 80db e03c c060 193d 0051 313d
000000f0: 80ca 513d 40d8 683d c08e 7a3d a0c5 833d
00000100: 0065 603d 0066 c73c 009c a7bb 0056 a0bc
00000110: 003f febc 807b 32bd 4051 83bd e097 82bd
00000120: 40f2 64bd c0eb 34bd c064 21bd 80a5 20bd
00000130: c008 00bd 803c e7bc 004b 4fbc 00bc b63a
00000140: 00f1 643c 800d e93c 8032 303d 0032 473d
00000150: 4051 5d3d 4042 6a3d 6031 823d 0070 653d
00000160: 0044 f83c 004e a43b 0008 49bb 0099 1abc
00000170: 00dc b3bb 0080 2fba 00d8 2fbc 8029 27bd
00000180: 401e 4bbd 0081 37bd 8019 15bd 007e f8bc
00000190: 0041 ccbc 0083 a1bc 002d 60bc 0026 0cbc
000001a0: 00b4 3fbb 0024 47bb 0000 4839 006c b43b
000001b0: 00a4 243c 003c ae3c c0ee 0e3d 80cc 463d
000001c0: 80d5 553d c0d5 573d 40d9 493d c084 153d
000001d0: 0088 303c 0059 8dbc 0039 04bd 40e0 0abd
000001e0: 8065 2cbd 8066 10bd 00c9 febc 0067 f9bc
000001f0: 8079 d5bc 0059 c3bc 00cb a3bc 80b6 9bbc
00000200: 00ff 6cbc 002f 3bbc 0094 96bb 0000 6e3b
00000210: 004c 443c 80b5 853c 0074 7b3c 0022 b63c
00000220: 40cb 0b3d 00c6 193d 0014 2d3d 80a7 153d
00000230: c035 0c3d 8027 183d 80ff 9e3c 007e f7bb
00000240: c085 07bd c003 4fbd 40de 62bd 40a3 21bd
00000250: 804f 95bc 008c 2fbc 00a1 6fbc 0071 8cbc
00000260: 8094 a9bc 0007 55bc 0093 45bc 00d2 96bb
00000270: 00a8 66bb 0094 023b 0026 6d3c 00da c43c
00000280: 000d dc3c 80b2 f33c 80cc a33c 00bb e53c
00000290: 80f9 fa3c 807e 063d 40b6 0b3d 803b c63c
000002a0: 0084 f93b 0052 66bc 4095 0ebd c0db 1dbd
000002b0: 403b 17bd c08b 32bd 805e f6bc 0059 17bd
000002c0: 8010 f2bc 4074 06bd 8048 e6bc 0070 54bc
000002d0: 0058 223b 008d f73c 80ed 323d 80ec 473d
000002e0: c0b9 593d 4006 523d 00c6 fc3c 00b8 7d3b
000002f0: 006b 71bc 806b f2bc 008a 8ebc 801d 80bc
00000300: 00b8 833b 0006 7c3c 001e b43c 80cf fc3c
00000310: 0040 ecb9 002d 8dbc 0024 f4bc 006b 05bd
00000320: 001e ccbc 0037 debc 8096 97bc 0007 f2bc
00000330: 0075 c6bc 80e0 c0bc 0068 ebba 809b c43c
00000340: 80ae f03c 403d 2d3d 4052 283d 4044 4c3d
00000350: 40bb 483d 0047 033c 0080 483a 00ba 95bb
00000360: 008a 4dbc 00bc 6cbc 0090 00bb 0008 ff3a
00000370: 0088 d0bb 0040 f7bb 0035 7bbc 0064 80bc
00000380: 80ca 9bbc 8042 82bc 00cc 26bc 0090 e2ba
00000390: 0020 81b9 0024 23bb 0000 a43a 001c 4fbb
000003a0: 0060 743b 006e 8c3b 00cc 37bb 00e0 d6b9
000003b0: 0084 e03b 0050 263c 00da bd3c 805f e93c
000003c0: 00cc a53c 8050 ee3c 805f 863c 00f3 1b3c
000003d0: 00fc 81bb 802e 99bc 805c c0bc 40f4 09bd
000003e0: 8095 46bd 0026 45bd c0e0 2dbd 80bf a7bc
000003f0: 001f 2dbc 0002 b8bb 0008 533b 002b 593c
0.0 0.00027263165 0.0012403727 0.0027997494 0.005241871 0.045455575 0.12639499 0.13497639
0.13567734 0.07508159 0.02392912 0.023117542 0.028651714 0.03381586 0.03674841 0.039265156
0.039272785 -0.041597843 -0.11390257 -0.17072678 -0.20687008 -0.109131575 -0.00770998 0.021933317
0.05260563 0.050572634 0.015147448 -0.0037446022 -0.01884079 -0.02636218 -0.024707079 -0.019995928
0.015454531 0.05124545 0.08164835 0.09011483 0.09242749 0.08116293 0.034640312 0.0011277199
-0.007780075 -0.010014057 -0.015768528 -0.03458786 -0.07200003 -0.09168148 -0.08415389 -0.07618666
-0.05136323 -0.030755997 -0.015316963 -0.0051720142 -0.00041341782 0.0058465004 0.008901596 0.015390396
0.020575762 0.027448416 0.037445784 0.04329014 0.05121851 0.056846857 0.061171293 0.06434178
0.05478382 0.02434063 -0.005115032 -0.019572258 -0.0310359 -0.04357481 -0.064119816 -0.06376624
-0.05589509 -0.04417014 -0.039402723 -0.039220333 -0.031258345 -0.02822709 -0.012652159 0.0013941526
0.0139734745 0.02844882 0.04301691 0.048631668 0.054032564 0.057192087 0.06357074 0.056015015
0.030305862 0.005014181 -0.0030674934 -0.009435892 -0.0054888725 -0.00066947937 -0.010732651 -0.04081106
-0.049589396 -0.04480076 -0.03640127 -0.030333519 -0.024933338 -0.019715786 -0.013682604 -0.008553982
-0.0029251575 -0.0030386448 0.00019073486 0.0055060387 0.010048866 0.021268845 0.03489566 0.04853487
0.052205563 0.052694082 0.04927945 0.036503553 0.010774612 -0.017254353 -0.032280922 -0.033905268
-0.042088985 -0.035254 -0.031101704 -0.030444622 -0.026058912 -0.02384615 -0.019994259 -0.019007921
-0.014465094 -0.01142478 -0.0045952797 0.0036315918 0.01198101 0.016321898 0.015347481 0.02223301
0.03412938 0.037542343 0.0422554 0.036536694 0.034230947 0.037147045 0.019408941 -0.007552862
-0.03308654 -0.050540686 -0.055387735 -0.039462328 -0.018226385 -0.010714531 -0.014625788 -0.017143726
-0.020700693 -0.013002157 -0.012058973 -0.0046026707 -0.003519535 0.001992464 0.014474392 0.024029732
0.026861668 0.029748201 0.019994974 0.02804327 0.030636549 0.032835484 0.034109354 0.024198294
0.0076146126 -0.014057636 -0.034810305 -0.038539648 -0.03692174 -0.043590307 -0.030074358 -0.03695011
-0.029548883 -0.03282571 -0.028110743 -0.012966156 0.002477169 0.030218601 0.04368353 0.04880953
0.05315566 0.05127549 0.030856133 0.003871441 -0.014734983 -0.029592276 -0.017399788 -0.015639067
0.0040197372 0.01538229 0.021986961 0.030860662 -0.0004506111 -0.017233372 -0.029802322 -0.032572746
-0.024916649 -0.027125835 -0.018504381 -0.029544353 -0.024225712 -0.02354455 -0.0017960072 0.02399993
0.029380083 0.04229474 0.041094065 0.049869776 0.0490067 0.008012533 0.0007648468 -0.004569292
-0.012545109 -0.01444912 -0.001961708 0.001945734 -0.0063638687 -0.007545471 -0.01533246 -0.015672684
-0.019017458 -0.01590085 -0.010180473 -0.0017285347 -0.0002462864 -0.0024893284 0.0012512207 -0.0031602383
0.0037288666 0.004285574 -0.0028045177 -0.00040984154 0.006851673 0.010150909 0.02317524 0.02848792
0.020238876 0.02909112 0.01640296 0.009518385 -0.0039668083 -0.01869893 -0.023481607 -0.0336802
-0.048482418 -0.048131943 -0.042450666 -0.020477057 -0.010566473 -0.005615473 0.0032200813 0.013254881
