Simplified/data/gp_torch_models/gp2_retrained_dim3.pth (torch, 43173 bytes, 5 tensors)

covar_module.base_kernel.raw_lengthscale f4 [1, 8]
0.096449 -1.5405457 2.5788994 1.577046 -0.57514805 1.0250595 3.3996682 1.7788595
00000000: 0e87 c53d 9a30 c5bf b00c 2540 a5dc c93f
00000010: e73c 13bf 2635 833f 2a94 5940 abb1 e33f

X_mean f4 [8]
0.34390888 0.68926054 -0.013108389 -0.0018700154 1.056047 -0.10024697 0.5058754 0.49960154
00000000: d314 b03e 6173 303f 92c4 56bc 4e1b f5ba
00000010: 8c2c 873f 494e cdbd 0d81 013f c6cb ff3e

X_std f4 [8]
0.16283762 0.1699554 0.753544 0.5465707 2.9768114 7.0925922 0.46151814 0.44570974
00000000: e8be 263e ca08 2e3e 42e8 403f 0fec 0b3f
00000010: 1484 3e40 84f6 e240 1b4c ec3e 1134 e43e

X_train f4 [1000, 8]
0.675 1.00125 0.0 0.0 1.5707964 0.0 0.00024836452 9.865845e-05
0.6746846 0.9934072 -0.028215872 -0.39201656 1.571003 0.018052457 0.0007670577 0.0025521512
0.67024845 0.9615807 -0.15389496 -0.88096744 1.574235 0.11340233 0.0022086594 0.004667056
0.65717554 0.9053452 -0.38020846 -1.3694811 1.5833323 0.25959456 0.0037851753 0.0052169375
0.6314507 0.824421 -0.65723073 -1.8670841 1.6011488 0.48276296 0.0024414845 0.008830007
0.58785576 0.72083986 -1.2596323 -2.1128435 1.6466218 3.0705826 0.008968854 0.0057751304
0.50107 0.628567 -2.0141072 -1.6865134 2.082157 12.278497 0.005222979 0.012022925
0.3871751 0.55675113 -2.5175467 -1.1224928 2.7357492 13.427068 0.004413427 0.0027527297
0.25378695 0.52220166 -2.7406766 -0.24771774 3.422138 13.842154 0.009892054 0.011706937
0.1191005 0.5339872 -2.5551262 0.7004915 3.9986727 8.263013 0.017939456 0.00010155326
0.0050399606 0.58557886 -1.9716327 1.2766249 4.250915 2.6391535 0.020362014 0.00034944716
-0.07553791 0.6545691 -1.2429357 1.4278862 4.359997 2.2587626 0.011819474 0.018723117
-0.11881142 0.7237773 -0.4879598 1.2970061 4.486558 2.8103197 0.017599966 0.0022528977
-0.12642476 0.7801094 0.14528309 0.9241004 4.640953 3.3370953 0.010164633 0.023869285
-0.10759557 0.8137138 0.57782626 0.40175736 4.8165693 3.6457634 0.020510545 0.025553547
-0.07186528 0.81905496 0.81555 -0.20156538 5.0064116 3.9265137 0.023641936 0.021291278
-0.028962744 0.793291 0.89343953 -0.8252838 5.2035794 3.9294696 0.010798614 0.0127983475
0.018210994 0.73896927 1.0082186 -1.2930824 5.290724 -3.1977847 0.0023736563 0.023348764
0.07156832 0.66394293 1.1469386 -1.691462 4.9207797 -10.8617 0.0122340545 0.017151143
0.13589391 0.5740019 1.4677596 -1.8050914 4.244624 -16.383492 0.033177514 0.011524657
0.2192435 0.5125998 1.7504903 -0.25247008 3.2615705 -20.882492 0.02054953 0.006700718
0.3003335 0.52602905 1.5773293 0.6759369 2.3036077 -13.537734 0.024356155 0.036526494
0.38019946 0.56814927 1.5876682 0.7998909 2.0406823 -1.0625076 0.021446116 0.040482726
0.4571208 0.60165054 1.4572695 0.5791486 2.0506155 1.637487 0.006533103 0.017694192
0.51842815 0.6375333 0.96406007 0.8684274 2.2538645 5.2503576 0.0035078216 0.0057443124
0.5586963 0.6785999 0.6452342 0.7448557 2.5152562 5.0743275 0.0024592998 0.04683032
0.5808728 0.7093013 0.25512978 0.4655677 2.701663 1.8793417 0.03352687 0.012205079
0.58850616 0.72338164 0.072633296 0.09008121 2.7314253 -0.24279584 0.010007134 0.0050257966
0.58738524 0.7190738 -0.13011326 -0.24981025 2.6806314 -1.7782232 0.014534626 0.02546946
0.5745288 0.69936633 -0.40375853 -0.5221994 2.56662 -2.6436899 0.04695147 0.012303522
0.54574317 0.66815645 -0.74845815 -0.7298195 2.4407175 -2.442885 0.017908704 0.03513021
0.50054175 0.626612 -1.0720958 -0.89976174 2.3241029 -2.046597 0.005956379 0.047085498
00000000: cdcc 2c3f f628 803f 0000 0000 0000 0000
00000010: db0f c93f 0000 0000 ec36 8239 dae6 ce38
00000020: 21b8 2c3f ef4f 7e3f f924 e7bc 65b6 c8be
00000030: a016 c93f bfe2 933c 5f14 493a fe41 273b
00000040: 6795 2b3f 272a 763f a496 1dbe 1587 61bf
00000050: 8880 c93f 7b3f e83d 28bf 103b 1aee 983b
00000060: a83c 283f b4c4 673f afaa c2be 284b afbf
00000070: a2aa ca3f 94e9 843e b410 783b d8f2 aa3b
00000080: c1a6 213f 410d 533f 4640 28bf 9dfc eebf
00000090: 72f2 cc3f b52c f73e 5001 203b bcab 103c
000000a0: b77d 163f f688 383f a23b a1bf d438 07c0
000000b0: 81c4 d23f 6d84 4440 1af2 123c 4e3d bd3b
000000c0: 2046 003f c4e9 203f 22e7 00c0 acdf d7bf
000000d0: 0f42 0540 b974 4441 8625 ab3b cdfb 443c
000000e0: d13b c63e 3e87 0e3f 7c1f 21c0 d8ad 8fbf
000000f0: 8416 2f40 45d5 5641 829e 903b 2467 343b
00000100: 5df0 813e 02af 053f 3f67 2fc0 b8a9 7dbe
00000110: 4f04 5b40 7679 5d41 4812 223c 74ce 3f3c
00000120: f7ea f33d 63b3 083f 3087 23c0 6953 333f
00000130: 41ea 7f40 4d35 0441 c4f5 923c fef8 d438
00000140: 4126 a53b 7fe8 153f 765e fcbf 7268 a33f
00000150: 7f07 8840 e4e7 2840 3dce a63c 0136 b739
00000160: 9fb3 9abd d791 273f 8418 9fbf fac4 b63f
00000170: 1885 8b40 918f 1040 78a6 413c 3961 993c
00000180: 6753 f3bd 7849 393f ded5 f9be 4c04 a63f
00000190: e291 8f40 47dc 3340 ce2d 903c 5aa5 133b
000001a0: 7e75 01be 40b5 473f 17c5 143e d891 6c3f
000001b0: b082 9440 f892 5540 9089 263c 8589 c33c
000001c0: 115b dcbd 8c4f 503f 6cec 133f 24b3 cd3e
000001d0: 5621 9a40 3054 6940 bb05 a83c ac55 d13c
000001e0: 1b2e 93bd 96ad 513f e3c7 503f 2867 4ebe
000001f0: 8634 a040 004c 7b40 bcac c13c 0c6b ae3c
00000200: 4743 edbc 1e15 4b3f 74b8 643f cd45 53bf
00000210: b983 a640 6e7c 7b40 abec 303c 29b0 513c
00000220: 392f 953c 172d 3d3f 4f0d 813f b983 a5bf
00000230: 9c4d a940 81a8 4cc0 588f 1b3b e845 bf3c
00000240: 6992 923d 2af8 293f e2ce 923f d481 d8bf
00000250: 0777 9d40 86c9 2dc1 5871 483c 8e80 8c3c
00000260: c627 0b3e caf1 123f 8cdf bb3f 3c0d e7bf
00000270: f6d3 8740 6411 83c1 25e5 073d ead1 3c3c
00000280: 5e81 603e be39 033f 1110 e03f c243 81be
00000290: 92bd 5040 580f a7c1 7d57 a83c b291 db3b
000002a0: 50c5 993e d7a9 063f ede5 c93f 330a 2d3f
000002b0: 4f6e 1340 8f9a 58c1 8f86 c73c ce9c 153d
000002c0: 81a9 c23e 3b72 113f b638 cb3f a6c5 4c3f
000002d0: 8a9a 0240 4000 88bf c4af af3c 37d1 253d
000002e0: bd0b ea3e c505 1a3f cf87 ba3f 1543 143f
000002f0: 493d 0340 2d99 d13f a413 d63b 69f3 903c
00000300: b5b7 043f 6235 233f a4cc 763f 4251 5e3f
00000310: 513f 1040 ee02 a840 7be3 653b c93a bc3b
00000320: b906 0f3f b9b8 2d3f 122e 253f ddae 3e3f
00000330: f5f9 2040 e460 a240 342c 213b 26d1 3f3d
00000340: 14b4 143f c594 353f 5fa0 823e e45e ee3e
00000350: 0ce8 2c40 458e f03f 7953 093d d0f7 473c
00000360: 57a8 163f 8a2f 393f c4c0 943d 7f7c b83d
00000370: accf 2e40 799f 78be f6f4 233c 70af a43b
00000380: e15e 163f 3815 383f 693c 05be 42ce 7fbe
00000390: 778f 2b40 d19c e3bf a422 6e3c 54a5 d03c
000003a0: 5214 133f ac09 333f 70b9 cebe dcae 05bf
000003b0: 8143 2440 3732 29c0 2f50 403d b694 493c
000003c0: d3b5 0b3f 4d0c 2b3f f49a 3fbf 73d5 3abf
000003d0: b734 1c40 3a58 1cc0 46b5 923c b2e4 0f3d
000003e0: 8123 003f a569 203f 6f3a 89bf c956 66bf
000003f0: 1abe 1440 72fb 02c0 bb2d c33b b9dc 403d

Y_train f4 [1000]
0.0 -0.09785569 -0.097531796 -0.099044204 -0.0955261 0.17201638 0.09474039 0.16813368
0.19230649 0.15703553 0.058398962 -0.0056028366 -0.05859828 -0.09386635 -0.11433673 -0.12670854
-0.123383224 -0.085133195 -0.060413837 0.11094761 0.3122821 0.16892219 -0.052323878 0.03864944
-0.0053002834 -0.04538077 -0.06925255 -0.07486792 -0.061679214 -0.04083228 -0.04652059 0.0017692447
0.037294984 0.027373254 0.08992647 0.06744611 0.027974814 0.028823793 -0.009516299 -0.048533738
-0.071502686 -0.070037544 -0.054385602 -0.018179655 0.04326123 0.11135143 0.06159529 0.044170976
0.012498915 0.0068440437 -0.02074933 -0.037179798 -0.04706049 -0.051889382 -0.05102873 -0.041165113
-0.013131738 0.0073574185 0.02291596 0.049871385 0.051391296 0.042060643 0.020643681 0.0015362799
-0.0022758245 -0.023126975 -0.041676626 -0.047776088 -0.041357428 -0.002888441 0.05325681 0.07718718
0.04226263 0.020664841 0.005414486 -0.000885278 -0.023672968 -0.028066754 -0.03883098 -0.04591022
-0.033653885 -0.015270233 -0.007090509 0.010131806 0.02104348 0.03292772 0.036856044 0.035672553
0.018724129 -0.009263486 -0.025182411 -0.025490742 -0.021529555 -0.012006536 0.0065668076 0.025919273
0.033995494 0.040361866 0.029935867 0.013942301 -0.004108429 -0.014521003 -0.0283539 -0.031606436
-0.03906819 -0.032659218 -0.021124661 -0.006197512 0.009809256 0.0181126 0.028122544 0.028783023
0.021838076 0.0064376146 0.002453044 -0.00046513975 -0.012821227 -0.029173065 -0.02782248 -0.0042737573
0.028083444 0.043548584 0.03054981 0.012563139 0.008357406 0.0019452274 -0.011892885 -0.023791552
-0.030134454 -0.028097518 -0.025527611 -0.026486188 -0.009983599 0.0018311739 0.014352798 0.022693366
0.02164571 0.01915569 0.010347251 0.003145963 -0.008056782 -0.010372024 0.001165254 -0.008286403
-0.0097416565 0.001642026 0.020963516 0.036343478 0.01779443 -0.00028046966 -0.002488494 -0.0049464107
-0.01580663 -0.025836721 -0.025683649 -0.024875492 -0.008988798 -0.0066692233 -0.008980632 0.007478535
0.011451796 0.017263949 0.011664577 0.00857655 0.0034743063 -0.004316561 -0.0032252253 0.006052412
0.0041197594 -0.004502432 -0.002939025 0.008389313 0.019101027 0.020419419 0.00890407 -0.0019773245
-0.0046662837 -0.003919065 -0.00016358495 -0.02709341 -0.022613326 -0.017910331 -0.00041100383 -0.0031420738
-0.009026006 0.008482054 0.020485342 0.008411318 0.0043007247 0.004802093 0.012245255 0.001491107
-0.005460102 -0.007517295 -0.0017041098 0.005672198 0.019094795 0.016347066 0.0024434775 0.00058719516
0.0043423176 -0.008953914 -0.014031082 -0.0122542605 -0.01394501 -0.011386314 -0.018603027 -0.015686512
0.009004921 -0.0018716455 -0.0027222931 0.0051303804 0.01634682 0.018483426 -0.0030954368 -0.0002236478
0.0011323709 0.0066259094 0.003799383 0.00044546835 0.0010828711 0.006394744 0.011133328 0.01404272
0.0060192943 0.0002837181 -0.007042542 -0.014265105 -0.011434376 -0.018344749 -0.016676228 -0.020739362
-0.01313591 -0.011118531 -0.0030335784 0.0014748275 0.009836167 0.010677636 0.006154567 0.005745601
0.0015123747 -0.0015700031 0.0033902526 0.009318769 0.0019750353 0.003113579 0.008673593 0.009916544
0.011738606 0.008746013 0.00926353 -0.0033318996 -0.006940633 -0.009454936 -0.014143616 -0.027706385
00000000: 0000 0000 9068 c8bd c0be c7bd b0d7 cabd
00000010: 30a3 c3bd 1025 303e 4007 c23d 3c2b 2c3e
00000020: feeb 443e eccd 203e c033 6f3d 0098 b7bb
00000030: c004 70bd 003d c0bd 6029 eabd e2bf 01be
00000040: 58b0 fcbd 505a aebd 8074 77bd 8038 e33d
00000050: 70e3 9f3e f0f9 2c3e 9051 56bd e04e 1e3d
00000060: 00ae adbb 30e1 39bd 48d4 8dbd 5a54 99bd
00000070: 58a3 7cbd c03f 27bd 608c 3ebd 00e6 e73a
00000080: a0c2 183d e03d e03c 5e2b b83d 3021 8a3d
00000090: 702b e53c e01f ec3c 40ea 1bbc 50cb 46bd
000000a0: 0070 92bd d86f 8fbd 70c3 5ebd 80ed 94bc
000000b0: b032 313d 380c e43d 584b 7c3d a0ec 343d
000000c0: 40c8 4c3c 0044 e03b 80fa a9bc d849 18bd
000000d0: 80c2 40bd f689 54bd 8003 51bd c09c 28bd
000000e0: 8026 57bc 8016 f13b 40ba bb3c f045 4c3d
000000f0: ae7f 523d c847 2c3d f01c a93c 005d c93a
00000100: 0026 15bb c874 bdbc 1cb5 2abd dcb0 43bd
00000110: 6866 29bd 004c 3dbb d023 5a3d 5014 9e3d
00000120: 941b 2d3d 5049 a93c 006c b13b 0012 68ba
00000130: d0ed c1bc 40ec e5bc 3c0d 1fbd 5b0c 3cbd
00000140: a8d8 09bd 0030 7abc 8057 e8bb e0ff 253c
00000150: 6063 ac3c 38df 063d 5df6 163d 621d 123d
00000160: 5863 993c e0c5 17bc 584b cebc f6d1 d0bc
00000170: c05e b0bc 10b7 44bc 602e d73b a854 d43c
00000180: dc3e 0b3d 7c52 253d 103c f53c 406e 643c
00000190: 00a0 86bb 80e9 6dbc 7046 e8bc c075 01bd
000001a0: f705 20bd acc5 05bd a00d adbc 8014 cbbb
000001b0: 00b7 203c e060 943c 4061 e63c 60ca eb3c
000001c0: c4e5 b23c a0f2 d23b 40c3 203b 00de f3b9
000001d0: 2010 52bc 5afc eebc f8eb e3bc e00a 8cbb
000001e0: 400f e63c 0060 323d 9843 fa3c a0d5 4d3c
000001f0: 80ed 083c 00f7 fe3a 60da 42bc 80e6 c2bc
00000200: 88dc f6bc c42c e6bc 481f d1bc 90f9 d8bc
00000210: 4092 23bc 0004 f03a 0028 6b3c 70e7 b93c
00000220: 5852 b13c 65ec 9c3c 8487 293c 802c 4e3b
00000230: 9800 04bc 6cef 29bc 70bb 983a b1c3 07bc
00000240: 789b 1fbc 4039 d73a aebb ab3c e6dc 143d
00000250: a0c5 913c 000c 93b9 0016 23bb 8015 a2bb
00000260: e87c 81bc 88a7 d3bc 8466 d2bc b0c7 cbbc
00000270: c045 13bc 8089 dabb 8023 13bc 800e f53b
00000280: 50a0 3b3c 206d 8d3c c81c 3f3c a884 0c3c
00000290: 30b1 633b f071 8dbb 4d5e 53bb 5053 c63b
000002a0: 0cff 863b 2389 93bb a89c 40bb 5473 093c
000002b0: c279 9c3c a046 a73c 60e2 113c 0096 01bb
000002c0: a0e7 98bb 806b 80bb 0088 2bb9 00f3 ddbc
000002d0: 953f b9bc b0b8 92bc 007c d7b9 40eb 4dbb
000002e0: d0e1 13bc 50f8 0a3c e0d0 a73c a0cf 093c
000002f0: 18ed 8c3b e05a 9d3b 52a0 483c 4071 c33a
00000300: a8ea b2bb a453 f6bb 705c dfba d8dd b93b
00000310: b06c 9c3c 48ea 853c c022 203b 00ee 193a
00000320: 004a 8e3b 70b3 12bc a0e2 65bc 18c6 48bc
00000330: 9c79 64bc aa8d 3abc 6065 98bc 0081 80bc
00000340: 6089 133c 0052 f5ba 8068 32bb c01c a83b
00000350: c4e9 853c 8e6a 973c d0dc 4abb 0083 6ab9
00000360: 106c 943a 281e d93b 12ff 783b c08d e939
00000370: 20ef 8d3a 008b d13b 9068 363c 7013 663c
00000380: 803d c53b 00c0 9439 20c5 e6bb 30b8 69bc
00000390: 4057 3bbc ba47 96bc 969c 88bc 98e5 a9bc
000003a0: 0038 57bc 802a 36bc 00cf 46bb 004f c13a
000003b0: e027 213c 40f1 2e3c 40ac c93b 9845 bc3b
000003c0: e03a c63a 90c8 cdba 002f 5e3b c0ad 183c
000003d0: 986f 013b 300d 4c3b b01b 0e3c 0079 223c
000003e0: 4853 403c 704b 0f3c 10c6 173c 005c 5abb
000003f0: 406e e3bb e0e8 1abc a0ba 67bc 80f8 e2bc
