Simplified/data/gp_torch_models/gp_dim1.pth (torch, 6457 bytes, 3 tensors)

covar_module.base_kernel.raw_lengthscale f4 [1, 8]
000000 97 1d 7f 40 1f 29 7c 40 d5 94 8f 40 4a 73 12 40
       3.986181 3.9400098 4.486918 2.2882867
000010 cc 52 61 40 e3 fa 80 40 f0 dd 8f 40 12 17 91 40
       3.5206785 4.030626 4.495842 4.534066

X_mean f4 [8]
000000 35 e1 b2 3e 36 a6 2e 3f ea 11 0a bc 0f 3b 52 bb
       0.34937444 0.6822237 -0.008427123 -0.0032078659
000010 4e 41 9f 3f c8 12 79 bd fc a5 f8 3e b6 ac f9 3e
       1.2441804 -0.060808927 0.48564136 0.4876458

X_std f4 [8]
000000 b0 c3 17 3e 80 cb 32 3e ad 7b 26 3f c2 81 0c 3f
       0.14820743 0.17460442 0.65032464 0.54885495
000010 97 69 36 40 29 d2 db 40 46 ac dd 3e 6a d4 e0 3e
       2.8501947 6.8694043 0.43295497 0.4391206
