Simplified/data/gp_torch_models/gp_dim0.pth (torch, 6457 bytes, 3 tensors)

covar_module.base_kernel.raw_lengthscale f4 [1, 8]
3.7339296 4.9608555 1.1038393 4.5768642 4.3071737 3.6817727 4.4131002 4.4274306
00000000: b4f8 6e40 54bf 9e40 9b4a 8d3f ac75 9240
00000010: 5ed4 8940 2aa2 6b40 1e38 8d40 83ad 8d40

X_mean f4 [8]
0.34937444 0.6822237 -0.008427123 -0.0032078659 1.2441804 -0.060808927 0.48564136 0.4876458
00000000: 35e1 b23e 36a6 2e3f ea11 0abc 0f3b 52bb
00000010: 4e41 9f3f c812 79bd fca5 f83e b6ac f93e

X_std f4 [8]
0.14820743 0.17460442 0.65032464 0.54885495 2.8501947 6.8694043 0.43295497 0.4391206
00000000: b0c3 173e 80cb 323e ad7b 263f c281 0c3f
00000010: 9769 3640 29d2 db40 46ac dd3e 6ad4 e03e
