Simplified/data/gp_torch_models/gp_dim3.pth (torch, 6457 bytes, 3 tensors)

covar_module.base_kernel.raw_lengthscale f4 [1, 8]
0	0x3f6e3a8b	0.9305808
1	0xbfc846b6	-1.5646579
2	0x403407c1	2.8129733
3	0x3f8065a2	1.0031016
4	0xbfc33fe8	-1.5253878
5	0x3e9ebc36	0.3100297
6	0x3f704c7b	0.938667
7	0x3f670dc1	0.9025536

X_mean f4 [8]
0	0x3eb2e135	0.34937444
1	0x3f2ea636	0.6822237
2	0xbc0a11ea	-0.008427123
3	0xbb523b0f	-0.0032078659
4	0x3f9f414e	1.2441804
5	0xbd7912c8	-0.060808927
6	0x3ef8a5fc	0.48564136
7	0x3ef9acb6	0.4876458

X_std f4 [8]
0	0x3e17c3b0	0.14820743
1	0x3e32cb80	0.17460442
2	0x3f267bad	0.65032464
3	0x3f0c81c2	0.54885495
4	0x40366997	2.8501947
5	0x40dbd229	6.8694043
6	0x3eddac46	0.43295497
7	0x3ee0d46a	0.4391206
