Simplified/data/gp_torch_models/gp_retrained_dim4_final.pth (torch, 25363 bytes, 5 tensors)

covar_module.base_kernel.raw_lengthscale f4 [1, 8]
0	0x4090b8d0	4.52256
1	0x409e787b	4.952207
2	0x404d474f	3.2074773
3	0xbf2f4820	-0.6846943
4	0x4060dde5	3.5135434
5	0x3ff587bc	1.9182048
6	0x408d30eb	4.4122214
7	0x408aa5b4	4.3327274

X_mean f4 [8]
0	0x3ee3b56c	0.4447435
1	0x3f47736f	0.7791051
2	0xbe142b00	-0.14469528
3	0x3d9e050b	0.077158056
4	0x3faa1eca	1.3290646
5	0xbf4248cb	-0.75892323
6	0x3f351148	0.70729494
7	0x3f4f8992	0.8106929

X_std f4 [8]
0	0x3e46c9fb	0.19412987
1	0x3e369cdd	0.17833276
2	0x3fbec4e1	1.4903833
3	0x40ce17d2	6.4404078
4	0x3fe56d55	1.792399
5	0x41125409	9.145516
6	0x3f263403	0.64923114
7	0x3f2b7bcf	0.6698579

X_train f4 [500, 8]
0	0x3f2ccccd	0.675
1	0x3f8028f6	1.00125
2	0x00000000	0.0
3	0x00000000	0.0
4	0x3fc90fdb	1.5707964
5	0x00000000	0.0
6	0x39e20023	0.0004310618
7	0x38ade64b	8.292178e-05
8	0x3f2cc585	0.6748889
9	0x3f7f310a	0.996842
10	0xbc5e3bf7	-0.013564101
11	0xbe966100	-0.2937088
12	0x3fc915e8	1.570981
13	0x3c6251e9	0.013813474
14	0x3bc2d37e	0.005945622
15	0x3ca22111	0.019791158
16	0x3f2c3e8f	0.67282957
17	0x3f7a325a	0.9773308
18	0xbdd0e10b	-0.101991735
19	0xbf2e36c9	-0.68052346
20	0x3fc94694	1.5724664
21	0x3d71e824	0.059059277
22	0x3cf55529	0.029947834
23	0x3d23ea3f	0.040018316
24	0x3f2a9741	0.66637045
25	0x3f71461a	0.9424759
26	0xbe725432	-0.2366493
27	0xbf87fa69	-1.0623294
28	0x3fc9aed3	1.5756477
29	0x3e73ad3e	0.23796555
30	0x3d6117b3	0.054954242
31	0x3c4aeece	0.012386037
32	0x3f273202	0.6531068
33	0x3f646ec3	0.8923151
34	0xbedd2d4a	-0.43198615
35	0xbfb90bd4	-1.4456735
36	0x3fcbd3e9	1.5924045
37	0x3f0ae3ee	0.54254043
38	0x3d05eeab	0.032698315
39	0x3d21b870	0.039482534
40	0x3f21b318	0.631639
41	0x3f53a20e	0.8266915
42	0xbf25b47f	-0.6472854
43	0xbfeaa51c	-1.8331637
44	0x3fcea243	1.6143268
45	0x3f10b79f	0.56530184
46	0x3c79e7bb	0.015253003
47	0x3db9814f	0.09057867
48	0x3f19a458	0.60016394
49	0x3f3f0e0b	0.746308
50	0xbf791258	-0.97293615
51	0xc009cfba	-2.1533036
52	0x3fd1df93	1.6396354
53	0x3f543904	0.828995
54	0x3deabed8	0.11462182
55	0x3d22fc87	0.03979161
56	0x3f0b23d0	0.5435152
57	0x3f2adcdc	0.66743255
58	0xbfe2112e	-1.7661493
59	0xbfe33392	-1.7750113
60	0x3fec18f7	1.8445119
61	0x41196a83	9.588504
62	0x3dcd176b	0.10014232
63	0x3de1e1ae	0.11029373
64	0x3eee5891	0.46551946
65	0x3f1a002e	0.60156524
66	0xc009d69a	-2.1537232
67	0xbfbbe265	-1.4678465
68	0x401370f9	2.3037703
69	0x41486007	12.523444
70	0x39d1c87d	0.00040012962
71	0x3d53d3d4	0.051715687
72	0x3ebee2d4	0.3728243
73	0x3f0d114b	0.5510451
74	0xc01ecdbc	-2.481307
75	0xbf7d7d99	-0.9901977
76	0x4033ff0a	2.8124413
77	0x414bf91b	12.748317
78	0x3df1db82	0.11809446
79	0x3e2ed93b	0.17075054
80	0x3e8a3295	0.26991716
81	0x3f06422f	0.5244474
82	0xc026d23e	-2.6065822
83	0xbeab0bb2	-0.3340736
84	0x4055191f	3.3296583
85	0x41537b68	13.2176285
86	0x3d8b4b6e	0.068014964
87	0x3d4fad84	0.050702587
88	0x3e2acaea	0.16678968
89	0x3f065b3e	0.52482975
90	0xc020b2cb	-2.5109127
91	0x3eb59cb6	0.35471123
92	0x4075365b	3.8314426
93	0x4129c5f6	10.61083
94	0x3dc23371	0.09482468
95	0x3de73cc6	0.112908885
96	0x3d94c9c9	0.0726505
97	0x3f0d2847	0.55139583
98	0xc009a2ca	-2.1505609
99	0x3f6cc5c1	0.9248925
100	0x40848a08	4.1418495
101	0x40a53fe1	5.1640477
102	0x3d1eff24	0.03881754
103	0x3d833e37	0.06408351
104	0xbb84ec1d	-0.004056467
105	0x3f1843ac	0.5947826
106	0xbfd5a848	-1.669198
107	0x3f98bdf3	1.1932968
108	0x40887313	4.264047
109	0x3fc9cec4	1.5766225
110	0x3e5f6335	0.21815188
111	0x3e252cef	0.16130422
112	0xbd756f8b	-0.05992083
113	0x3f24c233	0.64358824
114	0xbf8fe44a	-1.1241543
115	0x3f9b636d	1.2139717
116	0x408ab9d7	4.3351855
117	0x40014e36	2.0203986
118	0x3cf724f4	0.030168988
119	0x3d54ace3	0.05192269
120	0xbdc0d0d8	-0.09414834
121	0x3f30aa97	0.690103
122	0xbf1541ab	-0.58303326
123	0x3f8a714a	1.0815823
124	0x408dd561	4.432297
125	0x403154e6	2.7708068
126	0x3e702b87	0.23454104
127	0x3dc76d52	0.09737648
128	0xbddb2bb6	-0.107016966
129	0x3f3a6154	0.7280476
130	0xbd9d1c61	-0.076714285
131	0x3f4d3214	0.8015454
132	0x4091810b	4.5470023
133	0x404d0cdb	3.2039096
134	0x3e9f5acc	0.3112396
135	0x3e49356d	0.19649287
136	0xbdd0efd6	-0.10201995
137	0x3f40ace3	0.75263804
138	0x3e9e1d5f	0.30881783
139	0x3ed143c3	0.4087201
140	0x40966c9b	4.7007575
141	0x408d4984	4.415224
142	0x3e0dd279	0.1384982
143	0x3e5cb1e3	0.21552233
144	0xbdab63d9	-0.08368654
145	0x3f427c36	0.7597078
146	0x3f17bff8	0.59277296
147	0xbd4209eb	-0.04737274
148	0x409c11c0	4.8771667
149	0x409012bb	4.5022864
150	0x3e51cf77	0.20489298
151	0x3ea89a3a	0.32930166
152	0xbd65821c	-0.056032285
153	0x3f3f6d7f	0.7477645
154	0x3f481daf	0.78170294
155	0xbf0a99c9	-0.5414091
156	0x40a13e93	5.0388885
157	0x406211db	3.5323398
158	0x3e9e40cc	0.3090881
159	0x3e9b2a45	0.30305687
160	0xbcacb518	-0.021082446
161	0x3f37d80f	0.71814054
162	0x3f74a740	0.95567703
163	0xbf6c7b3b	-0.92375535
164	0x40a3931e	5.1117086
165	0xbf907609	-1.1286021
166	0x3e003c00	0.12522888
167	0x3e533bc3	0.20628266
168	0x3ca58ac5	0.020207772
169	0x3f2ca2c6	0.6743587
170	0x3f8e287e	1.1106107
171	0xbfa39293	-1.2779106
172	0x409e3f72	4.945245
173	0xc0d69275	-6.705378
174	0x3d636a25	0.05552115
175	0x3ea50520	0.32230473
176	0x3d8cb9e4	0.06871393
177	0x3f1e0320	0.6172352
178	0x3faa6899	1.3313171
179	0xbfc5dff6	-1.5458972
180	0x40924cfa	4.5718966
181	0xc135687a	-11.338007
182	0x3e36b135	0.17841037
183	0x3e2a64e3	0.16640048
184	0x3e03b7b0	0.1286304
185	0x3f0e008d	0.5546959
186	0x3fd77597	1.683276
187	0xbfbbd88f	-1.4675463
188	0x40816e8f	4.044746
189	0xc17461f3	-15.273913
190	0x3ddad912	0.10685934
191	0x3d853d92	0.06505884
192	0x3e4fe641	0.20302679
193	0x3f03a306	0.5142063
194	0x3ffff215	1.9995753
195	0xbebc500a	-0.36779815
196	0x405825f0	3.3773155
197	0xc18689c7	-16.817274
198	0x3ec98a55	0.3936335
199	0x3d82cc31	0.06386603
200	0x3e900300	0.2812729
201	0x3f04c18a	0.5185782
202	0x3ff52d4e	1.9154451
203	0x3ecee2df	0.40407464
204	0x40305832	2.755383
205	0xc15827b7	-13.509696
206	0x3ebfb702	0.3744431
207	0x3edc9933	0.43085632
208	0x3eb73247	0.35780546
209	0x3f0bb906	0.545792
210	0x3ff93b1c	1.9471164
211	0x3f7a0cc8	0.9767575
212	0x40120fde	2.2822185
213	0xc102c94f	-8.174148
214	0x3ee88de6	0.4542076
215	0x3eee760c	0.46574438
216	0x3edf4e09	0.43614224
217	0x3f167258	0.58768225
218	0x3ff79a2d	1.9343926
219	0x3f8bc8da	1.092067
220	0x400373a7	2.0539339
221	0xc05be205	-3.4356701
222	0x3dc3c90a	0.095598295
223	0x3d907ccb	0.07055052
224	0x3f0259e5	0.5091842
225	0x3f221f84	0.6332934
226	0x3fd4cf72	1.6625807
227	0x3f9bbe9d	1.2167546
228	0x3ffdd33b	1.9830087
229	0x3f0e722d	0.5564297
230	0x3ef453d5	0.4772021
231	0x3f0f29cd	0.5592316
232	0x3f10f311	0.5662089
233	0x3f2fd41d	0.68683034
234	0x3f97d4cc	1.1861815
235	0x3fb85a7e	1.4402616
236	0x4002f915	2.0464528
237	0x3fe3e2e4	1.7803617
238	0x3ef587f5	0.4795529
239	0x3e784f1a	0.24248925
240	0x3f1b6c7b	0.60712403
241	0x3f3ec8de	0.7452525
242	0x3f61de16	0.882295
243	0x3fbbb235	1.466376
244	0x400a9901	2.1655886
245	0x40764c42	3.8484044
246	0x3e314a47	0.17313491
247	0x3e8db6fd	0.2767867
248	0x3f22c7c2	0.63586056
249	0x3f4d4427	0.8018212
250	0x3f0681e9	0.5254198
251	0x3fa8a8d6	1.3176525
252	0x4013d523	2.3098838
253	0x40434a0d	3.0513947
254	0x3f01a0f2	0.5063621
255	0x3f0cfc6f	0.55072683

Y_train f4 [500]
0	0x00000000	0.0
1	0x39632000	0.00021660328
2	0x39d1d000	0.00040018559
3	0x3b39b000	0.0028333664
4	0x3bb2d900	0.0054579973
5	0x3bc63500	0.0060487986
6	0x3c6f3a00	0.014601231
7	0x3dd058a0	0.10173154
8	0x3e01c120	0.12671328
9	0x3e02cdd0	0.12773824
10	0x3e08c610	0.13356805
11	0x3dca8480	0.098885536
12	0x3d3c0380	0.045901775
13	0x3c84f600	0.016230583
14	0x3cb29900	0.021801472
15	0x3cd9a800	0.026569366
16	0x3d071600	0.032979965
17	0x3d362300	0.044466972
18	0x3d33bd00	0.043881416
19	0x3d0c3d80	0.03423834
20	0xbca1f900	-0.019772053
21	0xbd990a40	-0.07472658
22	0xbdf09280	-0.11746693
23	0xbe210e90	-0.15728211
24	0xbe2c0680	-0.16799355
25	0xbe0bd980	-0.13657188
26	0xbd995c80	-0.07488346
27	0xbcfbc200	-0.030732155
28	0x3c31ef80	0.010860324
29	0x3cb33180	0.02187419
30	0x3d211a00	0.039331436
31	0x3ce81d80	0.02833438
32	0xbbe14600	-0.0068747997
33	0xbc85b080	-0.016319513
34	0xbd08bb00	-0.033381462
35	0xbd23bfc0	-0.03997779
36	0xbcf9d940	-0.0304991
37	0xbcaded00	-0.021231174
38	0xbcc5f7c0	-0.024165988
39	0xbc9c0840	-0.019046903
40	0xbcb5e800	-0.022205353
41	0xbc55fa00	-0.013060093
42	0xbc2c8d00	-0.010531664
43	0x3d9ff440	0.07810259
44	0x3def45e0	0.116832495
45	0x3e1fa9d0	0.15592122
46	0x3e299730	0.1656158
47	0x3d9bc000	0.076049805
48	0xbaf50000	-0.0018692017
49	0xbccd6000	-0.02507019
50	0xbb972200	-0.0046122074
51	0x3a270000	0.00063705444
52	0xbc00d200	-0.007862568
53	0x3c121800	0.008916855
54	0x3cc45100	0.023964405
55	0x3cb8cf00	0.022559643
56	0x3ca02c00	0.01955223
57	0xbc0acf00	-0.008472204
58	0xbd8e1bc0	-0.06938887
59	0xbdd58020	-0.104248285
60	0xbdb3e000	-0.08782959
61	0xbdcfa460	-0.10138774
62	0xbe005e70	-0.12536025
63	0xbdb02420	-0.0860064
64	0xbd51b640	-0.051199198
65	0xbd1a5bc0	-0.037685156
66	0xbca44980	-0.020054579
67	0xbba4f400	-0.00503397
68	0xbd0a8200	-0.033815384
69	0xbbb95b80	-0.0056566596
70	0xbc103680	-0.008802056
71	0xbd6e4040	-0.058166742
72	0xbd571108	-0.052506477
73	0xbd9d2d6e	-0.07674681
74	0xbddd4bd7	-0.10805481
75	0xbdb965a0	-0.090525866
76	0xbd954d30	-0.07290113
77	0xbd9f2ab0	-0.07771814
78	0xbd835ee0	-0.0641458
79	0xbdd79680	-0.105267525
80	0xbe049eb0	-0.1295116
81	0xbdc1e580	-0.09467602
82	0xbdbc96a0	-0.09208417
83	0xbdf157a0	-0.11784291
84	0xbdc61e60	-0.09673762
85	0xbce75700	-0.028239727
86	0xbd9b5e40	-0.07586336
87	0xbd18f800	-0.037345886
88	0x3cc1c700	0.02365446
89	0xbda786c0	-0.081799984
90	0xbdb02180	-0.086001396
91	0xbdf8e000	-0.121520996
92	0x3c8be100	0.017075062
93	0x3e12cc60	0.14335775
94	0x3e7193c0	0.23591518
95	0x3e7e5640	0.2483759
96	0x3e634fd0	0.22198415
97	0x3ddf9d00	0.10918617
98	0xbd6400e0	-0.055664897
99	0xbe29f8c0	-0.16598797
100	0x00000000	0.0
101	0x3aaeb400	0.0013328791
102	0xba351800	-0.00069081783
103	0xbc5adc80	-0.013358235
104	0xbd00a1e0	-0.031404376
105	0xbd1e3380	-0.038623333
106	0xbd055340	-0.032550097
107	0xbc921000	-0.017829895
108	0xbb03f000	-0.0020132065
109	0x3bbc3500	0.005743623
110	0x3b8ade00	0.0042378902
111	0xbc163100	-0.009166956
112	0xbce9fec0	-0.028563857
113	0xbd3daa20	-0.046304822
114	0xbd618260	-0.055055976
115	0xbd710000	-0.05883789
116	0xbd7bc9a0	-0.06147158
117	0xbd7be260	-0.061495185
118	0xbd8cab90	-0.068686604
119	0xbda19710	-0.07890141
120	0xbdb56f60	-0.08859134
121	0xbdd883b0	-0.105719924
122	0xbdc99bb8	-0.09844154
123	0xbda49958	-0.080370605
124	0xbd8a9d98	-0.0676834
125	0xbd7572b0	-0.059923828
126	0xbd51c630	-0.051214397
127	0xbd214800	-0.039375305
128	0xbccc47e0	-0.024936616
129	0xbc2cf4e0	-0.01055643
130	0x3b898380	0.004196584
131	0x3ca41570	0.020029753
132	0x3d1112f8	0.03541848
133	0x3d39cf98	0.045363992
134	0x3d4957e0	0.04915607
135	0x3d5593b0	0.0521428
136	0x3d610c00	0.054943085
137	0x3d8128d8	0.063066185
138	0x3d969d58	0.0735423
139	0x3da8e970	0.0824765
140	0x3dbbd0f8	0.09170717
141	0x3ddd6a40	0.10811281
142	0x3e0677c0	0.13131618
143	0x3e1b3460	0.15156698
144	0x3e2d32c0	0.16913891
145	0x3e3cf9d8	0.18454683
146	0x3e483c88	0.19554341
147	0x3e4c4858	0.19949472
148	0x3e527bb0	0.20554996
149	0x3e5a0630	0.21291423
150	0x3e63d260	0.2224822
151	0x3e83b6a0	0.2572527
152	0x3e9a03e0	0.3008108
153	0x3ea62e48	0.32457185
154	0x3eab75a0	0.33488178
155	0x3e93ce40	0.28868294
156	0x3e2f7e40	0.17138004
157	0x3dad0300	0.08447838
158	0x3c8cd200	0.01718998
159	0xbd055400	-0.03255081
160	0xbd83cd80	-0.064356804
161	0xbda48f40	-0.08035135
162	0xbdb54040	-0.08850145
163	0xbdbe1980	-0.092822075
164	0xbdb95a40	-0.09050417
165	0xbda86ce0	-0.08223891
166	0xbd9cb460	-0.07651591
167	0xbd9ab400	-0.075538635
168	0xbd999380	-0.074988365
169	0xbd982580	-0.074290276
170	0xbd966380	-0.07343197
171	0xbd94a6c0	-0.072583675
172	0xbd929580	-0.07157421
173	0xbd91b9e0	-0.07115531
174	0xbd909820	-0.070602655
175	0xbd8d6c80	-0.0690546
176	0xbd8a5820	-0.0675509
177	0xbd874700	-0.06605339
178	0xbd8b9a00	-0.068164825
179	0xbd9beee0	-0.07613921
180	0xbdb187e0	-0.08668494
181	0xbdb2b180	-0.08725262
182	0xbd98a600	-0.07453537
183	0xbd784140	-0.060609102
184	0xbd45cc00	-0.048290253
185	0xbd169080	-0.0367589
186	0xbce58b80	-0.02802062
187	0xbc9fd280	-0.019509554
188	0xbc073d00	-0.00825429
189	0x3bb4c000	0.0055160522
190	0x3ca60180	0.020264387
191	0x3cf2a800	0.029621124
192	0x3d12d080	0.035843372
193	0x3d197300	0.03746319
194	0x3cd9e680	0.026599169
195	0x3bc4a600	0.006001234
196	0xbcc07180	-0.023491621
197	0xbd707380	-0.0587039
198	0xbdb2c640	-0.087292194
199	0xbdc74200	-0.097293854
200	0xbdbe77a0	-0.093001604
201	0xbdb69ac0	-0.08916235
202	0xbdb8cde0	-0.090236425
203	0xbdb5a100	-0.08868599
204	0xbdb22270	-0.08697975
205	0xbdb4d0d0	-0.0882889
206	0xbdae7100	-0.08517647
207	0xbd9c9430	-0.07645452
208	0xbd8d0730	-0.068861365
209	0xbd9472e0	-0.07248473
210	0xbda2f710	-0.0795728
211	0xbd9f39f0	-0.077747226
212	0xbd873560	-0.06601977
213	0xbd44e7e0	-0.048072696
214	0xbcdab5c0	-0.026697993
215	0xbc2a4f00	-0.010394812
216	0x3b0ffa00	0.002196908
217	0x3c182680	0.009286523
218	0x3be0ec00	0.006864071
219	0x3b437200	0.0029822588
220	0x3bb95200	0.005655527
221	0x3cbee340	0.02330172
222	0x3d2aa6a0	0.041662812
223	0x3d731d00	0.05935383
224	0x3d92a130	0.0715965
225	0x3d901000	0.07034302
226	0x3d9689c0	0.073504925
227	0x3d929fb0	0.07159364
228	0x3d6d81a0	0.05798495
229	0x3d314500	0.043278694
230	0x3d048860	0.03235662
231	0x3cd41780	0.025890112
232	0x3ca42b00	0.020040035
233	0x3c0bd280	0.008534074
234	0xbc468800	-0.012117386
235	0xbd181f60	-0.037139297
236	0xbd6ce4c0	-0.05783534
237	0xbd98a500	-0.07453346
238	0xbdbfc5a0	-0.09363866
239	0xbdde74a0	-0.10862088
240	0xbdee60e0	-0.11639571
241	0xbdf1a910	-0.11799824
242	0xbde286e0	-0.110608816
243	0xbdd3b0d0	-0.10336459
244	0xbddb0d18	-0.10695857
245	0xbe0158ac	-0.12631482
246	0xbe227368	-0.15864336
247	0xbe3ed6ae	-0.18636581
248	0xbe424530	-0.18971705
249	0xbe369902	-0.17831805
250	0xbe23fb22	-0.16013768
251	0xbe0f5b67	-0.13999711
252	0xbdf80750	-0.1211077
253	0xbdc46c44	-0.095909625
254	0xbd84e5d8	-0.06489152
255	0xbcecee40	-0.0289222
