Simplified/data/gp_torch_models/gp_retrained_dim2_final.pth (torch, 50579 bytes, 5 tensors)

covar_module.base_kernel.raw_lengthscale f4 [1, 8]
000000 1f fa 52 3e 7d 04 1a 3f 45 3f c8 3f fe ad c8 3f
       0.20603226 0.601631 1.5644308 1.5678098
000010 6a b8 ac bf aa 2c 23 3f 9b 74 35 40 c6 42 37 40
       -1.3493779 0.63740027 2.835242 2.8634505

X_mean f4 [8]
000000 fb ed ac 3e e7 2d 3b 3f ae a4 09 bd ad a2 11 bc
       0.33775315 0.73116916 -0.033604316 -0.008888883
000010 73 98 03 3f 5c 23 0f bf 2d 38 22 3f 90 6d 17 3f
       0.51404494 -0.5591333 0.6336697 0.59151554

X_std f4 [8]
000000 f9 d2 2f 3e 4c 3c 3e 3e b0 15 4a 3f a2 4e 13 3f
       0.17170323 0.18577689 0.7893934 0.5754186
000010 e5 f2 48 40 cd 52 e7 40 08 c8 15 3f fe b5 08 3f
       3.139825 7.2288575 0.5850835 0.534027

X_train f4 [1200, 8]
000000 cd cc 2c 3f f6 28 80 3f 00 00 00 00 00 00 00 00
       0.675 1.00125 0.0 0.0
000010 db 0f c9 3f 00 00 00 00 ec 36 82 39 da e6 ce 38
       1.5707964 0.0 0.00024836452 9.865845e-05
000020 21 b8 2c 3f ef 4f 7e 3f f9 24 e7 bc 65 b6 c8 be
       0.6746846 0.9934072 -0.028215872 -0.39201656
000030 a0 16 c9 3f bf e2 93 3c 5f 14 49 3a fe 41 27 3b
       1.571003 0.018052457 0.0007670577 0.0025521512
000040 67 95 2b 3f 27 2a 76 3f a4 96 1d be 15 87 61 bf
       0.67024845 0.9615807 -0.15389496 -0.88096744
000050 88 80 c9 3f 7b 3f e8 3d 28 bf 10 3b 1a ee 98 3b
       1.574235 0.11340233 0.0022086594 0.004667056
000060 a8 3c 28 3f b4 c4 67 3f af aa c2 be 28 4b af bf
       0.65717554 0.9053452 -0.38020846 -1.3694811
000070 a2 aa ca 3f 94 e9 84 3e b4 10 78 3b d8 f2 aa 3b
       1.5833323 0.25959456 0.0037851753 0.0052169375
000080 c1 a6 21 3f 41 0d 53 3f 46 40 28 bf 9d fc ee bf
       0.6314507 0.824421 -0.65723073 -1.8670841
000090 72 f2 cc 3f b5 2c f7 3e 50 01 20 3b bc ab 10 3c
       1.6011488 0.48276296 0.0024414845 0.008830007
0000a0 b7 7d 16 3f f6 88 38 3f a2 3b a1 bf d4 38 07 c0
       0.58785576 0.72083986 -1.2596323 -2.1128435
0000b0 81 c4 d2 3f 6d 84 44 40 1a f2 12 3c 4e 3d bd 3b
       1.6466218 3.0705826 0.008968854 0.0057751304
0000c0 20 46 00 3f c4 e9 20 3f 22 e7 00 c0 ac df d7 bf
       0.50107 0.628567 -2.0141072 -1.6865134
0000d0 0f 42 05 40 b9 74 44 41 86 25 ab 3b cd fb 44 3c
       2.082157 12.278497 0.005222979 0.012022925
0000e0 d1 3b c6 3e 3e 87 0e 3f 7c 1f 21 c0 d8 ad 8f bf
       0.3871751 0.55675113 -2.5175467 -1.1224928
0000f0 84 16 2f 40 45 d5 56 41 82 9e 90 3b 24 67 34 3b
       2.7357492 13.427068 0.004413427 0.0027527297
000100 5d f0 81 3e 02 af 05 3f 3f 67 2f c0 b8 a9 7d be
       0.25378695 0.52220166 -2.7406766 -0.24771774
000110 4f 04 5b 40 76 79 5d 41 48 12 22 3c 74 ce 3f 3c
       3.422138 13.842154 0.009892054 0.011706937
000120 f7 ea f3 3d 63 b3 08 3f 30 87 23 c0 69 53 33 3f
       0.1191005 0.5339872 -2.5551262 0.7004915
000130 41 ea 7f 40 4d 35 04 41 c4 f5 92 3c fe f8 d4 38
       3.9986727 8.263013 0.017939456 0.00010155326
000140 41 26 a5 3b 7f e8 15 3f 76 5e fc bf 72 68 a3 3f
       0.0050399606 0.58557886 -1.9716327 1.2766249
000150 7f 07 88 40 e4 e7 28 40 3d ce a6 3c 01 36 b7 39
       4.250915 2.6391535 0.020362014 0.00034944716
000160 9f b3 9a bd d7 91 27 3f 84 18 9f bf fa c4 b6 3f
       -0.07553791 0.6545691 -1.2429357 1.4278862
000170 18 85 8b 40 91 8f 10 40 78 a6 41 3c 39 61 99 3c
       4.359997 2.2587626 0.011819474 0.018723117
000180 67 53 f3 bd 78 49 39 3f de d5 f9 be 4c 04 a6 3f
       -0.11881142 0.7237773 -0.4879598 1.2970061
000190 e2 91 8f 40 47 dc 33 40 ce 2d 90 3c 5a a5 13 3b
       4.486558 2.8103197 0.017599966 0.0022528977
0001a0 7e 75 01 be 40 b5 47 3f 17 c5 14 3e d8 91 6c 3f
       -0.12642476 0.7801094 0.14528309 0.9241004
0001b0 b0 82 94 40 f8 92 55 40 90 89 26 3c 85 89 c3 3c
       4.640953 3.3370953 0.010164633 0.023869285
0001c0 11 5b dc bd 8c 4f 50 3f 6c ec 13 3f 24 b3 cd 3e
       -0.10759557 0.8137138 0.57782626 0.40175736
0001d0 56 21 9a 40 30 54 69 40 bb 05 a8 3c ac 55 d1 3c
       4.8165693 3.6457634 0.020510545 0.025553547
0001e0 1b 2e 93 bd 96 ad 51 3f e3 c7 50 3f 28 67 4e be
       -0.07186528 0.81905496 0.81555 -0.20156538
0001f0 86 34 a0 40 00 4c 7b 40 bc ac c1 3c 0c 6b ae 3c
       5.0064116 3.9265137 0.023641936 0.021291278
000200 47 43 ed bc 1e 15 4b 3f 74 b8 64 3f cd 45 53 bf
       -0.028962744 0.793291 0.89343953 -0.8252838
000210 b9 83 a6 40 6e 7c 7b 40 ab ec 30 3c 29 b0 51 3c
       5.2035794 3.9294696 0.010798614 0.0127983475
000220 39 2f 95 3c 17 2d 3d 3f 4f 0d 81 3f b9 83 a5 bf
       0.018210994 0.73896927 1.0082186 -1.2930824
000230 9c 4d a9 40 81 a8 4c c0 58 8f 1b 3b e8 45 bf 3c
       5.290724 -3.1977847 0.0023736563 0.023348764
000240 69 92 92 3d 2a f8 29 3f e2 ce 92 3f d4 81 d8 bf
       0.07156832 0.66394293 1.1469386 -1.691462
000250 07 77 9d 40 86 c9 2d c1 58 71 48 3c 8e 80 8c 3c
       4.9207797 -10.8617 0.0122340545 0.017151143
000260 c6 27 0b 3e ca f1 12 3f 8c df bb 3f 3c 0d e7 bf
       0.13589391 0.5740019 1.4677596 -1.8050914
000270 f6 d3 87 40 64 11 83 c1 25 e5 07 3d ea d1 3c 3c
       4.244624 -16.383492 0.033177514 0.011524657
000280 5e 81 60 3e be 39 03 3f 11 10 e0 3f c2 43 81 be
       0.2192435 0.5125998 1.7504903 -0.25247008
000290 92 bd 50 40 58 0f a7 c1 7d 57 a8 3c b2 91 db 3b
       3.2615705 -20.882492 0.02054953 0.006700718
0002a0 50 c5 99 3e d7 a9 06 3f ed e5 c9 3f 33 0a 2d 3f
       0.3003335 0.52602905 1.5773293 0.6759369
0002b0 4f 6e 13 40 8f 9a 58 c1 8f 86 c7 3c ce 9c 15 3d
       2.3036077 -13.537734 0.024356155 0.036526494
0002c0 81 a9 c2 3e 3b 72 11 3f b6 38 cb 3f a6 c5 4c 3f
       0.38019946 0.56814927 1.5876682 0.7998909
0002d0 8a 9a 02 40 40 00 88 bf c4 af af 3c 37 d1 25 3d
       2.0406823 -1.0625076 0.021446116 0.040482726
0002e0 bd 0b ea 3e c5 05 1a 3f cf 87 ba 3f 15 43 14 3f
       0.4571208 0.60165054 1.4572695 0.5791486
0002f0 49 3d 03 40 2d 99 d1 3f a4 13 d6 3b 69 f3 90 3c
       2.0506155 1.637487 0.006533103 0.017694192
000300 b5 b7 04 3f 62 35 23 3f a4 cc 76 3f 42 51 5e 3f
       0.51842815 0.6375333 0.96406007 0.8684274
000310 51 3f 10 40 ee 02 a8 40 7b e3 65 3b c9 3a bc 3b
       2.2538645 5.2503576 0.0035078216 0.0057443124
000320 b9 06 0f 3f b9 b8 2d 3f 12 2e 25 3f dd ae 3e 3f
       0.5586963 0.6785999 0.6452342 0.7448557
000330 f5 f9 20 40 e4 60 a2 40 34 2c 21 3b 26 d1 3f 3d
       2.5152562 5.0743275 0.0024592998 0.04683032
000340 14 b4 14 3f c5 94 35 3f 5f a0 82 3e e4 5e ee 3e
       0.5808728 0.7093013 0.25512978 0.4655677
000350 0c e8 2c 40 45 8e f0 3f 79 53 09 3d d0 f7 47 3c
       2.701663 1.8793417 0.03352687 0.012205079
000360 57 a8 16 3f 8a 2f 39 3f c4 c0 94 3d 7f 7c b8 3d
       0.58850616 0.72338164 0.072633296 0.09008121
000370 ac cf 2e 40 79 9f 78 be f6 f4 23 3c 70 af a4 3b
       2.7314253 -0.24279584 0.010007134 0.0050257966
000380 e1 5e 16 3f 38 15 38 3f 69 3c 05 be 42 ce 7f be
       0.58738524 0.7190738 -0.13011326 -0.24981025
000390 77 8f 2b 40 d1 9c e3 bf a4 22 6e 3c 54 a5 d0 3c
       2.6806314 -1.7782232 0.014534626 0.02546946
0003a0 52 14 13 3f ac 09 33 3f 70 b9 ce be dc ae 05 bf
       0.5745288 0.69936633 -0.40375853 -0.5221994
0003b0 81 43 24 40 37 32 29 c0 2f 50 40 3d b6 94 49 3c
       2.56662 -2.6436899 0.04695147 0.012303522
0003c0 d3 b5 0b 3f 4d 0c 2b 3f f4 9a 3f bf 73 d5 3a bf
       0.54574317 0.66815645 -0.74845815 -0.7298195
0003d0 b7 34 1c 40 3a 58 1c c0 46 b5 92 3c b2 e4 0f 3d
       2.4407175 -2.442885 0.017908704 0.03513021
0003e0 81 23 00 3f a5 69 20 3f 6f 3a 89 bf c9 56 66 bf
       0.50054175 0.626612 -1.0720958 -0.89976174
0003f0 1a be 14 40 72 fb 02 c0 bb 2d c3 3b b9 dc 40 3d
       2.3241029 -2.046597 0.005956379 0.047085498

Y_train f4 [1200]
000000 00 00 00 00 9b c2 a4 bc 20 d4 1f bd 18 3e 58 bd
       0.0 -0.020112326 -0.039020658 -0.052793592
000010 90 a7 83 bd 54 72 9a be 20 51 f1 bd 40 5a ab bd
       -0.064284444 -0.3016535 -0.117830515 -0.08366823
000020 00 42 d8 bb 20 6b c7 3d a8 c0 0d 3e 90 bf 18 3e
       -0.0065996647 0.09737229 0.13843024 0.14916825
000030 ba 2d 13 3e 20 44 ce 3d 00 a7 7c 3d 00 b9 9e 3c
       0.14372912 0.100715876 0.0616827 0.019375324
000040 00 8f 44 3c 80 fe a0 3c 80 58 3f 3d d0 56 c5 3d
       0.0119969845 0.019652605 0.04671526 0.09635699
000050 90 be 8d bd 00 cc 3e 3c 80 34 75 bc f0 88 a0 bd
       -0.069211125 0.011645317 -0.01496613 -0.07838619
000060 58 23 88 bd a8 71 90 bd d8 a3 4d bd 0c 8d 08 bd
       -0.06647366 -0.07052928 -0.05020508 -0.033337638
000070 20 28 3d bd e4 73 87 bd a0 48 76 bd e0 56 a2 bd
       -0.046180844 -0.06613901 -0.060127854 -0.07926726
000080 00 64 23 bd c0 51 e8 bc 00 fa 58 3b a0 02 38 3d
       -0.03989029 -0.028359294 0.0033107996 0.04492438
000090 40 1b 6d 3d 60 69 9c 3d a0 90 9e 3d 9a 5c 83 3d
       0.057887316 0.07637286 0.07742429 0.06414147
0000a0 d0 3f 6b 3d 18 62 56 3d 00 50 62 3d 00 1b 70 3d
       0.057433903 0.052339643 0.055252075 0.0586195
0000b0 40 15 5a 3d 00 b5 08 3d 00 6d 54 bc 00 53 1c bc
       0.05324292 0.03337574 -0.012965441 -0.009541273
0000c0 e0 5c 03 bd 20 d8 76 bd 10 32 76 bd f0 c4 52 bd
       -0.032070994 -0.060264707 -0.060106337 -0.051457345
0000d0 ec 0a 3c bd 90 86 3c bd 0c 72 46 bd 48 35 57 bd
       -0.045908853 -0.046026766 -0.048448607 -0.052541047
0000e0 50 4f 6d bd 20 dc 40 bd a0 3e 1d bd 00 b1 8d bc
       -0.057936966 -0.047084928 -0.038389802 -0.017296314
0000f0 80 1f 6b 3c 60 8f 0f 3d 80 a9 75 3d 48 c1 82 3d
       0.014350772 0.035048842 0.0599761 0.06384522
000100 c0 f8 78 3d 32 f3 7e 3d 58 e7 56 3d 60 ac 3f 3d
       0.0607841 0.062243648 0.05246672 0.04679525
000110 00 84 47 3d 10 30 4c 3d e0 db 1d 3d 80 95 11 3c
       0.04870987 0.049850523 0.038539767 0.008885741
000120 00 32 2b bc c0 7d 84 bc c0 6c ee bc 00 a8 4a bd
       -0.010448933 -0.016173244 -0.02910459 -0.049476624
000130 f0 d4 55 bd 18 ad 2c bd 50 46 2d bd d0 8e 31 bd
       -0.052205026 -0.042157263 -0.042303383 -0.043349087
000140 c8 92 31 bd f0 da 2a bd d0 18 3f bd 30 f6 15 bd
       -0.043352872 -0.0417127 -0.046654522 -0.036611736
000150 80 4c 9f bc 00 20 f0 bb 80 07 4f 3c 00 44 bb 3c
       -0.019445658 -0.0073280334 0.0126360655 0.022859573
000160 90 b7 3a 3d e0 53 4f 3d 78 50 61 3d e4 a5 5a 3d
       0.045585215 0.0506171 0.05500838 0.053380862
000170 4c 54 62 3d d0 19 4d 3d e0 48 40 3d b0 0a 0c 3d
       0.055256173 0.050073445 0.0469445 0.03418988
000180 80 44 80 3c 00 e4 01 bc 80 b2 bb bc c0 4e c7 bc
       0.015657663 -0.007927895 -0.022912264 -0.024329543
000190 20 36 12 bd 70 44 1b bd 90 95 2a bd 54 31 14 bd
       -0.03569615 -0.037907064 -0.04164654 -0.036179855
0001a0 9b a3 35 bd d0 e7 34 bd 98 a5 2c bd b0 6f 1e bd
       -0.04434548 -0.044166386 -0.04215011 -0.038680732
0001b0 80 f2 f0 bc 20 b3 c8 bc 00 6e 1d bb 80 78 4c 3c
       -0.029412508 -0.024499476 -0.0024021864 0.012479901
0001c0 a0 00 07 3d 00 35 58 3d 98 bc 27 3d 30 ef 4d 3d
       0.03295958 0.05278492 0.04095134 0.050276935
0001d0 d7 4c 35 3d a0 36 3a 3d d8 f8 3d 3d a0 08 32 3d
       0.044262733 0.04546225 0.046379894 0.043465257
0001e0 20 30 ef 3c 40 72 06 3c 40 a7 2b bc 20 7d 88 bc
       0.029197752 0.00820595 -0.010476887 -0.016661227
0001f0 c0 27 92 bc 90 c6 09 bd b0 40 1f bd 58 bc 20 bd
       -0.01784122 -0.03363663 -0.03888005 -0.03924212
000200 70 6e 1f bd a0 20 0c bd 94 5f 0d bd 18 fa 37 bd
       -0.03892368 -0.0342108 -0.03451498 -0.044916242
000210 a0 ed 0f bd e0 4a dc bc c0 7f 57 bc 00 31 5d 3b
       -0.035138726 -0.026891172 -0.013153017 0.003375113
000220 00 8a 41 3b 40 3c a2 3c c0 fc fa 3c 38 15 20 3d
       0.0029531717 0.01980412 0.030638099 0.039082736
000230 b0 09 4d 3d 62 d2 33 3d 9e 48 2a 3d c0 27 0d 3d
       0.050058067 0.04390181 0.04157316 0.034461737
000240 d8 42 07 3d 60 81 11 3d 40 7d 3d 3c 00 2a a2 bb
       0.03302273 0.035523772 0.011565506 -0.0049488544
000250 00 fa 5f bb e0 a3 b4 bc 20 21 c8 bc 50 49 d2 bc
       -0.0034176111 -0.022050798 -0.024429858 -0.025669724
000260 38 9b 09 bd 5c f8 26 bd 8f ba 16 bd f8 2a 14 bd
       -0.033595294 -0.040764198 -0.03679901 -0.03617379
000270 50 28 ae bc 10 2f e8 bc c0 c3 01 bd 80 78 47 bc
       -0.021259457 -0.028342754 -0.031680822 -0.0121747255
000280 00 0d 1c bc a0 b4 97 3c a0 11 84 3c a0 c2 86 3c
       -0.009524584 0.018518746 0.016121686 0.016450226
000290 80 77 c6 3c b8 a6 3e 3d 66 6f 0a 3d fc 67 b6 3c
       0.024226904 0.046545714 0.033797644 0.02226638
0002a0 b0 e7 ef 3c 50 d0 bd 3c 10 6f a1 3c 00 62 3d 3c
       0.029285282 0.02317062 0.019706279 0.01155901
0002b0 e0 1e 93 3c 00 f7 a0 3b 00 6d cc bb 80 ba 5f bc
       0.017959058 0.004912257 -0.0062385798 -0.013655305
0002c0 70 64 8e bc f0 14 a4 bc 30 41 9b bc 78 c9 c2 bc
       -0.017381877 -0.020029515 -0.018951982 -0.023777708
0002d0 2c a5 dd bc 78 6b f3 bc 60 02 fa bc 60 0e 8f bc
       -0.0270563 -0.029714331 -0.03051871 -0.01746291
0002e0 80 d2 c6 bc 80 cf bf bb 00 e0 02 bb 80 e9 d9 3b
       -0.024270296 -0.0058535933 -0.001996994 0.00665015
0002f0 40 1e 48 3c 80 37 7c 3c 50 6e da 3c 78 af 37 3d
       0.012214243 0.015394092 0.02666393 0.044845074
000300 1c ac 26 3d e4 10 1d 3d b0 dc c3 3c 60 6d bf 3c
       0.04069148 0.038346186 0.023908943 0.023367584
000310 80 a3 e5 3b 00 cd 8e bb 00 b3 d7 bb 00 bc 73 bc
       0.007008016 -0.004357934 -0.0065826178 -0.014876366
000320 20 5e 44 bc 08 5c 1a bd 60 97 d8 bc 28 e5 9f bc
       -0.011985332 -0.037685424 -0.026439369 -0.01951845
000330 2d c9 c0 bc b0 86 c1 bc 00 96 f4 bc 90 ac a6 bc
       -0.023533428 -0.023623794 -0.029856682 -0.020345956
000340 20 90 2a bc 90 de 9b bc c0 3b 20 bc 00 df e4 bb
       -0.010410339 -0.019027025 -0.0097798705 -0.0069845915
000350 e0 ec 44 bc 00 59 0e 3b 60 11 94 3c 20 4b 50 3c
       -0.012019366 0.0021720529 0.018074691 0.012713224
000360 50 89 e8 3c ba f1 d0 3c 92 ac 12 3d 50 00 1e 3d
       0.028385788 0.02550589 0.035809107 0.038574517
000370 10 51 fc 3c 60 44 08 3c 00 ae f7 3a 80 1b 81 3b
       0.030800372 0.008317083 0.001889646 0.003940046
000380 60 1d ec bc a0 19 b3 bc 70 29 a5 bc a0 1a f4 bc
       -0.0288226 -0.021862805 -0.02016136 -0.029797852
000390 f0 79 9a bc f1 3b 07 bd 4c 6c b9 bc 44 86 0e bd
       -0.018856972 -0.03301615 -0.022634648 -0.034796014
0003a0 10 ca d4 bc e8 13 03 bd b0 93 d4 bc a0 80 90 bc
       -0.025975257 -0.032001406 -0.02594933 -0.017639458
0003b0 c0 bf 12 3c 80 0c 56 3c 00 64 42 bb 80 d4 19 3b
       0.00895685 0.013064504 -0.0029661655 0.0023472607
0003c0 60 6e 21 3d 2c 39 0b 3d 58 eb 9d 3c 93 25 93 3c
       0.039411902 0.03399007 0.01927726 0.017962253
0003d0 38 25 b1 3c 60 fc 21 3c 00 86 79 3b 00 db 8c 3a
       0.021624193 0.009886831 0.0038074255 0.001074642
0003e0 a0 1c b7 3c 00 1e 8a ba 00 a4 fb 3a 20 42 8c bc
       0.022352517 -0.0010537505 0.0019198656 -0.017121375
0003f0 e0 88 b6 bc c0 49 d8 bc e4 37 b9 bc 3c 24 24 bd
       -0.022282064 -0.026402354 -0.022609659 -0.04007362
