Simplified/data/gp_torch_models/gp_retrained_dim0_final.pth (torch, 32595 bytes, 5 tensors)

covar_module.base_kernel.raw_lengthscale f4 [1, 8]
4.614089 5.607313 1.3525497 -1.0110537 6.347678 2.9760473 5.7642217 5.805839
00000000: 9ea6 9340 1c6f b340 5920 ad3f 356a 81bf
00000010: 2e20 cb40 8f77 3e40 8174 b840 6fc9 b940

X_mean f4 [8]
0.43794113 0.77452 -0.14786366 -0.010014441 1.424367 -0.3591436 0.7039937 0.8612814
00000000: d239 e03e f146 463f 9269 17be 9c13 24bc
00000010: a851 b63f ace1 b7be ee38 343f f07c 5c3f

X_std f4 [8]
0.18483628 0.18867576 1.3458141 5.477418 1.6909978 9.690448 0.6336849 0.69231254
00000000: b945 3d3e 3834 413e a343 ac3f 0247 af40
00000010: 9e72 d83f 130c 1b41 2c39 223f 653b 313f

X_train f4 [700, 8]
0.675 1.00125 0.0 0.0 1.5707964 0.0 0.0004310618 8.292178e-05
0.6748889 0.996842 -0.013564101 -0.2937088 1.570981 0.013813474 0.005945622 0.019791158
0.67282957 0.9773308 -0.101991735 -0.68052346 1.5724664 0.059059277 0.029947834 0.040018316
0.66637045 0.9424759 -0.2366493 -1.0623294 1.5756477 0.23796555 0.054954242 0.012386037
0.6531068 0.8923151 -0.43198615 -1.4456735 1.5924045 0.54254043 0.032698315 0.039482534
0.631639 0.8266915 -0.6472854 -1.8331637 1.6143268 0.56530184 0.015253003 0.09057867
0.60016394 0.746308 -0.97293615 -2.1533036 1.6396354 0.828995 0.11462182 0.03979161
0.5435152 0.66743255 -1.7661493 -1.7750113 1.8445119 9.588504 0.10014232 0.11029373
0.46551946 0.60156524 -2.1537232 -1.4678465 2.3037703 12.523444 0.00040012962 0.051715687
0.3728243 0.5510451 -2.481307 -0.9901977 2.8124413 12.748317 0.11809446 0.17075054
0.26991716 0.5244474 -2.6065822 -0.3340736 3.3296583 13.2176285 0.068014964 0.050702587
0.16678968 0.52482975 -2.5109127 0.35471123 3.8314426 10.61083 0.09482468 0.112908885
0.0726505 0.55139583 -2.1505609 0.9248925 4.1418495 5.1640477 0.03881754 0.06408351
-0.004056467 0.5947826 -1.669198 1.1932968 4.264047 1.5766225 0.21815188 0.16130422
-0.05992083 0.64358824 -1.1241543 1.2139717 4.3351855 2.0203986 0.030168988 0.05192269
-0.09414834 0.690103 -0.58303326 1.0815823 4.432297 2.7708068 0.23454104 0.09737648
-0.107016966 0.7280476 -0.076714285 0.8015454 4.5470023 3.2039096 0.3112396 0.19649287
-0.10201995 0.75263804 0.30881783 0.4087201 4.7007575 4.415224 0.1384982 0.21552233
-0.08368654 0.7597078 0.59277296 -0.04737274 4.8771667 4.5022864 0.20489298 0.32930166
-0.056032285 0.7477645 0.78170294 -0.5414091 5.0388885 3.5323398 0.3090881 0.30305687
-0.021082446 0.71814054 0.95567703 -0.92375535 5.1117086 -1.1286021 0.12522888 0.20628266
0.020207772 0.6743587 1.1106107 -1.2779106 4.945245 -6.705378 0.05552115 0.32230473
0.06871393 0.6172352 1.3313171 -1.5458972 4.5718966 -11.338007 0.17841037 0.16640048
0.1286304 0.5546959 1.683276 -1.4675463 4.044746 -15.273913 0.10685934 0.06505884
0.20302679 0.5142063 1.9995753 -0.36779815 3.3773155 -16.817274 0.3936335 0.06386603
0.2812729 0.5185782 1.9154451 0.40407464 2.755383 -13.509696 0.3744431 0.43085632
0.35780546 0.545792 1.9471164 0.9767575 2.2822185 -8.174148 0.4542076 0.46574438
0.43614224 0.58768225 1.9343926 1.092067 2.0539339 -3.4356701 0.095598295 0.07055052
0.5091842 0.6332934 1.6625807 1.2167546 1.9830087 0.5564297 0.4772021 0.5592316
0.5662089 0.68683034 1.1861815 1.4402616 2.0464528 1.7803617 0.4795529 0.24248925
0.60712403 0.7452525 0.882295 1.466376 2.1655886 3.8484044 0.17313491 0.2767867
0.63586056 0.8018212 0.5254198 1.3176525 2.3098838 3.0513947 0.5063621 0.55072683
00000000: cdcc 2c3f f628 803f 0000 0000 0000 0000
00000010: db0f c93f 0000 0000 2300 e239 4be6 ad38
00000020: 85c5 2c3f 0a31 7f3f f73b 5ebc 0061 96be
00000030: e815 c93f e951 623c 7ed3 c23b 1121 a23c
00000040: 8f3e 2c3f 5a32 7a3f 0be1 d0bd c936 2ebf
00000050: 9446 c93f 24e8 713d 2955 f53c 3fea 233d
00000060: 4197 2a3f 1a46 713f 3254 72be 69fa 87bf
00000070: d3ae c93f 3ead 733e b317 613d ceee 4a3c
00000080: 0232 273f c36e 643f 4a2d ddbe d40b b9bf
00000090: e9d3 cb3f eee3 0a3f abee 053d 70b8 213d
000000a0: 18b3 213f 0ea2 533f 7fb4 25bf 1ca5 eabf
000000b0: 43a2 ce3f 9fb7 103f bbe7 793c 4f81 b93d
000000c0: 58a4 193f 0b0e 3f3f 5812 79bf bacf 09c0
000000d0: 93df d13f 0439 543f d8be ea3d 87fc 223d
000000e0: d023 0b3f dcdc 2a3f 2e11 e2bf 9233 e3bf
000000f0: f718 ec3f 836a 1941 6b17 cd3d aee1 e13d
00000100: 9158 ee3e 2e00 1a3f 9ad6 09c0 65e2 bbbf
00000110: f970 1340 0760 4841 7dc8 d139 d4d3 533d
00000120: d4e2 be3e 4b11 0d3f bccd 1ec0 997d 7dbf
00000130: 0aff 3340 1bf9 4b41 82db f13d 3bd9 2e3e
00000140: 9532 8a3e 2f42 063f 3ed2 26c0 b20b abbe
00000150: 1f19 5540 687b 5341 6e4b 8b3d 84ad 4f3d
00000160: eaca 2a3e 3e5b 063f cbb2 20c0 b69c b53e
00000170: 5b36 7540 f6c5 2941 7133 c23d c63c e73d
00000180: c9c9 943d 4728 0d3f caa2 09c0 c1c5 6c3f
00000190: 088a 8440 e13f a540 24ff 1e3d 373e 833d
000001a0: 1dec 84bb ac43 183f 48a8 d5bf f3bd 983f
000001b0: 1373 8840 c4ce c93f 3563 5f3e ef2c 253e
000001c0: 8b6f 75bd 33c2 243f 4ae4 8fbf 6d63 9b3f
000001d0: d7b9 8a40 364e 0140 f424 f73c e3ac 543d
000001e0: d8d0 c0bd 97aa 303f ab41 15bf 4a71 8a3f
000001f0: 61d5 8d40 e654 3140 872b 703e 526d c73d
00000200: b62b dbbd 5461 3a3f 611c 9dbd 1432 4d3f
00000210: 0b81 9140 db0c 4d40 cc5a 9f3e 6d35 493e
00000220: d6ef d0bd e3ac 403f 5f1d 9e3e c343 d13e
00000230: 9b6c 9640 8449 8d40 79d2 0d3e e3b1 5c3e
00000240: d963 abbd 367c 423f f8bf 173f eb09 42bd
00000250: c011 9c40 bb12 9040 77cf 513e 3a9a a83e
00000260: 1c82 65bd 7f6d 3f3f af1d 483f c999 0abf
00000270: 933e a140 db11 6240 cc40 9e3e 452a 9b3e
00000280: 18b5 acbc 0fd8 373f 40a7 743f 3b7b 6cbf
00000290: 1e93 a340 0976 90bf 003c 003e c33b 533e
000002a0: c58a a53c c6a2 2c3f 7e28 8e3f 9392 a3bf
000002b0: 723f 9e40 7592 d6c0 256a 633d 2005 a53e
000002c0: e4b9 8c3d 2003 1e3f 9968 aa3f f6df c5bf
000002d0: fa4c 9240 7a68 35c1 35b1 363e e364 2a3e
000002e0: b0b7 033e 8d00 0e3f 9775 d73f 8fd8 bbbf
000002f0: 8f6e 8140 f361 74c1 12d9 da3d 923d 853d
00000300: 41e6 4f3e 06a3 033f 15f2 ff3f 0a50 bcbe
00000310: f025 5840 c789 86c1 558a c93e 31cc 823d
00000320: 0003 903e 8ac1 043f 4e2d f53f dfe2 ce3e
00000330: 3258 3040 b727 58c1 02b7 bf3e 3399 dc3e
00000340: 4732 b73e 06b9 0b3f 1c3b f93f c80c 7a3f
00000350: de0f 1240 4fc9 02c1 e68d e83e 0c76 ee3e
00000360: 094e df3e 5872 163f 2d9a f73f dac8 8b3f
00000370: a773 0340 05e2 5bc0 0ac9 c33d cb7c 903d
00000380: e559 023f 841f 223f 72cf d43f 9dbe 9b3f
00000390: 3bd3 fd3f 2d72 0e3f d553 f43e cd29 0f3f
000003a0: 11f3 103f 1dd4 2f3f ccd4 973f 7e5a b83f
000003b0: 15f9 0240 e4e2 e33f f587 f53e 1a4f 783e
000003c0: 7b6c 1b3f dec8 3e3f 16de 613f 35b2 bb3f
000003d0: 0199 0a40 424c 7640 474a 313e fdb6 8d3e
000003e0: c2c7 223f 2744 4d3f e981 063f d6a8 a83f
000003f0: 23d5 1340 0d4a 4340 f2a0 013f 6ffc 0c3f

Y_train f4 [700]
0.0 -0.0002040863 -0.0011782646 -0.0025939345 -0.0045690536 -0.006770551 -0.010630786 -0.018078566
-0.021949261 -0.02516517 -0.025998503 -0.024825543 -0.02095016 -0.016022772 -0.01057348 -0.005155936
-0.00022985041 0.0034939647 0.0062002093 0.008056708 0.009752009 0.011334857 0.013684735 0.017300189
0.019929051 0.019025296 0.01955533 0.019205779 0.01608634 0.011366785 0.008440256 0.004703939
0.0020182133 0.001314044 0.0014049411 0.0006438494 -0.0006328225 -0.0015512705 -0.002507627 -0.0034231544
-0.0044105053 -0.0055379868 -0.007412255 -0.010383785 -0.012626201 -0.015165776 -0.015353888 -0.016709536
-0.015724927 -0.01314339 -0.0108038485 -0.0077013 -0.0043029785 -4.4353306e-05 0.0033848584 0.006731905
0.010142669 0.013179868 0.015287399 0.016735435 0.017723769 0.016878277 0.015323579 0.011886656
0.007941365 0.0050673485 0.0024457574 6.109476e-05 -0.0026015043 -0.004921317 -0.007552862 -0.008722186
-0.009460151 -0.011145115 -0.0121435225 -0.012882143 -0.012790889 -0.012716502 -0.0111963 -0.0077877194
-0.0018547922 0.005032286 0.010307372 0.011286765 0.009991318 0.006829411 0.0017629862 -0.0036828816
-0.008422911 -0.009784311 -0.009272248 -0.007771373 -0.007650703 -0.0067196786 -0.008377731 -0.008617118
-0.004461132 -0.0027915388 -0.0006827228 0.0033419952 0.0 -1.7881393e-07 -2.4020672e-05 -0.00010460615
-0.0002514124 -0.00044697523 -0.0006812811 -0.0009686351 -0.0012993813 -0.0015627742 -0.0019566417 -0.0024721026
-0.0030544996 -0.003671825 -0.004296422 -0.0049214363 -0.00552541 -0.0061309934 -0.006818235 -0.0074667335
-0.0077624917 -0.007962942 -0.008762777 -0.009704888 -0.010637164 -0.011624336 -0.012487471 -0.013125181
-0.013492525 -0.013765991 -0.013859391 -0.013781279 -0.013607651 -0.013448507 -0.013468385 -0.0135239065
-0.013649136 -0.01389873 -0.01409626 -0.014151931 -0.014207274 -0.014343202 -0.014475942 -0.014595509
-0.014734387 -0.014740527 -0.014547974 -0.014224172 -0.013784051 -0.013169497 -0.012259632 -0.010761887
-0.007915124 -0.004693523 -0.0026132017 -0.0018747598 -0.0025669336 -0.0027873367 -0.002677232 -0.0024010092
-0.0020421445 -0.0016241074 -0.0012653768 -0.0009932667 -0.0006708652 -0.00026643276 8.609891e-05 0.00033897161
0.0005454272 0.0007353276 0.0009287745 0.001142621 0.0013837218 0.0016745329 0.002000749 0.0023346394
0.0026786178 0.0030613244 0.0036349297 0.0044867247 0.0054209977 0.006044358 0.006411314 0.0066725165
0.0068772286 0.0070197135 0.0071780384 0.0073144436 0.0073323846 0.0074009 0.007499397 0.0075273514
0.0075199604 0.007657349 0.008104593 0.0087893605 0.009662569 0.010645777 0.011612117 0.01249066
0.013159901 0.013727069 0.014303148 0.014766753 0.015096813 0.015334934 0.015387684 0.015268564
0.0150435865 0.014716595 0.014246941 0.013670325 0.0130646825 0.012504399 0.011911809 0.01133734
0.01080817 0.010323346 0.009838402 0.009270012 0.008664131 0.007994533 0.0072731376 0.0064941645
0.005636096 0.004695475 0.0036153793 0.0024738312 0.001578331 0.00090920925 0.00037062168 -6.484985e-05
-0.00038969517 -0.0005776882 -0.00062680244 -0.00058990717 -0.0005136132 -0.00046604872 -0.00052422285 -0.0007201433
-0.0010462999 -0.0014945269 -0.00209558 -0.0028719306 -0.003936887 -0.0051876903 -0.006378114 -0.008252919
-0.010750592 -0.013555944 -0.015927315 -0.01785177 -0.019172609 -0.020160913 -0.020677269 -0.021314353
00000000: 0000 0000 0000 56b9 0070 9aba 00ff 29bb
00000010: 00b8 95bb 80db ddbb c02c 2ebc 8019 94bc
00000020: f0ce b3bc 3027 cebc d0fa d4bc f05e cbbc
00000030: ac9f abbc 3042 83bc 643c 2dbc 20f3 a8bb
00000040: 0004 71b9 00fb 643b 202b cb3b 4800 043c
00000050: e4c6 1f3c d6b5 393c f035 603c 20b9 8d3c
00000060: 4042 a33c f0da 9b3c 8032 a03c 7055 9d3c
00000070: 80c7 833c c03b 3a3c 0049 0a3c 8023 9a3b
00000080: 0044 043b 003c ac3a 0026 b83a 00c8 283a
00000090: 00e4 25ba 0054 cbba 0057 24bb 0057 60bb
000000a0: 0086 90bb 0078 b5bb 80e2 f2bb c020 2abc
000000b0: 20de 4ebc e079 78bc e08e 7bbc 70e2 88bc
000000c0: 90d1 80bc 6057 57bc a002 31bc 305b fcbb
000000d0: 0000 8dbb 0008 3ab8 80d4 5d3b 5097 dc3b
000000e0: 702d 263c 60f0 573c 0078 7a3c c018 893c
000000f0: 7031 913c 5044 8a3c c00f 7b3c 40c0 423c
00000100: 801c 023c 000c a63b 0049 203b 0020 8038
00000110: 007e 2abb 0043 a1bb 007e f7bb 80e7 0ebc
00000120: c0fe 1abc 009a 36bc a0f5 46bc a00f 53bc
00000130: e090 51bc e058 50bc b070 37bc 2030 ffbb
00000140: 801c f3ba e0e5 a43b 40e0 283c 20ec 383c
00000150: a0b2 233c 40c9 df3b 0014 e73a 805c 71bb
00000160: 4000 0abc 604e 20bc a0ea 17bc 00a7 febb
00000170: c0b2 fabb c030 dcbb c042 09bc d02e 0dbc
00000180: b02e 92bb 40f2 36bb c0f8 32ba 6005 5b3b
00000190: 0000 0000 0000 40b4 0080 c9b7 0060 dbb8
000001a0: 00d0 83b9 0058 eab9 0098 32ba 00ec 7dba
000001b0: 0050 aaba 00d6 ccba 003b 00bb 0003 22bb
000001c0: 002e 48bb 00a3 70bb 00c9 8cbb 0044 a1bb
000001d0: 800e b5bb 80e6 c8bb 806b dfbb 80ab f4bb
000001e0: 805c febb 0077 02bc c091 0fbc 4001 1fbc
000001f0: 8047 2ebc 0074 3ebc 4098 4cbc 000b 57bc
00000200: c00f 5dbc c08a 61bc 8012 63bc e0ca 61bc
00000210: a0f2 5ebc 2057 5cbc 80aa 5cbc 6093 5dbc
00000220: a0a0 5fbc 80b7 63bc 00f4 66bc 80dd 67bc
00000230: a0c5 68bc c0ff 6abc 802c 6dbc 0022 6fbc
00000240: 8068 71bc 4082 71bc a05a 6ebc 800c 69bc
00000250: 80d6 61bc e0c4 57bc a0dc 48bc a052 30bc
00000260: 70ae 01bc 20cc 99bb 4042 2bbb 80ba f5ba
00000270: 003a 28bb c0ab 36bb 8074 2fbb 405a 1dbb
00000280: 80d5 05bb 00e0 d4ba 00db a5ba 8030 82ba
00000290: 00dd 2fba 00b0 8bb9 0090 b438 00b8 b139
000002a0: 00fb 0e3a 00c3 403a 0079 733a 00c4 953a
000002b0: 005e b53a 007c db3a 001f 033b c000 193b
000002c0: c08b 2f3b 80a0 483b 0038 6e3b 6005 933b
000002d0: a0a2 b13b c00f c63b 0016 d23b 20a5 da3b
000002e0: 605a e13b a005 e63b c035 eb3b 00ae ef3b
000002f0: 8044 f03b 4083 f23b 80bd f53b 00a8 f63b
00000300: 006a f63b 80ea fa3b 20c9 043c 4001 103c
00000310: c04f 1e3c a06b 2e3c c040 3e3c a0a5 4c3c
00000320: a09c 573c 80e7 603c c057 6a3c 40f0 713c
00000330: a058 773c 603f 7b3c a01c 7c3c 0029 7a3c
00000340: 6079 763c e01d 713c 006c 693c 80f9 5f3c
00000350: 400d 563c 40df 4c3c c029 433c 40c0 393c
00000360: c014 313c 4023 293c 4031 213c 40e1 173c
00000370: 00f4 0d3c 80fb 023c 8053 ee3b 00cd d43b
00000380: 00af b83b 80dc 993b 00f0 6c3b 0020 223b
00000390: 00e0 ce3a 0058 6e3a 0050 c239 0000 88b8
000003a0: 0050 ccb9 0070 17ba 0050 24ba 00a4 1aba
000003b0: 00a4 06ba 0058 f4b9 006c 09ba 00c8 3cba
000003c0: 0024 89ba 00e4 c3ba 0056 09bb 0037 3cbb
000003d0: 0001 81bb 80fd a9bb 80ff d0bb 4037 07bc
000003e0: 4023 30bc c019 5ebc 007a 82bc e03d 92bc
000003f0: e00f 9dbc 8028 a5bc 6063 a9bc 709b aebc
