Simplified/data/gp_torch_models/gp_retrained_dim2.pth (torch, 6657 bytes, 3 tensors)

covar_module.base_kernel.raw_lengthscale f4 [1, 8]
000000 5c 9a 0d 3f 86 a8 0b 3f 21 3c 85 40 cb c8 52 40
       0.5531366 0.5455402 4.16359 3.2935054
000010 da 0a 7e 40 87 92 82 40 97 79 27 3f 28 d5 8b 40
       3.9694123 4.0803866 0.65419906 4.36977

X_mean f4 [8]
000000 2d 5d ae 3e fc a3 2c 3f 33 40 e1 bd dc f2 a0 be
       0.34055462 0.6743772 -0.10998573 -0.31435287
000010 90 03 3a 40 ab a5 9a 3f f6 78 08 3f c0 a9 dc 3e
       2.9064674 1.2081808 0.5330957 0.4309826

X_std f4 [8]
000000 0f 10 86 3e c6 2b 29 3e 6d 38 cb 3f ac 52 82 3f
       0.26184127 0.16520604 1.5876595 1.018148
000010 a4 9d 83 3f 50 2d c1 40 1c b8 ff 3e 06 10 cf 3e
       1.0282483 6.0367813 0.49945152 0.40441912
