Simplified/data/gp_torch_models/gp_retrained_dim1_final.pth (torch, 57747 bytes, 5 tensors)

covar_module.base_kernel.raw_lengthscale f4 [1, 8]
4.952111 3.9210136 4.409265 1.0628635 5.356516 4.5060534 5.0326133 4.616461
00000000: b177 9e40 e3f1 7a40 b318 8d40 e90b 883f
00000010: 9468 ab40 9731 9040 2b0b a140 0cba 9340

X_mean f4 [8]
0.33983454 0.75333375 -0.07658273 -0.020830074 0.36825064 -0.83931535 0.65810347 0.6828505
00000000: cbfe ad3e 7bda 403f 68d7 9cbd d5a3 aabc
00000010: 598b bc3e 5fdd 56bf 7879 283f 4acf 2e3f

X_std f4 [8]
0.18791296 0.20420915 1.1191077 1.7108117 3.2106361 8.686999 0.602886 0.6064667
00000000: 416c 403e 341c 513e ec3e 8f3f e1fb da3f
00000010: 107b 4d40 f3fd 0a41 bd56 1a3f 6741 1b3f

X_train f4 [1400, 8]
0.675 1.00125 0.0 0.0 1.5707964 0.0 0.00024836452 9.865845e-05
0.6746846 0.9934072 -0.028215872 -0.39201656 1.571003 0.018052457 0.0007670577 0.0025521512
0.67024845 0.9615807 -0.15389496 -0.88096744 1.574235 0.11340233 0.0022086594 0.004667056
0.65717554 0.9053452 -0.38020846 -1.3694811 1.5833323 0.25959456 0.0037851753 0.0052169375
0.6314507 0.824421 -0.65723073 -1.8670841 1.6011488 0.48276296 0.0024414845 0.008830007
0.58785576 0.72083986 -1.2596323 -2.1128435 1.6466218 3.0705826 0.008968854 0.0057751304
0.50107 0.628567 -2.0141072 -1.6865134 2.082157 12.278497 0.005222979 0.012022925
0.3871751 0.55675113 -2.5175467 -1.1224928 2.7357492 13.427068 0.004413427 0.0027527297
0.25378695 0.52220166 -2.7406766 -0.24771774 3.422138 13.842154 0.009892054 0.011706937
0.1191005 0.5339872 -2.5551262 0.7004915 3.9986727 8.263013 0.017939456 0.00010155326
0.0050399606 0.58557886 -1.9716327 1.2766249 4.250915 2.6391535 0.020362014 0.00034944716
-0.07553791 0.6545691 -1.2429357 1.4278862 4.359997 2.2587626 0.011819474 0.018723117
-0.11881142 0.7237773 -0.4879598 1.2970061 4.486558 2.8103197 0.017599966 0.0022528977
-0.12642476 0.7801094 0.14528309 0.9241004 4.640953 3.3370953 0.010164633 0.023869285
-0.10759557 0.8137138 0.57782626 0.40175736 4.8165693 3.6457634 0.020510545 0.025553547
-0.07186528 0.81905496 0.81555 -0.20156538 5.0064116 3.9265137 0.023641936 0.021291278
-0.028962744 0.793291 0.89343953 -0.8252838 5.2035794 3.9294696 0.010798614 0.0127983475
0.018210994 0.73896927 1.0082186 -1.2930824 5.290724 -3.1977847 0.0023736563 0.023348764
0.07156832 0.66394293 1.1469386 -1.691462 4.9207797 -10.8617 0.0122340545 0.017151143
0.13589391 0.5740019 1.4677596 -1.8050914 4.244624 -16.383492 0.033177514 0.011524657
0.2192435 0.5125998 1.7504903 -0.25247008 3.2615705 -20.882492 0.02054953 0.006700718
0.3003335 0.52602905 1.5773293 0.6759369 2.3036077 -13.537734 0.024356155 0.036526494
0.38019946 0.56814927 1.5876682 0.7998909 2.0406823 -1.0625076 0.021446116 0.040482726
0.4571208 0.60165054 1.4572695 0.5791486 2.0506155 1.637487 0.006533103 0.017694192
0.51842815 0.6375333 0.96406007 0.8684274 2.2538645 5.2503576 0.0035078216 0.0057443124
0.5586963 0.6785999 0.6452342 0.7448557 2.5152562 5.0743275 0.0024592998 0.04683032
0.5808728 0.7093013 0.25512978 0.4655677 2.701663 1.8793417 0.03352687 0.012205079
0.58850616 0.72338164 0.072633296 0.09008121 2.7314253 -0.24279584 0.010007134 0.0050257966
0.58738524 0.7190738 -0.13011326 -0.24981025 2.6806314 -1.7782232 0.014534626 0.02546946
0.5745288 0.69936633 -0.40375853 -0.5221994 2.56662 -2.6436899 0.04695147 0.012303522
0.54574317 0.66815645 -0.74845815 -0.7298195 2.4407175 -2.442885 0.017908704 0.03513021
0.50054175 0.626612 -1.0720958 -0.89976174 2.3241029 -2.046597 0.005956379 0.047085498
00000000: cdcc 2c3f f628 803f 0000 0000 0000 0000
00000010: db0f c93f 0000 0000 ec36 8239 dae6 ce38
00000020: 21b8 2c3f ef4f 7e3f f924 e7bc 65b6 c8be
00000030: a016 c93f bfe2 933c 5f14 493a fe41 273b
00000040: 6795 2b3f 272a 763f a496 1dbe 1587 61bf
00000050: 8880 c93f 7b3f e83d 28bf 103b 1aee 983b
00000060: a83c 283f b4c4 673f afaa c2be 284b afbf
00000070: a2aa ca3f 94e9 843e b410 783b d8f2 aa3b
00000080: c1a6 213f 410d 533f 4640 28bf 9dfc eebf
00000090: 72f2 cc3f b52c f73e 5001 203b bcab 103c
000000a0: b77d 163f f688 383f a23b a1bf d438 07c0
000000b0: 81c4 d23f 6d84 4440 1af2 123c 4e3d bd3b
000000c0: 2046 003f c4e9 203f 22e7 00c0 acdf d7bf
000000d0: 0f42 0540 b974 4441 8625 ab3b cdfb 443c
000000e0: d13b c63e 3e87 0e3f 7c1f 21c0 d8ad 8fbf
000000f0: 8416 2f40 45d5 5641 829e 903b 2467 343b
00000100: 5df0 813e 02af 053f 3f67 2fc0 b8a9 7dbe
00000110: 4f04 5b40 7679 5d41 4812 223c 74ce 3f3c
00000120: f7ea f33d 63b3 083f 3087 23c0 6953 333f
00000130: 41ea 7f40 4d35 0441 c4f5 923c fef8 d438
00000140: 4126 a53b 7fe8 153f 765e fcbf 7268 a33f
00000150: 7f07 8840 e4e7 2840 3dce a63c 0136 b739
00000160: 9fb3 9abd d791 273f 8418 9fbf fac4 b63f
00000170: 1885 8b40 918f 1040 78a6 413c 3961 993c
00000180: 6753 f3bd 7849 393f ded5 f9be 4c04 a63f
00000190: e291 8f40 47dc 3340 ce2d 903c 5aa5 133b
000001a0: 7e75 01be 40b5 473f 17c5 143e d891 6c3f
000001b0: b082 9440 f892 5540 9089 263c 8589 c33c
000001c0: 115b dcbd 8c4f 503f 6cec 133f 24b3 cd3e
000001d0: 5621 9a40 3054 6940 bb05 a83c ac55 d13c
000001e0: 1b2e 93bd 96ad 513f e3c7 503f 2867 4ebe
000001f0: 8634 a040 004c 7b40 bcac c13c 0c6b ae3c
00000200: 4743 edbc 1e15 4b3f 74b8 643f cd45 53bf
00000210: b983 a640 6e7c 7b40 abec 303c 29b0 513c
00000220: 392f 953c 172d 3d3f 4f0d 813f b983 a5bf
00000230: 9c4d a940 81a8 4cc0 588f 1b3b e845 bf3c
00000240: 6992 923d 2af8 293f e2ce 923f d481 d8bf
00000250: 0777 9d40 86c9 2dc1 5871 483c 8e80 8c3c
00000260: c627 0b3e caf1 123f 8cdf bb3f 3c0d e7bf
00000270: f6d3 8740 6411 83c1 25e5 073d ead1 3c3c
00000280: 5e81 603e be39 033f 1110 e03f c243 81be
00000290: 92bd 5040 580f a7c1 7d57 a83c b291 db3b
000002a0: 50c5 993e d7a9 063f ede5 c93f 330a 2d3f
000002b0: 4f6e 1340 8f9a 58c1 8f86 c73c ce9c 153d
000002c0: 81a9 c23e 3b72 113f b638 cb3f a6c5 4c3f
000002d0: 8a9a 0240 4000 88bf c4af af3c 37d1 253d
000002e0: bd0b ea3e c505 1a3f cf87 ba3f 1543 143f
000002f0: 493d 0340 2d99 d13f a413 d63b 69f3 903c
00000300: b5b7 043f 6235 233f a4cc 763f 4251 5e3f
00000310: 513f 1040 ee02 a840 7be3 653b c93a bc3b
00000320: b906 0f3f b9b8 2d3f 122e 253f ddae 3e3f
00000330: f5f9 2040 e460 a240 342c 213b 26d1 3f3d
00000340: 14b4 143f c594 353f 5fa0 823e e45e ee3e
00000350: 0ce8 2c40 458e f03f 7953 093d d0f7 473c
00000360: 57a8 163f 8a2f 393f c4c0 943d 7f7c b83d
00000370: accf 2e40 799f 78be f6f4 233c 70af a43b
00000380: e15e 163f 3815 383f 693c 05be 42ce 7fbe
00000390: 778f 2b40 d19c e3bf a422 6e3c 54a5 d03c
000003a0: 5214 133f ac09 333f 70b9 cebe dcae 05bf
000003b0: 8143 2440 3732 29c0 2f50 403d b694 493c
000003c0: d3b5 0b3f 4d0c 2b3f f49a 3fbf 73d5 3abf
000003d0: b734 1c40 3a58 1cc0 46b5 923c b2e4 0f3d
000003e0: 8123 003f a569 203f 6f3a 89bf c956 66bf
000003f0: 1abe 1440 72fb 02c0 bb2d c33b b9dc 403d

Y_train f4 [1400]
0.0 -0.0044094324 -0.009296775 -0.014189243 -0.01915145 -0.020281076 -0.016394436 -0.010393083
-0.0015284419 0.0078068376 0.013070941 0.014259338 0.012685239 0.008776665 0.0034497976 -0.0026506186
-0.008870423 -0.013354719 -0.017223716 -0.017564356 -0.0007997155 0.0078038573 0.00774616 0.005941808
0.008677065 0.0072481036 0.004312575 0.0005235076 -0.002808392 -0.0054288507 -0.0075292587 -0.009005249
-0.006765127 -0.00549531 -0.0024125576 0.001727879 0.004009068 0.0054112077 0.0059613585 0.0043358207
0.0013497472 -0.0021532774 -0.00533092 -0.0072600245 -0.00669688 -0.0025762916 0.0017844439 0.004568219
0.006018102 0.006483376 0.0061834455 0.0047320724 0.0025812984 8.416176e-05 -0.0024411678 -0.004837334
-0.006291926 -0.006357074 -0.0056821704 -0.0037701726 -0.0011601448 0.0011816025 0.0028149486 0.0033875704
0.0031592846 0.002467811 0.0007407665 -0.0016328692 -0.0039703846 -0.005176127 -0.003924787 -0.00011587143
0.0026654005 0.004324734 0.004841149 0.0049497485 0.0044172406 0.0029683113 0.0013156533 -0.0007814169
-0.002845168 -0.004251361 -0.0048523545 -0.004620254 -0.0038237572 -0.0024890304 -0.0006763935 0.0010838509
0.0025772452 0.0026100278 0.0014713407 9.5009804e-05 -0.0012717843 -0.0023738146 -0.0024507046 -0.0016930699
-0.00020450354 0.0017069578 0.0034872293 0.0045171976 0.0046732426 0.004043758 0.0028326511 0.0012049675
-0.00061511993 -0.002312243 -0.003607452 -0.0043432117 -0.004298985 -0.0035344362 -0.0023158193 -0.00087207556
0.00043416023 0.0011793971 0.0013157725 0.0012872219 0.00092828274 -0.00018793344 -0.0015928149 -0.0023853183
-0.0018387437 3.6895275e-05 0.0019769073 0.0030496716 0.0035162568 0.0038036108 0.0035145283 0.002672255
0.0014991164 -2.938509e-05 -0.0014939308 -0.0027452111 -0.00345546 -0.0036675334 -0.0033097863 -0.0024629235
-0.0014616847 -0.00036752224 0.00037056208 0.0007138252 0.0006007552 0.0001975894 -0.00011026859 -0.00019353628
-0.0006802678 -0.0009535551 -0.00035971403 0.0011876822 0.002615869 0.0029754043 0.002876699 0.0027045012
0.0021653771 0.0010464191 -3.3974648e-05 -0.001208961 -0.0020477176 -0.0025777817 -0.0025547147 -0.0025541186
-0.0019788742 -0.0012362599 -0.000590384 -0.000109016895 0.00017154217 0.00014483929 -4.4226646e-05 -7.8201294e-05
0.00010597706 9.351969e-05 -0.0002681017 -0.00014990568 0.00053048134 0.0015506744 0.0022577643 0.0023788214
0.002264917 0.0018470287 0.0016366243 0.00086402893 -0.00041258335 -0.0014228225 -0.0020202994 -0.0020436645
-0.0022707582 -0.0023018122 -0.0014413595 -0.00072056055 -0.0005431175 -0.00046533346 -3.3140182e-05 0.00040400028
0.0003001094 -6.878376e-05 -0.00030320883 -0.00024855137 0.00044739246 0.001511693 0.0018438101 0.0019367933
0.0019806623 0.0019788146 0.0016310215 0.0009890795 0.00025314093 -0.00036859512 -0.0009151101 -0.0017422438
-0.0020512342 -0.0017358065 -0.0017447472 -0.0017414093 -0.0012047291 -0.00047582388 -0.000104129314 -0.00021862984
-0.0002900362 -0.00019532442 8.332729e-05 0.0001885891 0.00026637316 0.0004851222 0.0009357929 0.001591444
0.0022246242 0.002570808 0.0023025274 0.001870811 0.0013115406 0.0005569458 4.1127205e-06 -0.0010727644
-0.0016517639 -0.0020216703 -0.002290368 -0.0021333694 -0.0017787218 -0.0013270378 -0.00083339214 -0.00048404932
-0.00026530027 -0.0002387762 -0.00019961596 0.00014996529 0.00024276972 6.252527e-05 0.00022816658 0.0006878972
0.0011560321 0.001747787 0.0021306276 0.0024425387 0.0020543933 0.0015297532 0.0008698702 2.7656555e-05
00000000: 0000 0000 007d 90bb 8051 18bc 007a 68bc
00000010: 80e3 9cbc 8024 a6bc a04d 86bc c047 2abc
00000020: 0056 c8ba 80d0 ff3b 8027 563c 00a0 693c
00000030: c0d5 4f3c 00cc 0f3c 0016 623b 00b6 2dbb
00000040: 4055 11bc c0cd 5abc c018 8dbc 20e3 8fbc
00000050: 00a4 51ba 80b7 ff3b 80d3 fd3b 80b3 c23b
00000060: 402a 0e3c 8081 ed3b 8050 8d3b 003c 093a
00000070: 000d 38bb 80e4 b1bb 00b8 f6bb c08a 13bc
00000080: 00ae ddbb 0012 b4bb 001c 1ebb 007a e23a
00000090: 805e 833b 8050 b13b 8057 c33b 8013 8e3b
000000a0: 00ea b03a 001e 0dbb 00af aebb 80e5 edbb
000000b0: 8071 dbbb 00d7 28bb 00e4 e93a 00b1 953b
000000c0: 8033 c53b 8072 d43b 809e ca3b 800f 9b3b
000000d0: 002b 293b 0080 b038 00fc 1fbb 8082 9ebb
000000e0: 802c cebb 004f d0bb 8031 babb 0015 77bb
000000f0: 0010 98ba 00e0 9a3a 007b 383b 0002 5e3b
00000100: 000c 4f3b 00bb 213b 0030 423a 0006 d6ba
00000110: 001a 82bb 809c a9bb 809b 80bb 0000 f3b8
00000120: 00ae 2e3b 80b6 8d3b 80a2 9e3b 8031 a23b
00000130: 80be 903b 0088 423b 0072 ac3a 00d8 4cba
00000140: 0076 3abb 004f 8bbb 8000 9fbb 8065 97bb
00000150: 0098 7abb 001f 23bb 0050 31ba 0010 8e3a
00000160: 00e7 283b 000d 2b3b 00da c03a 0040 c738
00000170: 00b2 a6ba 0092 1bbb 009c 20bb 00ea ddba
00000180: 0070 56b9 00bc df3a 008a 643b 0005 943b
00000190: 0022 993b 8081 843b 00a4 393b 00f0 9d3a
000001a0: 0040 21ba 0089 17bb 006b 6cbb 8051 8ebb
000001b0: 80de 8cbb 00a2 67bb 00c5 17bb 009c 64ba
000001c0: 00a0 e339 0096 9a3a 0076 ac3a 00b8 a83a
000001d0: 0058 733a 0010 45b9 00c6 d0ba 0053 1cbb
000001e0: 0002 f1ba 00c0 1a38 008f 013b 00dd 473b
000001f0: 0071 663b 0046 793b 0054 663b 0021 2f3b
00000200: 007e c43a 0080 f6b7 00d0 c3ba 00e9 33bb
00000210: 0075 62bb 005b 70bb 00e9 58bb 0069 21bb
00000220: 0096 bfba 00b0 c0b9 0048 c239 0020 3b3a
00000230: 007c 1d3a 0030 4f39 0040 e7b8 00f0 4ab9
00000240: 0054 32ba 00f8 79ba 0098 bcb9 00ac 9b3a
00000250: 006f 2b3b 00ff 423b 0087 3c3b 003e 313b
00000260: 00e9 0d3b 0028 893a 0080 0eb8 0076 9eba
00000270: 0033 06bb 00f0 28bb 006d 27bb 0063 27bb
00000280: 00b0 01bb 000a a2ba 00c4 1aba 00a0 e4b8
00000290: 00e0 3339 00e0 1739 0080 39b8 0000 a4b8
000002a0: 0040 de38 0020 c438 0090 8cb9 0030 1db9
000002b0: 0010 0b3a 0040 cb3a 00f7 133b 00e6 1b3b
000002c0: 006f 143b 0018 f23a 0084 d63a 0080 623a
000002d0: 0050 d8b9 007e baba 0067 04bb 00ef 05bb
000002e0: 00d1 14bb 00da 16bb 00ec bcba 00e4 3cba
000002f0: 0060 0eba 00f8 f3b9 0000 0bb8 00d0 d339
00000300: 0058 9d39 0040 90b8 00f8 9eb9 0050 82b9
00000310: 0090 ea39 0024 c63a 00ac f13a 00dc fd3a
00000320: 00ce 013b 00af 013b 00c8 d53a 00a4 813a
00000330: 00b8 8439 0040 c1b9 00e4 6fba 005c e4ba
00000340: 006e 06bb 0084 e3ba 00b0 e4ba 0040 e4ba
00000350: 00e8 9dba 0078 f9b9 0060 dab8 0040 65b9
00000360: 0010 98b9 00d0 4cb9 00c0 ae38 00c0 4539
00000370: 00a8 8b39 0058 fe39 0050 753a 0098 d03a
00000380: 00cb 113b 007b 283b 00e6 163b 0036 f53a
00000390: 00e8 ab3a 0000 123a 0000 8a36 009c 8cba
000003a0: 0080 d8ba 007e 04bb 001a 16bb 00d0 0bbb
000003b0: 0024 e9ba 00f0 adba 0078 5aba 00c8 fdb9
000003c0: 0018 8bb9 0060 7ab9 0050 51b9 0040 1d39
000003d0: 0090 7e39 0020 8338 0040 6f39 0054 343a
000003e0: 0086 973a 0016 e53a 00a2 0b3b 0013 203b
000003f0: 00a3 063b 0082 c83a 0008 643a 0000 e837
