Simplified/data/gp_torch_models/gp_retrained_dim1_final.pth (torch, 32595 bytes, 5 tensors)

covar_module.base_kernel.raw_lengthscale f4 [1, 8]
0	0x3f465e8f	0.77488035
1	0x40aae0a6	5.339923
2	0x3fe82a08	1.8137827
3	0xbfc31222	-1.5239909
4	0x40ad49d0	5.4152603
5	0x40286c4f	2.6316106
6	0x40bf8aa7	5.9856753
7	0x40c56552	6.168618

X_mean f4 [8]
0	0x3ee039d2	0.43794113
1	0x3f4646f1	0.77452
2	0xbe176992	-0.14786366
3	0xbc24139c	-0.010014441
4	0x3fb651a8	1.424367
5	0xbeb7e1ac	-0.3591436
6	0x3f3438ee	0.7039937
7	0x3f5c7cf0	0.8612814

X_std f4 [8]
0	0x3e3d45b9	0.18483628
1	0x3e413438	0.18867576
2	0x3fac43a3	1.3458141
3	0x40af4702	5.477418
4	0x3fd8729e	1.6909978
5	0x411b0c13	9.690448
6	0x3f22392c	0.6336849
7	0x3f313b65	0.69231254

X_train f4 [700, 8]
0	0x3f2ccccd	0.675
1	0x3f8028f6	1.00125
2	0x00000000	0.0
3	0x00000000	0.0
4	0x3fc90fdb	1.5707964
5	0x00000000	0.0
6	0x39e20023	0.0004310618
7	0x38ade64b	8.292178e-05
8	0x3f2cc585	0.6748889
9	0x3f7f310a	0.996842
10	0xbc5e3bf7	-0.013564101
11	0xbe966100	-0.2937088
12	0x3fc915e8	1.570981
13	0x3c6251e9	0.013813474
14	0x3bc2d37e	0.005945622
15	0x3ca22111	0.019791158
16	0x3f2c3e8f	0.67282957
17	0x3f7a325a	0.9773308
18	0xbdd0e10b	-0.101991735
19	0xbf2e36c9	-0.68052346
20	0x3fc94694	1.5724664
21	0x3d71e824	0.059059277
22	0x3cf55529	0.029947834
23	0x3d23ea3f	0.040018316
24	0x3f2a9741	0.66637045
25	0x3f71461a	0.9424759
26	0xbe725432	-0.2366493
27	0xbf87fa69	-1.0623294
28	0x3fc9aed3	1.5756477
29	0x3e73ad3e	0.23796555
30	0x3d6117b3	0.054954242
31	0x3c4aeece	0.012386037
32	0x3f273202	0.6531068
33	0x3f646ec3	0.8923151
34	0xbedd2d4a	-0.43198615
35	0xbfb90bd4	-1.4456735
36	0x3fcbd3e9	1.5924045
37	0x3f0ae3ee	0.54254043
38	0x3d05eeab	0.032698315
39	0x3d21b870	0.039482534
40	0x3f21b318	0.631639
41	0x3f53a20e	0.8266915
42	0xbf25b47f	-0.6472854
43	0xbfeaa51c	-1.8331637
44	0x3fcea243	1.6143268
45	0x3f10b79f	0.56530184
46	0x3c79e7bb	0.015253003
47	0x3db9814f	0.09057867
48	0x3f19a458	0.60016394
49	0x3f3f0e0b	0.746308
50	0xbf791258	-0.97293615
51	0xc009cfba	-2.1533036
52	0x3fd1df93	1.6396354
53	0x3f543904	0.828995
54	0x3deabed8	0.11462182
55	0x3d22fc87	0.03979161
56	0x3f0b23d0	0.5435152
57	0x3f2adcdc	0.66743255
58	0xbfe2112e	-1.7661493
59	0xbfe33392	-1.7750113
60	0x3fec18f7	1.8445119
61	0x41196a83	9.588504
62	0x3dcd176b	0.10014232
63	0x3de1e1ae	0.11029373
64	0x3eee5891	0.46551946
65	0x3f1a002e	0.60156524
66	0xc009d69a	-2.1537232
67	0xbfbbe265	-1.4678465
68	0x401370f9	2.3037703
69	0x41486007	12.523444
70	0x39d1c87d	0.00040012962
71	0x3d53d3d4	0.051715687
72	0x3ebee2d4	0.3728243
73	0x3f0d114b	0.5510451
74	0xc01ecdbc	-2.481307
75	0xbf7d7d99	-0.9901977
76	0x4033ff0a	2.8124413
77	0x414bf91b	12.748317
78	0x3df1db82	0.11809446
79	0x3e2ed93b	0.17075054
80	0x3e8a3295	0.26991716
81	0x3f06422f	0.5244474
82	0xc026d23e	-2.6065822
83	0xbeab0bb2	-0.3340736
84	0x4055191f	3.3296583
85	0x41537b68	13.2176285
86	0x3d8b4b6e	0.068014964
87	0x3d4fad84	0.050702587
88	0x3e2acaea	0.16678968
89	0x3f065b3e	0.52482975
90	0xc020b2cb	-2.5109127
91	0x3eb59cb6	0.35471123
92	0x4075365b	3.8314426
93	0x4129c5f6	10.61083
94	0x3dc23371	0.09482468
95	0x3de73cc6	0.112908885
96	0x3d94c9c9	0.0726505
97	0x3f0d2847	0.55139583
98	0xc009a2ca	-2.1505609
99	0x3f6cc5c1	0.9248925
100	0x40848a08	4.1418495
101	0x40a53fe1	5.1640477
102	0x3d1eff24	0.03881754
103	0x3d833e37	0.06408351
104	0xbb84ec1d	-0.004056467
105	0x3f1843ac	0.5947826
106	0xbfd5a848	-1.669198
107	0x3f98bdf3	1.1932968
108	0x40887313	4.264047
109	0x3fc9cec4	1.5766225
110	0x3e5f6335	0.21815188
111	0x3e252cef	0.16130422
112	0xbd756f8b	-0.05992083
113	0x3f24c233	0.64358824
114	0xbf8fe44a	-1.1241543
115	0x3f9b636d	1.2139717
116	0x408ab9d7	4.3351855
117	0x40014e36	2.0203986
118	0x3cf724f4	0.030168988
119	0x3d54ace3	0.05192269
120	0xbdc0d0d8	-0.09414834
121	0x3f30aa97	0.690103
122	0xbf1541ab	-0.58303326
123	0x3f8a714a	1.0815823
124	0x408dd561	4.432297
125	0x403154e6	2.7708068
126	0x3e702b87	0.23454104
127	0x3dc76d52	0.09737648
128	0xbddb2bb6	-0.107016966
129	0x3f3a6154	0.7280476
130	0xbd9d1c61	-0.076714285
131	0x3f4d3214	0.8015454
132	0x4091810b	4.5470023
133	0x404d0cdb	3.2039096
134	0x3e9f5acc	0.3112396
135	0x3e49356d	0.19649287
136	0xbdd0efd6	-0.10201995
137	0x3f40ace3	0.75263804
138	0x3e9e1d5f	0.30881783
139	0x3ed143c3	0.4087201
140	0x40966c9b	4.7007575
141	0x408d4984	4.415224
142	0x3e0dd279	0.1384982
143	0x3e5cb1e3	0.21552233
144	0xbdab63d9	-0.08368654
145	0x3f427c36	0.7597078
146	0x3f17bff8	0.59277296
147	0xbd4209eb	-0.04737274
148	0x409c11c0	4.8771667
149	0x409012bb	4.5022864
150	0x3e51cf77	0.20489298
151	0x3ea89a3a	0.32930166
152	0xbd65821c	-0.056032285
153	0x3f3f6d7f	0.7477645
154	0x3f481daf	0.78170294
155	0xbf0a99c9	-0.5414091
156	0x40a13e93	5.0388885
157	0x406211db	3.5323398
158	0x3e9e40cc	0.3090881
159	0x3e9b2a45	0.30305687
160	0xbcacb518	-0.021082446
161	0x3f37d80f	0.71814054
162	0x3f74a740	0.95567703
163	0xbf6c7b3b	-0.92375535
164	0x40a3931e	5.1117086
165	0xbf907609	-1.1286021
166	0x3e003c00	0.12522888
167	0x3e533bc3	0.20628266
168	0x3ca58ac5	0.020207772
169	0x3f2ca2c6	0.6743587
170	0x3f8e287e	1.1106107
171	0xbfa39293	-1.2779106
172	0x409e3f72	4.945245
173	0xc0d69275	-6.705378
174	0x3d636a25	0.05552115
175	0x3ea50520	0.32230473
176	0x3d8cb9e4	0.06871393
177	0x3f1e0320	0.6172352
178	0x3faa6899	1.3313171
179	0xbfc5dff6	-1.5458972
180	0x40924cfa	4.5718966
181	0xc135687a	-11.338007
182	0x3e36b135	0.17841037
183	0x3e2a64e3	0.16640048
184	0x3e03b7b0	0.1286304
185	0x3f0e008d	0.5546959
186	0x3fd77597	1.683276
187	0xbfbbd88f	-1.4675463
188	0x40816e8f	4.044746
189	0xc17461f3	-15.273913
190	0x3ddad912	0.10685934
191	0x3d853d92	0.06505884
192	0x3e4fe641	0.20302679
193	0x3f03a306	0.5142063
194	0x3ffff215	1.9995753
195	0xbebc500a	-0.36779815
196	0x405825f0	3.3773155
197	0xc18689c7	-16.817274
198	0x3ec98a55	0.3936335
199	0x3d82cc31	0.06386603
200	0x3e900300	0.2812729
201	0x3f04c18a	0.5185782
202	0x3ff52d4e	1.9154451
203	0x3ecee2df	0.40407464
204	0x40305832	2.755383
205	0xc15827b7	-13.509696
206	0x3ebfb702	0.3744431
207	0x3edc9933	0.43085632
208	0x3eb73247	0.35780546
209	0x3f0bb906	0.545792
210	0x3ff93b1c	1.9471164
211	0x3f7a0cc8	0.9767575
212	0x40120fde	2.2822185
213	0xc102c94f	-8.174148
214	0x3ee88de6	0.4542076
215	0x3eee760c	0.46574438
216	0x3edf4e09	0.43614224
217	0x3f167258	0.58768225
218	0x3ff79a2d	1.9343926
219	0x3f8bc8da	1.092067
220	0x400373a7	2.0539339
221	0xc05be205	-3.4356701
222	0x3dc3c90a	0.095598295
223	0x3d907ccb	0.07055052
224	0x3f0259e5	0.5091842
225	0x3f221f84	0.6332934
226	0x3fd4cf72	1.6625807
227	0x3f9bbe9d	1.2167546
228	0x3ffdd33b	1.9830087
229	0x3f0e722d	0.5564297
230	0x3ef453d5	0.4772021
231	0x3f0f29cd	0.5592316
232	0x3f10f311	0.5662089
233	0x3f2fd41d	0.68683034
234	0x3f97d4cc	1.1861815
235	0x3fb85a7e	1.4402616
236	0x4002f915	2.0464528
237	0x3fe3e2e4	1.7803617
238	0x3ef587f5	0.4795529
239	0x3e784f1a	0.24248925
240	0x3f1b6c7b	0.60712403
241	0x3f3ec8de	0.7452525
242	0x3f61de16	0.882295
243	0x3fbbb235	1.466376
244	0x400a9901	2.1655886
245	0x40764c42	3.8484044
246	0x3e314a47	0.17313491
247	0x3e8db6fd	0.2767867
248	0x3f22c7c2	0.63586056
249	0x3f4d4427	0.8018212
250	0x3f0681e9	0.5254198
251	0x3fa8a8d6	1.3176525
252	0x4013d523	2.3098838
253	0x40434a0d	3.0513947
254	0x3f01a0f2	0.5063621
255	0x3f0cfc6f	0.55072683

Y_train f4 [700]
0	0x00000000	0.0
1	0xbb607300	-0.0034248233
2	0xbbeebe80	-0.007285893
3	0xbc35eb00	-0.011103392
4	0xbc74f840	-0.014951766
5	0xbc9a19c0	-0.018811107
6	0xbcafa520	-0.021441042
7	0xbc8f99e0	-0.017529428
8	0xbc698480	-0.014252782
9	0xbc1546c0	-0.009111106
10	0xbb245300	-0.0025073886
11	0x3b900580	0.004395187
12	0x3c1fcf80	0.009754062
13	0x3c45e640	0.012078822
14	0x3c457b40	0.012053311
15	0x3c2c8b40	0.010531247
16	0x3bf98000	0.0076141357
17	0x3b652600	0.0034965277
18	0xba8eba00	-0.0010889173
19	0xbbc26380	-0.0059322715
20	0xbc1df480	-0.009640813
21	0xbc5814c0	-0.013188541
22	0xbc8057c0	-0.015666842
23	0xbc653080	-0.013988614
24	0xbb065500	-0.0020497441
25	0x3b93eb00	0.004514098
26	0x3c245280	0.010029435
27	0x3c34e240	0.01104027
28	0x3c4bca40	0.012438357
29	0x3c6d9440	0.014500678
30	0x3c6f7040	0.014614165
31	0x3c557f00	0.013030767
32	0x3c2ee2c0	0.010674179
33	0x3bf70e00	0.0075395107
34	0x3b9e2e80	0.0048273206
35	0x3aeb5800	0.0017955303
36	0xbab1d600	-0.0013567805
37	0xbb7f9200	-0.0038996935
38	0xbbc04300	-0.005867362
39	0xbc022c80	-0.00794518
40	0xbc30d6c0	-0.010793388
41	0xbc525f00	-0.012840033
42	0xbc620180	-0.013794303
43	0xbc58b040	-0.013225615
44	0xbc4b12c0	-0.012394607
45	0xbc09fd40	-0.008422196
46	0xbbbdc280	-0.0057910085
47	0xbb371200	-0.0027934313
48	0xba183000	-0.00058054924
49	0x3912d000	0.00014001131
50	0x3ab32c00	0.0013669729
51	0x3b1f0b00	0.002426803
52	0x3b475600	0.003041625
53	0x3af1a200	0.0018435121
54	0xb7c80000	-2.3841858e-05
55	0xbb181200	-0.0023204088
56	0xbb8cb000	-0.004293442
57	0xbb829480	-0.0039849877
58	0xba317000	-0.00067687035
59	0x3b497f00	0.0030745864
60	0x3bdd0700	0.006745219
61	0x3c213bc0	0.009840906
62	0x3c5ed040	0.013599455
63	0x3c8ab580	0.01693225
64	0x3c8f6e40	0.017508626
65	0x3c8829a0	0.01662141
66	0x3c8048c0	0.01565969
67	0x3c651980	0.01398313
68	0x3c51ee80	0.0128132105
69	0x3c2ea700	0.010659933
70	0x3c131300	0.008976698
71	0x3be35300	0.0069373846
72	0x3b870900	0.004120946
73	0x3ac09c00	0.0014694929
74	0xbad51c00	-0.0016258955
75	0xbba81100	-0.0051289797
76	0xbc113500	-0.008862734
77	0xbc5d5600	-0.0135092735
78	0xbc8b9140	-0.017037034
79	0xbc9d8d60	-0.019232452
80	0xbc9cc960	-0.019138992
81	0xbc6f7b40	-0.014616787
82	0xbbcafc00	-0.0061945915
83	0x3b7c7a00	0.0038524866
84	0x3c4d3b80	0.012526393
85	0x3c95ebe0	0.01830095
86	0x3ca79420	0.020456374
87	0x3caf3340	0.021386743
88	0x3c922500	0.017839909
89	0x3c199b00	0.009375334
90	0x3ac73800	0.0015199184
91	0xbbbf0d00	-0.005830407
92	0xbc23fd80	-0.01000917
93	0xbc6f7a00	-0.014616489
94	0xbc7a4e00	-0.015277386
95	0xbc3d19c0	-0.011541784
96	0xbc28d400	-0.010304451
97	0xbc398440	-0.011323035
98	0xbc3a0180	-0.011352897
99	0xbc08f400	-0.008358955
100	0x00000000	0.0
101	0xb9ef7000	-0.0004566908
102	0xbaaece00	-0.0013336539
103	0xbb05ff00	-0.0020446181
104	0xbb2cc300	-0.0026361346
105	0xbb5e5900	-0.003392756
106	0xbb8aa800	-0.004231453
107	0xbb9f3f00	-0.004859805
108	0xbbb35200	-0.0054724216
109	0xbbc79c80	-0.0060916543
110	0xbbd8b480	-0.006613314
111	0xbbe76b80	-0.0070623755
112	0xbbf03180	-0.0073301196
113	0xbbf4d280	-0.0074713826
114	0xbbf98d00	-0.0076156855
115	0xbbff6f80	-0.0077952743
116	0xbc0337c0	-0.008008897
117	0xbc06d1c0	-0.008228719
118	0xbc08f9c0	-0.008360326
119	0xbc0ab380	-0.008465648
120	0xbc0e7f40	-0.008697331
121	0xbc153700	-0.009107351
122	0xbc160f80	-0.009158969
123	0xbc158140	-0.009125054
124	0xbc14f9c0	-0.009092748
125	0xbc136d40	-0.008998215
126	0xbc1300c0	-0.008972347
127	0xbc14c0c0	-0.009079158
128	0xbc190300	-0.009339094
129	0xbc1e6440	-0.009667456
130	0xbc258300	-0.010102034
131	0xbc2e8780	-0.010652423
132	0xbc38fc80	-0.011290669
133	0xbc434c40	-0.011920035
134	0xbc4b5580	-0.0124105215
135	0xbc521f80	-0.012824893
136	0xbc56f700	-0.013120413
137	0xbc59b380	-0.013287425
138	0xbc5c8ec0	-0.013461769
139	0xbc5fa240	-0.013649523
140	0xbc60e980	-0.013727546
141	0xbc603f80	-0.013687015
142	0xbc60a600	-0.0137114525
143	0xbc5f4e00	-0.0136294365
144	0xbc5a36c0	-0.0133187175
145	0xbc542780	-0.012948871
146	0xbc4d1c40	-0.012518942
147	0xbc473500	-0.012158632
148	0xbc3fa7c0	-0.01169771
149	0xbc34e040	-0.0110397935
150	0xbc223e00	-0.009902477
151	0xbbeb6380	-0.007183492
152	0xbb0d0300	-0.002151668
153	0x396b1000	0.00022417307
154	0xb9f89800	-0.00047415495
155	0xb9c6a800	-0.00037890673
156	0x3b231200	0.0024882555
157	0x3b6b4400	0.0035898685
158	0x3b739b00	0.0037171245
159	0x3b594d00	0.0033157468
160	0x3b35f800	0.0027766228
161	0x3b183a00	0.002322793
162	0x3b03d000	0.0020112991
163	0x3addda00	0.0016925931
164	0x3aa5f200	0.0012660623
165	0x3a449000	0.00074982643
166	0x3989c800	0.00026279688
167	0xb90d1000	-0.00013452768
168	0xba0dd400	-0.00054103136
169	0xba7db000	-0.000967741
170	0xbab50c00	-0.001381278
171	0xbae58400	-0.0017510653
172	0xbb064b00	-0.002049148
173	0xbb141700	-0.0022596717
174	0xbb1b6300	-0.0023710132
175	0xbb1c5700	-0.0023855567
176	0xbb187400	-0.00232625
177	0xbb11a500	-0.0022223592
178	0xbb051c00	-0.0020310879
179	0xbadbbc00	-0.0016764402
180	0xba989200	-0.0011640191
181	0xba216c00	-0.0006157756
182	0xb943a000	-0.00018656254
183	0x393fb000	0.00018280745
184	0x39faf800	0.0004786849
185	0x3a2dd400	0.0006631017
186	0x3a4da400	0.00078445673
187	0x3a5af800	0.0008352995
188	0x3a475800	0.00076043606
189	0x3a2ec800	0.00066673756
190	0x3a141400	0.0005648732
191	0x39fcf800	0.0004824996
192	0x3a036c00	0.00050133467
193	0x3a416800	0.0007377863
194	0x3a9fbc00	0.0012186766
195	0x3ae58600	0.0017511249
196	0x3b152200	0.0022755861
197	0x3b3c8b00	0.0028769374
198	0x3b6b3e00	0.003589511
199	0x3b924c00	0.0044646263
200	0x3bb0cb80	0.005395353
201	0x3bd06400	0.006359577
202	0x3bf60700	0.0075081587
203	0x3c0e7600	0.008695126
204	0x3c21e100	0.009880304
205	0x3c3735c0	0.011182249
206	0x3c4a9680	0.012364984
207	0x3c596e40	0.013270915
208	0x3c658380	0.014008403
209	0x3c72c400	0.014817238
210	0x3c80ad40	0.015707612
211	0x3c892c80	0.016744852
212	0x3c911420	0.017709792
213	0x3c963fe0	0.018341005
214	0x3c99bde0	0.018767297
215	0x3c99cba0	0.018773854
216	0x3c97adc0	0.018515468
217	0x3c943d00	0.018095493
218	0x3c9056c0	0.01761949
219	0x3c8daca0	0.017294228
220	0x3c8a41c0	0.016877055
221	0x3c861320	0.016366541
222	0x3c80c6e0	0.015719831
223	0x3c76f280	0.015072465
224	0x3c6d8b80	0.014498591
225	0x3c605400	0.013691902
226	0x3c54f300	0.012997389
227	0x3c4d8740	0.012544453
228	0x3c44c380	0.012009501
229	0x3c3a96c0	0.011388481
230	0x3c2eed80	0.010676742
231	0x3c219b00	0.009863615
232	0x3c13f1c0	0.009029806
233	0x3c08fa00	0.008360386
234	0x3c028d00	0.007968187
235	0x3bfd9f00	0.0077399015
236	0x3bfcea00	0.0077183247
237	0x3c01a480	0.007912755
238	0x3c050380	0.00811851
239	0x3c079a80	0.008276582
240	0x3c078080	0.008270383
241	0x3c049f80	0.008094668
242	0x3c014a00	0.007891178
243	0x3bfa6b00	0.00764215
244	0x3bf4b100	0.007467389
245	0x3bea7f00	0.007156253
246	0x3bd5d600	0.006525755
247	0x3bc0b600	0.005881071
248	0x3baf1400	0.0053429604
249	0x3b914500	0.0044332743
250	0x3b60fe00	0.0034331083
251	0x3b16c400	0.0023005009
252	0x3a92d400	0.0011202097
253	0xb910e000	-0.00013816357
254	0xbac10400	-0.0014725924
255	0xbb3dce00	-0.0028961897
