Simplified/data/gp_torch_models/gp_retrained_dim5_final.pth (torch, 6841 bytes, 3 tensors)

covar_module.base_kernel.raw_lengthscale f4 [1, 8]
0	0xbeb228a7	-0.3479664
1	0x3f8f5691	1.1198293
2	0x3fce61d4	1.6123605
3	0x3f3aac41	0.7291909
4	0xbf561abe	-0.83634555
5	0x3fe3b802	1.779053
6	0x4033d883	2.8100898
7	0x4021c642	2.5277257

X_mean f4 [8]
0	0x3f074d93	0.52852744
1	0x3f3e2433	0.74273986
2	0xbd0337f5	-0.032035787
3	0xbcde9aac	-0.027173363
4	0x401d8395	2.4611561
5	0x3e871d91	0.26389745
6	0x3f97e63a	1.1867135
7	0x3f3de939	0.74183995

X_std f4 [8]
0	0x3deb3748	0.114851534
1	0x3e2b52c4	0.16730791
2	0x3f12f5be	0.5740622
3	0x3f2ac081	0.6669999
4	0x3f3d4270	0.739295
5	0x41007a5d	8.029874
6	0x3f2d6fcc	0.67748713
7	0x3f25326f	0.6453008
