Simplified/data/gp_torch_models/gp_retrained_dim0_final.pth (torch, 6841 bytes, 3 tensors)

covar_module.base_kernel.raw_lengthscale f4 [1, 8]
00000000: 4be0 063f 378d 8b3f d73e da3f 8014 4240
00000010: aa26 3940 7f32 5240 45b5 6b40 d5ef 6540
0.52685994 1.090247 1.7050427 3.0325012 2.8929849 3.284332 3.6829388 3.5927632

X_mean f4 [8]
00000000: 934d 073f 3324 3e3f f537 03bd ac9a debc
00000010: 9583 1d40 911d 873e 3ae6 973f 39e9 3d3f
0.52852744 0.74273986 -0.032035787 -0.027173363 2.4611561 0.26389745 1.1867135 0.74183995

X_std f4 [8]
00000000: 4837 eb3d c452 2b3e bef5 123f 81c0 2a3f
00000010: 7042 3d3f 5d7a 0041 cc6f 2d3f 6f32 253f
0.114851534 0.16730791 0.5740622 0.6669999 0.739295 8.029874 0.67748713 0.6453008
