Simplified/data/gp_torch_models/gp_retrained_dim0_final.pth (torch, 6841 bytes, 3 tensors)

covar_module.base_kernel.raw_lengthscale f4 [1, 8]
000000 5e 6d 99 40 57 b7 8f 40 d0 87 a6 3d 44 56 12 40
       4.7946005 4.4911304 0.08131373 2.2865152
000010 1b a4 39 bf 9d 81 f0 3e c4 42 b4 40 2e f5 9f 40
       -0.7251603 0.46973887 5.63315 4.998679

X_mean f4 [8]
000000 57 12 c0 3e a5 c6 52 3f 26 95 d0 be 8c 3d 58 3e
       0.37513992 0.8233436 -0.4073879 0.21117228
000010 3a 78 55 bf 1d 82 b7 bf 37 42 67 3f 43 d0 78 3f
       -0.83386576 -1.4336582 0.9033541 0.9719278

X_std f4 [8]
000000 c1 20 5c 3e 4f b0 72 3e cc 9a 86 40 e8 70 1f 41
       0.2149687 0.23700069 4.206396 9.965065
000010 a6 78 5b 40 1c 5a 2b 41 cd 38 2c 3f 7c b1 41 3f
       3.4292388 10.709499 0.6727417 0.75661445
