Simplified/data/gp_torch_models/gp_retrained_dim0_final.pth (torch, 57747 bytes, 5 tensors)

covar_module.base_kernel.raw_lengthscale f4 [1, 8]
00000000: c90a 9240 7921 9940 0d79 5a40 1acf 2f40
00000010: 21be 9e40 2c7e 6940 70b0 9b40 a0a5 9240
4.5638165 4.785336 3.4136384 2.7470155 4.960709 3.648326 4.865288 4.582718

X_mean f4 [8]
00000000: cbfe ad3e 7bda 403f 68d7 9cbd d5a3 aabc
00000010: 598b bc3e 5fdd 56bf 7879 283f 4acf 2e3f
0.33983454 0.75333375 -0.07658273 -0.020830074 0.36825064 -0.83931535 0.65810347 0.6828505

X_std f4 [8]
00000000: 416c 403e 341c 513e ec3e 8f3f e1fb da3f
00000010: 107b 4d40 f3fd 0a41 bd56 1a3f 6741 1b3f
0.18791296 0.20420915 1.1191077 1.7108117 3.2106361 8.686999 0.602886 0.6064667

X_train f4 [1400, 8]
00000000: cdcc 2c3f f628 803f 0000 0000 0000 0000
00000010: db0f c93f 0000 0000 ec36 8239 dae6 ce38
00000020: 21b8 2c3f ef4f 7e3f f924 e7bc 65b6 c8be
00000030: a016 c93f bfe2 933c 5f14 493a fe41 273b
00000040: 6795 2b3f 272a 763f a496 1dbe 1587 61bf
00000050: 8880 c93f 7b3f e83d 28bf 103b 1aee 983b
00000060: a83c 283f b4c4 673f afaa c2be 284b afbf
00000070: a2aa ca3f 94e9 843e b410 783b d8f2 aa3b
00000080: c1a6 213f 410d 533f 4640 28bf 9dfc eebf
00000090: 72f2 cc3f b52c f73e 5001 203b bcab 103c
000000a0: b77d 163f f688 383f a23b a1bf d438 07c0
000000b0: 81c4 d23f 6d84 4440 1af2 123c 4e3d bd3b
000000c0: 2046 003f c4e9 203f 22e7 00c0 acdf d7bf
000000d0: 0f42 0540 b974 4441 8625 ab3b cdfb 443c
000000e0: d13b c63e 3e87 0e3f 7c1f 21c0 d8ad 8fbf
000000f0: 8416 2f40 45d5 5641 829e 903b 2467 343b
00000100: 5df0 813e 02af 053f 3f67 2fc0 b8a9 7dbe
00000110: 4f04 5b40 7679 5d41 4812 223c 74ce 3f3c
00000120: f7ea f33d 63b3 083f 3087 23c0 6953 333f
00000130: 41ea 7f40 4d35 0441 c4f5 923c fef8 d438
00000140: 4126 a53b 7fe8 153f 765e fcbf 7268 a33f
00000150: 7f07 8840 e4e7 2840 3dce a63c 0136 b739
00000160: 9fb3 9abd d791 273f 8418 9fbf fac4 b63f
00000170: 1885 8b40 918f 1040 78a6 413c 3961 993c
00000180: 6753 f3bd 7849 393f ded5 f9be 4c04 a63f
00000190: e291 8f40 47dc 3340 ce2d 903c 5aa5 133b
000001a0: 7e75 01be 40b5 473f 17c5 143e d891 6c3f
000001b0: b082 9440 f892 5540 9089 263c 8589 c33c
000001c0: 115b dcbd 8c4f 503f 6cec 133f 24b3 cd3e
000001d0: 5621 9a40 3054 6940 bb05 a83c ac55 d13c
000001e0: 1b2e 93bd 96ad 513f e3c7 503f 2867 4ebe
000001f0: 8634 a040 004c 7b40 bcac c13c 0c6b ae3c
00000200: 4743 edbc 1e15 4b3f 74b8 643f cd45 53bf
00000210: b983 a640 6e7c 7b40 abec 303c 29b0 513c
00000220: 392f 953c 172d 3d3f 4f0d 813f b983 a5bf
00000230: 9c4d a940 81a8 4cc0 588f 1b3b e845 bf3c
00000240: 6992 923d 2af8 293f e2ce 923f d481 d8bf
00000250: 0777 9d40 86c9 2dc1 5871 483c 8e80 8c3c
00000260: c627 0b3e caf1 123f 8cdf bb3f 3c0d e7bf
00000270: f6d3 8740 6411 83c1 25e5 073d ead1 3c3c
00000280: 5e81 603e be39 033f 1110 e03f c243 81be
00000290: 92bd 5040 580f a7c1 7d57 a83c b291 db3b
000002a0: 50c5 993e d7a9 063f ede5 c93f 330a 2d3f
000002b0: 4f6e 1340 8f9a 58c1 8f86 c73c ce9c 153d
000002c0: 81a9 c23e 3b72 113f b638 cb3f a6c5 4c3f
000002d0: 8a9a 0240 4000 88bf c4af af3c 37d1 253d
000002e0: bd0b ea3e c505 1a3f cf87 ba3f 1543 143f
000002f0: 493d 0340 2d99 d13f a413 d63b 69f3 903c
00000300: b5b7 043f 6235 233f a4cc 763f 4251 5e3f
00000310: 513f 1040 ee02 a840 7be3 653b c93a bc3b
00000320: b906 0f3f b9b8 2d3f 122e 253f ddae 3e3f
00000330: f5f9 2040 e460 a240 342c 213b 26d1 3f3d
00000340: 14b4 143f c594 353f 5fa0 823e e45e ee3e
00000350: 0ce8 2c40 458e f03f 7953 093d d0f7 473c
00000360: 57a8 163f 8a2f 393f c4c0 943d 7f7c b83d
00000370: accf 2e40 799f 78be f6f4 233c 70af a43b
00000380: e15e 163f 3815 383f 693c 05be 42ce 7fbe
00000390: 778f 2b40 d19c e3bf a422 6e3c 54a5 d03c
000003a0: 5214 133f ac09 333f 70b9 cebe dcae 05bf
000003b0: 8143 2440 3732 29c0 2f50 403d b694 493c
000003c0: d3b5 0b3f 4d0c 2b3f f49a 3fbf 73d5 3abf
000003d0: b734 1c40 3a58 1cc0 46b5 923c b2e4 0f3d
000003e0: 8123 003f a569 203f 6f3a 89bf c956 66bf
000003f0: 1abe 1440 72fb 02c0 bb2d c33b b9dc 403d
0.675 1.00125 0.0 0.0 1.5707964 0.0 0.00024836452 9.865845e-05
0.6746846 0.9934072 -0.028215872 -0.39201656 1.571003 0.018052457 0.0007670577 0.0025521512
0.67024845 0.9615807 -0.15389496 -0.88096744 1.574235 0.11340233 0.0022086594 0.004667056
0.65717554 0.9053452 -0.38020846 -1.3694811 1.5833323 0.25959456 0.0037851753 0.0052169375
0.6314507 0.824421 -0.65723073 -1.8670841 1.6011488 0.48276296 0.0024414845 0.008830007
0.58785576 0.72083986 -1.2596323 -2.1128435 1.6466218 3.0705826 0.008968854 0.0057751304
0.50107 0.628567 -2.0141072 -1.6865134 2.082157 12.278497 0.005222979 0.012022925
0.3871751 0.55675113 -2.5175467 -1.1224928 2.7357492 13.427068 0.004413427 0.0027527297
0.25378695 0.52220166 -2.7406766 -0.24771774 3.422138 13.842154 0.009892054 0.011706937
0.1191005 0.5339872 -2.5551262 0.7004915 3.9986727 8.263013 0.017939456 0.00010155326
0.0050399606 0.58557886 -1.9716327 1.2766249 4.250915 2.6391535 0.020362014 0.00034944716
-0.07553791 0.6545691 -1.2429357 1.4278862 4.359997 2.2587626 0.011819474 0.018723117
-0.11881142 0.7237773 -0.4879598 1.2970061 4.486558 2.8103197 0.017599966 0.0022528977
-0.12642476 0.7801094 0.14528309 0.9241004 4.640953 3.3370953 0.010164633 0.023869285
-0.10759557 0.8137138 0.57782626 0.40175736 4.8165693 3.6457634 0.020510545 0.025553547
-0.07186528 0.81905496 0.81555 -0.20156538 5.0064116 3.9265137 0.023641936 0.021291278
-0.028962744 0.793291 0.89343953 -0.8252838 5.2035794 3.9294696 0.010798614 0.0127983475
0.018210994 0.73896927 1.0082186 -1.2930824 5.290724 -3.1977847 0.0023736563 0.023348764
0.07156832 0.66394293 1.1469386 -1.691462 4.9207797 -10.8617 0.0122340545 0.017151143
0.13589391 0.5740019 1.4677596 -1.8050914 4.244624 -16.383492 0.033177514 0.011524657
0.2192435 0.5125998 1.7504903 -0.25247008 3.2615705 -20.882492 0.02054953 0.006700718
0.3003335 0.52602905 1.5773293 0.6759369 2.3036077 -13.537734 0.024356155 0.036526494
0.38019946 0.56814927 1.5876682 0.7998909 2.0406823 -1.0625076 0.021446116 0.040482726
0.4571208 0.60165054 1.4572695 0.5791486 2.0506155 1.637487 0.006533103 0.017694192
0.51842815 0.6375333 0.96406007 0.8684274 2.2538645 5.2503576 0.0035078216 0.0057443124
0.5586963 0.6785999 0.6452342 0.7448557 2.5152562 5.0743275 0.0024592998 0.04683032
0.5808728 0.7093013 0.25512978 0.4655677 2.701663 1.8793417 0.03352687 0.012205079
0.58850616 0.72338164 0.072633296 0.09008121 2.7314253 -0.24279584 0.010007134 0.0050257966
0.58738524 0.7190738 -0.13011326 -0.24981025 2.6806314 -1.7782232 0.014534626 0.02546946
0.5745288 0.69936633 -0.40375853 -0.5221994 2.56662 -2.6436899 0.04695147 0.012303522
0.54574317 0.66815645 -0.74845815 -0.7298195 2.4407175 -2.442885 0.017908704 0.03513021
0.50054175 0.626612 -1.0720958 -0.89976174 2.3241029 -2.046597 0.005956379 0.047085498

Y_train f4 [1400]
00000000: 0000 0000 0068 c6b9 00a0 e2ba 802b 85bb
00000010: 00b8 e1bb c0ce 67bc 10cf a9bc 50c8 d1bc
00000020: 78fa e0bc c86c cdbc 18e6 9bbc 7074 3fbc
00000030: c02b 88bb 209a 003b e093 c73b f83b 073c
00000040: 1c5c 133c 28cd 263c 70a7 3f3c 605d 783c
00000050: 509c 8c3c 409c 813c 0075 813c 60bb 683c
00000060: 405c 183c 809e c83b 0005 163b 00a0 133a
00000070: 0098 c8ba 8010 8fbb 0043 ffbb 8011 36bc
00000080: 60ff 68bc 1094 82bc 205a 88bc a0d4 7bbc
00000090: 1025 53bc f09e 1ebc 849a bcbb 0a85 0fbb
000000a0: 00ee 503a 2443 643b d032 c93b 0079 123c
000000b0: 188a 423c c0f8 683c 2069 6c3c c0ba 603c
000000c0: 2099 523c a0a2 2d3c 80b7 f53b 80f4 993b
000000d0: 00b3 143b 0000 04b7 0047 19bb 808e 9fbb
000000e0: 8071 fcbb 60da 29bc a084 4cbc 801c 64bc
000000f0: 804f 66bc e010 55bc d090 2fbc 00ae fabb
00000100: c081 93bb c070 a3ba c08c db3a 38f9 883b
00000110: 3072 d63b 986a 123c 90f8 353c 9017 4b3c
00000120: 0002 483c a0fe 393c a068 273c 6042 053c
00000130: c0c0 b63b 001b 543b 00a4 8e3a 00e8 6eba
00000140: 002f 49bb 002e b0bb 80b4 f8bb c030 1bbc
00000150: 00a6 32bc c092 3dbc 3072 39bc e0ab 29bc
00000160: 104b 0bbc 5040 c8bb 8089 54bb 0026 ecb9
00000170: 60ba 223b 104f b23b 70bb 013c b069 243c
00000180: 30b9 393c c04a 3f3c 80d2 323c 40ec 193c
00000190: 8038 fc3b c089 b63b 002d 5d3b 005e aa3a
000001a0: 000c 44ba 00c6 39bb 00e6 a0bb c042 e5bb
000001b0: 2051 10bc a0a9 24bc 40e9 2ebc 0092 2abc
000001c0: 00e4 17bc 8016 f1bb e0b0 a0bb 8034 2ebb
000001d0: 0054 49b9 e0aa 083b 00df 8c3b a0b6 d13b
000001e0: 502d 0a3c 401c 1c3c e083 1f3c e054 1b3c
000001f0: a086 0d3c c0b4 ee3b 8026 af3b 80c4 633b
00000200: 008b e83a 00a0 e8b8 00f0 ffba 80bd 7bbb
00000210: 0040 b8bb 00ec ebbb c03d 08bc 20e2 10bc
00000220: 600e 14bc 0036 07bc 8022 e4bb 404a a9bb
00000230: 8030 3ebb 0047 40ba 0002 bd3a 8083 5b3b
00000240: 40ee a63b c030 df3b 8086 013c 0026 063c
00000250: 4055 033c 8026 f13b c054 c93b c0f4 9f3b
00000260: 00e6 5a3b 00b2 b63a 0004 83b9 00bd f8ba
00000270: 8035 59bb 40f7 9abb c049 bbbb 40fd d8bb
00000280: 40b1 e6bb 8098 e1bb 804c d1bb 0070 babb
00000290: 20a1 8dbb c0f0 1cbb 0040 00ba 0011 783a
000002a0: 00e7 1a3b c0d6 6c3b 2051 9e3b c08a ba3b
000002b0: 0023 cd3b 409b cd3b 40aa c13b 40bd ae3b
000002c0: c032 9b3b 00a7 613b 00db 0f3b 0088 593a
000002d0: 00d0 15ba 00f3 edba 00a2 60bb 4025 93bb
000002e0: 406f a9bb 40cb bfbb 40b3 cfbb c0af c7bb
000002f0: 001f b8bb 606e 9ebb c039 60bb 00b8 d1ba
00000300: 00a4 4b39 c013 253b c0b5 823b 40cd af3b
00000310: 8073 c23b 0036 c73b c089 c03b 00c6 b83b
00000320: 004f 9e3b 00ba 6e3b 806f 293b 00cc c83a
00000330: 0064 b439 0008 46ba 00b7 fbba 0067 44bb
00000340: 8039 80bb 0025 93bb 4052 9ebb c0db adbb
00000350: 80c5 a2bb 80f8 a0bb c092 8ebb 8045 61bb
00000360: 407d 0ebb 0028 24b9 8017 ae3a 4039 4e3b
00000370: 404c 8c3b c038 a33b 8088 b53b 4025 c93b
00000380: 8099 c33b 4065 b13b 80cc 883b 0026 4f3b
00000390: 00e7 0a3b 005a 4a3a 0090 ddb8 0027 dfba
000003a0: 0055 32bb 00f2 6cbb 0013 9fbb 0003 b1bb
000003b0: c04c b2bb 4064 a7bb 8094 90bb 803e 81bb
000003c0: 804d 4cbb 006e f4ba 0010 47ba 00c8 6239
000003d0: 0069 c83a 0075 443b 003e 863b 80be 8d3b
000003e0: 0047 973b 8028 ae3b 00db a93b 00cc a43b
000003f0: c00e 823b 800b 2a3b 0072 a73a 00a0 0e38
0.0 -0.0003784299 -0.0017290115 -0.0040640235 -0.0068883896 -0.014148414 -0.020728618 -0.025608212
-0.027463183 -0.025076285 -0.019030616 -0.011685476 -0.004155606 0.0019623116 0.006090626 0.008254044
0.008994129 0.010180749 0.011697635 0.015158981 0.01716438 0.015821576 0.01580286 0.01420483
0.009299338 0.0061224103 0.0022891164 0.0005631447 -0.0015304089 -0.0043659806 -0.0077899694 -0.011112571
-0.014221042 -0.015939742 -0.016644537 -0.015370518 -0.012887254 -0.009681448 -0.0057557244 -0.0021899366
0.0007970035 0.0034830058 0.0061400905 0.008939981 0.011873744 0.014219463 0.014429361 0.0137164
0.012853891 0.010597855 0.0074986815 0.004698336 0.00226897 -7.867813e-06 -0.0023388267 -0.0048692822
-0.00770396 -0.010367006 -0.012482792 -0.013922811 -0.01405704 -0.013004512 -0.010715678 -0.007650137
-0.0045015514 -0.0012469515 0.0016750321 0.0041801 0.006544374 0.008936547 0.011106625 0.012395754
0.012207508 0.011352211 0.010217816 0.008133501 0.005577177 0.0032364726 0.0010882616 -0.000911355
-0.003069818 -0.0053765774 -0.0075898767 -0.009472072 -0.010903835 -0.011570632 -0.011318728 -0.01035592
-0.008501783 -0.0061111823 -0.003243059 -0.0004504174 0.0024830326 0.005441554 0.007918224 0.0100349635
0.011335656 0.011675537 0.010914445 0.009394705 0.007697165 0.0055706203 0.0033748746 0.0012997985
-0.0007478595 -0.0028346777 -0.0049102306 -0.0069964826 -0.008808404 -0.010050207 -0.010675728 -0.010410786
-0.009270668 -0.0073574185 -0.0049038976 -0.0026581585 -0.00019200146 0.0020853803 0.0042990446 0.0063999444
0.008433655 0.00952822 0.009736031 0.009480685 0.008638054 0.0072847307 0.0053451657 0.0034754574
0.001774162 -0.000110924244 -0.0019526482 -0.0038412511 -0.005622864 -0.0071997643 -0.008315504 -0.008842975
-0.00903663 -0.008252621 -0.0069621205 -0.005166322 -0.0029020607 -0.00073347986 0.0014420152 0.0033495128
0.0050943196 0.0068112314 0.007905602 0.008187771 0.008015931 0.007359326 0.006144136 0.0048814714
0.003340125 0.0013938546 -0.00024989247 -0.0018977225 -0.003314346 -0.0047291815 -0.005715579 -0.0066219866
-0.007040173 -0.0068846345 -0.0063872933 -0.005689621 -0.004322186 -0.002394721 -0.0004892349 0.00094629824
0.0023636222 0.0036138743 0.004831448 0.00569281 0.006260276 0.0062746108 0.005910188 0.005332619
0.0047362745 0.0034431815 0.0021950603 0.00082981586 -0.00057148933 -0.0018154085 -0.0034276247 -0.0044905245
-0.0051707327 -0.0058530867 -0.006338507 -0.006093949 -0.00561893 -0.004834935 -0.003421411 -0.0016000271
0.00019420683 0.0025188774 0.0039889514 0.005365044 0.005934179 0.0060794353 0.005875796 0.005638838
0.004831195 0.0036426783 0.0025853813 0.0015319586 0.0003440678 -0.00075542927 -0.0019204319 -0.002996862
-0.0039131045 -0.0044904947 -0.0048315823 -0.0053057373 -0.0049673915 -0.004912436 -0.00435099 -0.00343737
-0.0021742135 -0.0001565516 0.001328215 0.003146723 0.0042815506 0.0049811304 0.0055399537 0.0061384737
0.0059692264 0.0054136813 0.004174769 0.0031608343 0.0021194816 0.00077190995 -0.00010564923 -0.0017025173
-0.0027211308 -0.0036154985 -0.00485456 -0.005401969 -0.005441278 -0.0051083863 -0.004412234 -0.003944218
-0.0031174123 -0.0018648505 -0.0007593632 0.00021627545 0.0015290082 0.0029976964 0.0040967464 0.004325688
0.004616618 0.0053148866 0.0051835775 0.0050292015 0.0039690435 0.0025946796 0.0012775064 3.400445e-05
