Simplified/data/gp_torch_models/gp_retrained_dim5_final.pth (torch, 32595 bytes, 5 tensors)

covar_module.base_kernel.raw_lengthscale f4 [1, 8]
0.7436434 2.8254921 0.8613369 -1.6452522 -0.55178297 2.9069657 4.6943755 4.9350467
00000000: 6a5f 3e3f ddd4 3440 9380 5c3f a097 d2bf
00000010: a641 0dbf ba0b 3a40 5338 9640 e7eb 9d40

X_mean f4 [8]
0.43794113 0.77452 -0.14786366 -0.010014441 1.424367 -0.3591436 0.7039937 0.8612814
00000000: d239 e03e f146 463f 9269 17be 9c13 24bc
00000010: a851 b63f ace1 b7be ee38 343f f07c 5c3f

X_std f4 [8]
0.18483628 0.18867576 1.3458141 5.477418 1.6909978 9.690448 0.6336849 0.69231254
00000000: b945 3d3e 3834 413e a343 ac3f 0247 af40
00000010: 9e72 d83f 130c 1b41 2c39 223f 653b 313f

X_train f4 [700, 8]
0.675 1.00125 0.0 0.0 1.5707964 0.0 0.0004310618 8.292178e-05
0.6748889 0.996842 -0.013564101 -0.2937088 1.570981 0.013813474 0.005945622 0.019791158
0.67282957 0.9773308 -0.101991735 -0.68052346 1.5724664 0.059059277 0.029947834 0.040018316
0.66637045 0.9424759 -0.2366493 -1.0623294 1.5756477 0.23796555 0.054954242 0.012386037
0.6531068 0.8923151 -0.43198615 -1.4456735 1.5924045 0.54254043 0.032698315 0.039482534
0.631639 0.8266915 -0.6472854 -1.8331637 1.6143268 0.56530184 0.015253003 0.09057867
0.60016394 0.746308 -0.97293615 -2.1533036 1.6396354 0.828995 0.11462182 0.03979161
0.5435152 0.66743255 -1.7661493 -1.7750113 1.8445119 9.588504 0.10014232 0.11029373
0.46551946 0.60156524 -2.1537232 -1.4678465 2.3037703 12.523444 0.00040012962 0.051715687
0.3728243 0.5510451 -2.481307 -0.9901977 2.8124413 12.748317 0.11809446 0.17075054
0.26991716 0.5244474 -2.6065822 -0.3340736 3.3296583 13.2176285 0.068014964 0.050702587
0.16678968 0.52482975 -2.5109127 0.35471123 3.8314426 10.61083 0.09482468 0.112908885
0.0726505 0.55139583 -2.1505609 0.9248925 4.1418495 5.1640477 0.03881754 0.06408351
-0.004056467 0.5947826 -1.669198 1.1932968 4.264047 1.5766225 0.21815188 0.16130422
-0.05992083 0.64358824 -1.1241543 1.2139717 4.3351855 2.0203986 0.030168988 0.05192269
-0.09414834 0.690103 -0.58303326 1.0815823 4.432297 2.7708068 0.23454104 0.09737648
-0.107016966 0.7280476 -0.076714285 0.8015454 4.5470023 3.2039096 0.3112396 0.19649287
-0.10201995 0.75263804 0.30881783 0.4087201 4.7007575 4.415224 0.1384982 0.21552233
-0.08368654 0.7597078 0.59277296 -0.04737274 4.8771667 4.5022864 0.20489298 0.32930166
-0.056032285 0.7477645 0.78170294 -0.5414091 5.0388885 3.5323398 0.3090881 0.30305687
-0.021082446 0.71814054 0.95567703 -0.92375535 5.1117086 -1.1286021 0.12522888 0.20628266
0.020207772 0.6743587 1.1106107 -1.2779106 4.945245 -6.705378 0.05552115 0.32230473
0.06871393 0.6172352 1.3313171 -1.5458972 4.5718966 -11.338007 0.17841037 0.16640048
0.1286304 0.5546959 1.683276 -1.4675463 4.044746 -15.273913 0.10685934 0.06505884
0.20302679 0.5142063 1.9995753 -0.36779815 3.3773155 -16.817274 0.3936335 0.06386603
0.2812729 0.5185782 1.9154451 0.40407464 2.755383 -13.509696 0.3744431 0.43085632
0.35780546 0.545792 1.9471164 0.9767575 2.2822185 -8.174148 0.4542076 0.46574438
0.43614224 0.58768225 1.9343926 1.092067 2.0539339 -3.4356701 0.095598295 0.07055052
0.5091842 0.6332934 1.6625807 1.2167546 1.9830087 0.5564297 0.4772021 0.5592316
0.5662089 0.68683034 1.1861815 1.4402616 2.0464528 1.7803617 0.4795529 0.24248925
0.60712403 0.7452525 0.882295 1.466376 2.1655886 3.8484044 0.17313491 0.2767867
0.63586056 0.8018212 0.5254198 1.3176525 2.3098838 3.0513947 0.5063621 0.55072683
00000000: cdcc 2c3f f628 803f 0000 0000 0000 0000
00000010: db0f c93f 0000 0000 2300 e239 4be6 ad38
00000020: 85c5 2c3f 0a31 7f3f f73b 5ebc 0061 96be
00000030: e815 c93f e951 623c 7ed3 c23b 1121 a23c
00000040: 8f3e 2c3f 5a32 7a3f 0be1 d0bd c936 2ebf
00000050: 9446 c93f 24e8 713d 2955 f53c 3fea 233d
00000060: 4197 2a3f 1a46 713f 3254 72be 69fa 87bf
00000070: d3ae c93f 3ead 733e b317 613d ceee 4a3c
00000080: 0232 273f c36e 643f 4a2d ddbe d40b b9bf
00000090: e9d3 cb3f eee3 0a3f abee 053d 70b8 213d
000000a0: 18b3 213f 0ea2 533f 7fb4 25bf 1ca5 eabf
000000b0: 43a2 ce3f 9fb7 103f bbe7 793c 4f81 b93d
000000c0: 58a4 193f 0b0e 3f3f 5812 79bf bacf 09c0
000000d0: 93df d13f 0439 543f d8be ea3d 87fc 223d
000000e0: d023 0b3f dcdc 2a3f 2e11 e2bf 9233 e3bf
000000f0: f718 ec3f 836a 1941 6b17 cd3d aee1 e13d
00000100: 9158 ee3e 2e00 1a3f 9ad6 09c0 65e2 bbbf
00000110: f970 1340 0760 4841 7dc8 d139 d4d3 533d
00000120: d4e2 be3e 4b11 0d3f bccd 1ec0 997d 7dbf
00000130: 0aff 3340 1bf9 4b41 82db f13d 3bd9 2e3e
00000140: 9532 8a3e 2f42 063f 3ed2 26c0 b20b abbe
00000150: 1f19 5540 687b 5341 6e4b 8b3d 84ad 4f3d
00000160: eaca 2a3e 3e5b 063f cbb2 20c0 b69c b53e
00000170: 5b36 7540 f6c5 2941 7133 c23d c63c e73d
00000180: c9c9 943d 4728 0d3f caa2 09c0 c1c5 6c3f
00000190: 088a 8440 e13f a540 24ff 1e3d 373e 833d
000001a0: 1dec 84bb ac43 183f 48a8 d5bf f3bd 983f
000001b0: 1373 8840 c4ce c93f 3563 5f3e ef2c 253e
000001c0: 8b6f 75bd 33c2 243f 4ae4 8fbf 6d63 9b3f
000001d0: d7b9 8a40 364e 0140 f424 f73c e3ac 543d
000001e0: d8d0 c0bd 97aa 303f ab41 15bf 4a71 8a3f
000001f0: 61d5 8d40 e654 3140 872b 703e 526d c73d
00000200: b62b dbbd 5461 3a3f 611c 9dbd 1432 4d3f
00000210: 0b81 9140 db0c 4d40 cc5a 9f3e 6d35 493e
00000220: d6ef d0bd e3ac 403f 5f1d 9e3e c343 d13e
00000230: 9b6c 9640 8449 8d40 79d2 0d3e e3b1 5c3e
00000240: d963 abbd 367c 423f f8bf 173f eb09 42bd
00000250: c011 9c40 bb12 9040 77cf 513e 3a9a a83e
00000260: 1c82 65bd 7f6d 3f3f af1d 483f c999 0abf
00000270: 933e a140 db11 6240 cc40 9e3e 452a 9b3e
00000280: 18b5 acbc 0fd8 373f 40a7 743f 3b7b 6cbf
00000290: 1e93 a340 0976 90bf 003c 003e c33b 533e
000002a0: c58a a53c c6a2 2c3f 7e28 8e3f 9392 a3bf
000002b0: 723f 9e40 7592 d6c0 256a 633d 2005 a53e
000002c0: e4b9 8c3d 2003 1e3f 9968 aa3f f6df c5bf
000002d0: fa4c 9240 7a68 35c1 35b1 363e e364 2a3e
000002e0: b0b7 033e 8d00 0e3f 9775 d73f 8fd8 bbbf
000002f0: 8f6e 8140 f361 74c1 12d9 da3d 923d 853d
00000300: 41e6 4f3e 06a3 033f 15f2 ff3f 0a50 bcbe
00000310: f025 5840 c789 86c1 558a c93e 31cc 823d
00000320: 0003 903e 8ac1 043f 4e2d f53f dfe2 ce3e
00000330: 3258 3040 b727 58c1 02b7 bf3e 3399 dc3e
00000340: 4732 b73e 06b9 0b3f 1c3b f93f c80c 7a3f
00000350: de0f 1240 4fc9 02c1 e68d e83e 0c76 ee3e
00000360: 094e df3e 5872 163f 2d9a f73f dac8 8b3f
00000370: a773 0340 05e2 5bc0 0ac9 c33d cb7c 903d
00000380: e559 023f 841f 223f 72cf d43f 9dbe 9b3f
00000390: 3bd3 fd3f 2d72 0e3f d553 f43e cd29 0f3f
000003a0: 11f3 103f 1dd4 2f3f ccd4 973f 7e5a b83f
000003b0: 15f9 0240 e4e2 e33f f587 f53e 1a4f 783e
000003c0: 7b6c 1b3f dec8 3e3f 16de 613f 35b2 bb3f
000003d0: 0199 0a40 424c 7640 474a 313e fdb6 8d3e
000003e0: c2c7 223f 2744 4d3f e981 063f d6a8 a83f
000003f0: 23d5 1340 0d4a 4340 f2a0 013f 6ffc 0c3f

Y_train f4 [700]
0.0 0.016399771 -0.040712204 0.090537906 0.0067371726 0.082749486 1.2534714 1.1333046
0.28703117 0.051161766 0.16595078 -1.4619627 -1.1181774 0.13041711 0.32029748 -0.22783685
0.18673444 0.0615139 -0.22844934 -0.30744123 -1.668938 -1.5009999 -0.82050705 -0.903842
0.03736496 -0.29005814 1.2629895 0.71790624 1.0185542 0.8068249 0.16679573 -0.4558673
-1.2744858 -0.39944792 0.04188466 -0.0852499 1.0403969 0.2580874 0.25598335 0.40108657
0.06480813 0.28969264 2.6891055 1.1917753 0.91674805 -1.0731831 -2.1894407 -2.789033
-1.245384 0.4126706 0.46657604 0.6025593 -1.1999106 -0.028565168 1.2101698 -0.26190543
0.76382935 -1.1429513 -1.6902432 1.8530178 0.1838541 -0.38479996 -0.07054043 0.8171997
-0.9573364 1.3844395 -1.0325412 -2.0990725 1.0179121 1.8658029 -2.1941314 -1.0959353
-0.9313669 0.6993432 -1.1839304 0.32898617 0.6436596 2.6848354 -2.9459877 -0.7986822
1.8649521 0.45376873 -1.7773542 -0.1198864 1.3666639 -0.11075544 -1.0506811 2.5324342
-2.2721994 1.2050071 -1.4190464 -0.5836811 3.5569797 1.7686453 0.58283615 0.62607
1.8217545 -4.7196684 -4.033907 -2.341692 0.0 0.26630282 -0.6694808 -1.8625634
-1.7466235 0.30033135 0.91297746 2.0288563 1.1333977 0.42473003 -0.72596854 -1.9542668
-1.9262491 -1.6228468 -0.12974024 -0.6255002 0.09748268 -0.101009846 -1.3355374 -0.7151575
-1.2132607 -1.349783 1.8915586 1.7416487 0.8279691 0.721879 1.0034652 1.3454444
1.5355614 1.3417255 1.6075286 1.5548095 1.5334024 0.5032778 0.2759633 0.32819414
0.24433708 1.3211131 0.8133106 0.96730137 0.8773556 2.3101397 2.265523 1.8010721
1.7218533 1.4703045 0.7307091 0.06295395 1.1463089 0.33584785 1.7580261 5.038986
3.3334217 1.6475201 0.463974 -11.447908 -9.74876 -7.7118583 -5.8266277 -4.2180443
-2.243157 -0.9929266 -0.6877222 -0.18843174 0.64828587 0.9959979 0.13516903 0.04873228
0.062062263 0.07780504 0.09388113 0.075798035 0.12596989 -0.042416573 0.15190697 0.15678358
0.14305401 0.20042992 -0.6476221 -0.9306674 -1.1620255 1.0802374 1.3707824 1.4093752
1.0575848 1.2428112 0.52344584 1.1639191 1.0877137 1.6424313 1.3377694 0.547081
0.7018461 -0.38623357 -1.8013657 -2.3228178 -3.5557208 -3.463385 -2.1552296 0.04113388
0.7909279 0.00157547 -0.20956993 0.5148945 -0.15840149 -0.10646248 0.69019794 1.0350018
0.5045099 -1.1374593 -0.31458235 0.60265255 1.6732311 2.0157785 2.2589169 1.0028914
1.5144875 -0.09279072 -0.39173207 -0.38462734 0.91843456 2.607903 1.0677929 2.4662137
-0.012894154 -0.23772144 0.86545134 -1.2500315 -1.4696851 -1.4696488 -0.71491003 -0.57838106
-0.59163296 -1.7084997 -2.4208133 -2.5831318 -1.5578923 -1.7808309 -2.038931 -0.95902157
-0.59551144 0.27382088 1.203167 0.24851131 -0.96515846 -2.902812 -3.2899542 -1.9696255
0.8182106 1.475563 2.0278168 1.8897371 2.006441 2.8290787 3.6038013 3.588489
00000000: 0000 0000 d058 863c d7c1 26bd f06b b93d
00000010: 80c3 dc3b 9078 a93d c071 a03f 2010 913f
00000020: c0f5 923e 008f 513d 00ef 293e 9821 bbbf
00000030: 7020 8fbf 108c 053e 08fe a33e 104e 69be
00000040: 5037 3f3e 00f6 7b3d a0ee 69be f068 9dbe
00000050: c39f d5bf c420 c0bf c00c 52bf 3062 67bf
00000060: 000c 193d 8082 94be a4a9 a13f b4c8 373f
00000070: fc5f 823f 148c 4e3f 80cc 2a3e 7067 e9be
00000080: 5a22 a3bf 7084 ccbe 408f 2b3d 8097 aebd
00000090: ba2b 853f 0824 843e 4010 833e 385b cd3e
000000a0: 20ba 843d 9852 943e 4e1a 2c40 188c 983f
000000b0: 00b0 6a3f 105e 89bf cc1f 0cc0 847f 32c0
000000c0: be68 9fbf 9049 d33e 0ee3 ee3e 5441 1a3f
000000d0: ac96 99bf 8001 eabc d8e6 9a3f 7818 86be
000000e0: 528a 433f 3a4c 92bf e459 d8bf b02f ed3f
000000f0: 4044 3c3e 8004 c5be 8077 90bd 0034 513f
00000100: 0014 75bf 5035 b13f 4f2a 84bf 3457 06c0
00000110: f24a 823f a1d2 ee3f a66c 0cc0 9c47 8cbf
00000120: 106e 6ebf 2808 333f 088b 97bf e070 a83e
00000130: e0c6 243f 58d4 2b40 108b 3cc0 7076 4cbf
00000140: c0b6 ee3f 6054 e83e 5880 e3bf 0087 f5bd
00000150: d8ee ae3f c0d3 e2bd b87c 86bf 6713 2240
00000160: b76b 11c0 ac3d 9a3f 50a3 b5bf 206c 15bf
00000170: 8ea5 6340 f862 e23f c034 153f 2046 203f
00000180: 402f e93f 8607 97c0 c415 81c0 48de 15c0
00000190: 0000 0000 d858 883e 1863 2bbf 7a68 eebf
000001a0: 5c91 dfbf 08c5 993e e4b8 693f c8d8 0140
000001b0: 2d13 913f 3776 d93e 13d9 39bf 6a25 fabf
000001c0: 558f f6bf 72b9 cfbf a0da 04be c820 20bf
000001d0: 00a5 c73d 40de cebd e4f2 aabf 9014 37bf
000001e0: 204c 9bbf b0c5 acbf 981e f23f 58ee de3f
000001f0: c8f5 533f 10cd 383f 8c71 803f 8637 ac3f
00000200: 478d c43f a9bd ab3f 7fc3 cd3f ff03 c73f
00000210: 8846 c43f d0d6 003f 104b 8d3e 1009 a83e
00000220: 8033 7a3e 3c1a a93f 2035 503f 10a1 773f
00000230: 609a 603f 54d9 1340 54fe 1040 8889 e63f
00000240: b065 dc3f f032 bc3f c00f 3b3f 00ee 803d
00000250: 40ba 923f 40f4 ab3e 0007 e13f 603f a140
00000260: c856 5540 f0e1 d23f 008e ed3e a22a 37c1
00000270: ecfa 1bc1 8bc7 f6c0 bc73 bac0 38fa 86c0
00000280: e28f 0fc0 7030 7ebf 900e 30bf 40f4 40be
00000290: 10f6 253f b8f9 7e3f c069 0a3e 809b 473d
000002a0: 0035 7e3d 4058 9f3d c044 c03d 003c 9b3d
000002b0: 40fe 003e 00bd 2dbd 808d 1b3e e08b 203e
000002c0: c07c 123e 803d 4d3e 90ca 25bf 3840 6ebf
000002d0: 40bd 94bf 3845 8a3f cc75 af3f 6866 b43f
000002e0: f05e 873f 7014 9f3f 8c00 063f 4dfb 943f
000002f0: 343a 8b3f 303b d23f 073c ab3f 800d 0c3f
00000300: 30ac 333f 68c0 c5be 2793 e6bf 0ca9 14c0
00000310: ee90 63c0 1aa8 5dc0 48ef 09c0 007c 283d
00000320: 407a 4a3f 0080 ce3a 8099 56be 20d0 033f
00000330: 0034 22be 0009 dabd d0b0 303f f07a 843f
00000340: 9027 013f 4498 91bf f010 a1be 7047 1a3f
00000350: 702c d63f 8402 0140 1892 1040 bf5e 803f
00000360: bada c13f 1009 bebd 1b91 c8be e0ed c4be
00000370: 871e 6b3f e2e7 2640 70ad 883f 72d6 1d40
00000380: 0042 53bc 406d 73be 388e 5d3f 0801 a0bf
00000390: a41e bcbf 741d bcbf 5804 37bf c810 14bf
000003a0: 4275 17bf 1eb0 dabf 9bee 1ac0 0852 25c0
000003b0: 0469 c7bf 44f2 e3bf d87d 02c0 7082 75bf
000003c0: 7073 18bf 4032 8c3e 6001 9a3f c079 7e3e
000003d0: a014 77bf acc7 39c0 9c8e 52c0 b01c fcbf
000003e0: 4076 513f 40df bc3f c0c7 0140 e8e2 f13f
000003f0: 8869 0040 a00f 3540 aea4 6640 cea9 6540
