Simplified/data/gp_torch_models/gp_retrained_dim5_final.pth (torch, 50579 bytes, 5 tensors)

covar_module.base_kernel.raw_lengthscale f4 [1, 8]
00000000: 8291 2dbf b1f5 86bf a852 d03f 80b2 be3e
00000010: d4e3 06c0 10e9 e83e 331f a13f 1ebb de3f
-0.6780015 -1.0543729 1.6275225 0.3724556 -2.1076555 0.45490313 1.2587646 1.7400854

X_mean f4 [8]
00000000: fbed ac3e e72d 3b3f aea4 09bd ada2 11bc
00000010: 7398 033f 5c23 0fbf 2d38 223f 906d 173f
0.33775315 0.73116916 -0.033604316 -0.008888883 0.51404494 -0.5591333 0.6336697 0.59151554

X_std f4 [8]
00000000: f9d2 2f3e 4c3c 3e3e b015 4a3f a24e 133f
00000010: e5f2 4840 cd52 e740 08c8 153f feb5 083f
0.17170323 0.18577689 0.7893934 0.5754186 3.139825 7.2288575 0.5850835 0.534027

X_train f4 [1200, 8]
00000000: cdcc 2c3f f628 803f 0000 0000 0000 0000
00000010: db0f c93f 0000 0000 ec36 8239 dae6 ce38
00000020: 21b8 2c3f ef4f 7e3f f924 e7bc 65b6 c8be
00000030: a016 c93f bfe2 933c 5f14 493a fe41 273b
00000040: 6795 2b3f 272a 763f a496 1dbe 1587 61bf
00000050: 8880 c93f 7b3f e83d 28bf 103b 1aee 983b
00000060: a83c 283f b4c4 673f afaa c2be 284b afbf
00000070: a2aa ca3f 94e9 843e b410 783b d8f2 aa3b
00000080: c1a6 213f 410d 533f 4640 28bf 9dfc eebf
00000090: 72f2 cc3f b52c f73e 5001 203b bcab 103c
000000a0: b77d 163f f688 383f a23b a1bf d438 07c0
000000b0: 81c4 d23f 6d84 4440 1af2 123c 4e3d bd3b
000000c0: 2046 003f c4e9 203f 22e7 00c0 acdf d7bf
000000d0: 0f42 0540 b974 4441 8625 ab3b cdfb 443c
000000e0: d13b c63e 3e87 0e3f 7c1f 21c0 d8ad 8fbf
000000f0: 8416 2f40 45d5 5641 829e 903b 2467 343b
00000100: 5df0 813e 02af 053f 3f67 2fc0 b8a9 7dbe
00000110: 4f04 5b40 7679 5d41 4812 223c 74ce 3f3c
00000120: f7ea f33d 63b3 083f 3087 23c0 6953 333f
00000130: 41ea 7f40 4d35 0441 c4f5 923c fef8 d438
00000140: 4126 a53b 7fe8 153f 765e fcbf 7268 a33f
00000150: 7f07 8840 e4e7 2840 3dce a63c 0136 b739
00000160: 9fb3 9abd d791 273f 8418 9fbf fac4 b63f
00000170: 1885 8b40 918f 1040 78a6 413c 3961 993c
00000180: 6753 f3bd 7849 393f ded5 f9be 4c04 a63f
00000190: e291 8f40 47dc 3340 ce2d 903c 5aa5 133b
000001a0: 7e75 01be 40b5 473f 17c5 143e d891 6c3f
000001b0: b082 9440 f892 5540 9089 263c 8589 c33c
000001c0: 115b dcbd 8c4f 503f 6cec 133f 24b3 cd3e
000001d0: 5621 9a40 3054 6940 bb05 a83c ac55 d13c
000001e0: 1b2e 93bd 96ad 513f e3c7 503f 2867 4ebe
000001f0: 8634 a040 004c 7b40 bcac c13c 0c6b ae3c
00000200: 4743 edbc 1e15 4b3f 74b8 643f cd45 53bf
00000210: b983 a640 6e7c 7b40 abec 303c 29b0 513c
00000220: 392f 953c 172d 3d3f 4f0d 813f b983 a5bf
00000230: 9c4d a940 81a8 4cc0 588f 1b3b e845 bf3c
00000240: 6992 923d 2af8 293f e2ce 923f d481 d8bf
00000250: 0777 9d40 86c9 2dc1 5871 483c 8e80 8c3c
00000260: c627 0b3e caf1 123f 8cdf bb3f 3c0d e7bf
00000270: f6d3 8740 6411 83c1 25e5 073d ead1 3c3c
00000280: 5e81 603e be39 033f 1110 e03f c243 81be
00000290: 92bd 5040 580f a7c1 7d57 a83c b291 db3b
000002a0: 50c5 993e d7a9 063f ede5 c93f 330a 2d3f
000002b0: 4f6e 1340 8f9a 58c1 8f86 c73c ce9c 153d
000002c0: 81a9 c23e 3b72 113f b638 cb3f a6c5 4c3f
000002d0: 8a9a 0240 4000 88bf c4af af3c 37d1 253d
000002e0: bd0b ea3e c505 1a3f cf87 ba3f 1543 143f
000002f0: 493d 0340 2d99 d13f a413 d63b 69f3 903c
00000300: b5b7 043f 6235 233f a4cc 763f 4251 5e3f
00000310: 513f 1040 ee02 a840 7be3 653b c93a bc3b
00000320: b906 0f3f b9b8 2d3f 122e 253f ddae 3e3f
00000330: f5f9 2040 e460 a240 342c 213b 26d1 3f3d
00000340: 14b4 143f c594 353f 5fa0 823e e45e ee3e
00000350: 0ce8 2c40 458e f03f 7953 093d d0f7 473c
00000360: 57a8 163f 8a2f 393f c4c0 943d 7f7c b83d
00000370: accf 2e40 799f 78be f6f4 233c 70af a43b
00000380: e15e 163f 3815 383f 693c 05be 42ce 7fbe
00000390: 778f 2b40 d19c e3bf a422 6e3c 54a5 d03c
000003a0: 5214 133f ac09 333f 70b9 cebe dcae 05bf
000003b0: 8143 2440 3732 29c0 2f50 403d b694 493c
000003c0: d3b5 0b3f 4d0c 2b3f f49a 3fbf 73d5 3abf
000003d0: b734 1c40 3a58 1cc0 46b5 923c b2e4 0f3d
000003e0: 8123 003f a569 203f 6f3a 89bf c956 66bf
000003f0: 1abe 1440 72fb 02c0 bb2d c33b b9dc 403d
0.675 1.00125 0.0 0.0 1.5707964 0.0 0.00024836452 9.865845e-05
0.6746846 0.9934072 -0.028215872 -0.39201656 1.571003 0.018052457 0.0007670577 0.0025521512
0.67024845 0.9615807 -0.15389496 -0.88096744 1.574235 0.11340233 0.0022086594 0.004667056
0.65717554 0.9053452 -0.38020846 -1.3694811 1.5833323 0.25959456 0.0037851753 0.0052169375
0.6314507 0.824421 -0.65723073 -1.8670841 1.6011488 0.48276296 0.0024414845 0.008830007
0.58785576 0.72083986 -1.2596323 -2.1128435 1.6466218 3.0705826 0.008968854 0.0057751304
0.50107 0.628567 -2.0141072 -1.6865134 2.082157 12.278497 0.005222979 0.012022925
0.3871751 0.55675113 -2.5175467 -1.1224928 2.7357492 13.427068 0.004413427 0.0027527297
0.25378695 0.52220166 -2.7406766 -0.24771774 3.422138 13.842154 0.009892054 0.011706937
0.1191005 0.5339872 -2.5551262 0.7004915 3.9986727 8.263013 0.017939456 0.00010155326
0.0050399606 0.58557886 -1.9716327 1.2766249 4.250915 2.6391535 0.020362014 0.00034944716
-0.07553791 0.6545691 -1.2429357 1.4278862 4.359997 2.2587626 0.011819474 0.018723117
-0.11881142 0.7237773 -0.4879598 1.2970061 4.486558 2.8103197 0.017599966 0.0022528977
-0.12642476 0.7801094 0.14528309 0.9241004 4.640953 3.3370953 0.010164633 0.023869285
-0.10759557 0.8137138 0.57782626 0.40175736 4.8165693 3.6457634 0.020510545 0.025553547
-0.07186528 0.81905496 0.81555 -0.20156538 5.0064116 3.9265137 0.023641936 0.021291278
-0.028962744 0.793291 0.89343953 -0.8252838 5.2035794 3.9294696 0.010798614 0.0127983475
0.018210994 0.73896927 1.0082186 -1.2930824 5.290724 -3.1977847 0.0023736563 0.023348764
0.07156832 0.66394293 1.1469386 -1.691462 4.9207797 -10.8617 0.0122340545 0.017151143
0.13589391 0.5740019 1.4677596 -1.8050914 4.244624 -16.383492 0.033177514 0.011524657
0.2192435 0.5125998 1.7504903 -0.25247008 3.2615705 -20.882492 0.02054953 0.006700718
0.3003335 0.52602905 1.5773293 0.6759369 2.3036077 -13.537734 0.024356155 0.036526494
0.38019946 0.56814927 1.5876682 0.7998909 2.0406823 -1.0625076 0.021446116 0.040482726
0.4571208 0.60165054 1.4572695 0.5791486 2.0506155 1.637487 0.006533103 0.017694192
0.51842815 0.6375333 0.96406007 0.8684274 2.2538645 5.2503576 0.0035078216 0.0057443124
0.5586963 0.6785999 0.6452342 0.7448557 2.5152562 5.0743275 0.0024592998 0.04683032
0.5808728 0.7093013 0.25512978 0.4655677 2.701663 1.8793417 0.03352687 0.012205079
0.58850616 0.72338164 0.072633296 0.09008121 2.7314253 -0.24279584 0.010007134 0.0050257966
0.58738524 0.7190738 -0.13011326 -0.24981025 2.6806314 -1.7782232 0.014534626 0.02546946
0.5745288 0.69936633 -0.40375853 -0.5221994 2.56662 -2.6436899 0.04695147 0.012303522
0.54574317 0.66815645 -0.74845815 -0.7298195 2.4407175 -2.442885 0.017908704 0.03513021
0.50054175 0.626612 -1.0720958 -0.89976174 2.3241029 -2.046597 0.005956379 0.047085498

Y_train f4 [1200]
00000000: 0000 0000 cbff 9b3c bc0e b53c 2069 273d
00000010: e4c6 b13d ad87 3e40 8012 1d3f c036 103e
00000020: e0cc 11bf d493 bfbf 00a5 e5be a028 dc3d
00000030: 407c de3d 00b8 b53d 00a3 723d 0014 55bb
00000040: 00ac b9bb 52a6 f1bf 104f 85bf b086 b7bf
00000050: 000e c83e d6fc 9e40 6906 0c3f 7586 963f
00000060: 001e 323c a052 29be 1068 33bf d8b8 86be
00000070: 0006 53be 805e de3c c02d 5cbd a0ce cb3d
00000080: a021 763f 602d 193f d06b a63e 80c2 b53d
00000090: 0038 3fbc 100e 0bbf 7476 64bf a5fc e6be
000000a0: 40bf 13bd 4025 3f3d b0fa 28be 3872 16bf
000000b0: 58b5 41bf 009d 433d 4085 453e d08a 923e
000000c0: 9826 233f 049f 053f a8bf 023e f7eb af3e
000000d0: af44 f73d 78d7 123e 24bd 373e 902a bc3d
000000e0: 004b e23d d0a7 4c3e b0bc 0e3e 20ad 113e
000000f0: 80ba 253e 808d 76bd 8047 e43d 800c 1fbd
00000100: 60e0 c3be 787f 1fbf 5ec2 debe b845 6fbe
00000110: 00b8 223c 00a3 5ebe 20b6 7fbe 90b3 c03e
00000120: c048 483e 3077 d53e 80b1 d1bd c044 99bd
00000130: e091 c23d 2007 383e f0d6 493e d6fa 293e
00000140: eccc 813e 4876 953e d064 8b3e 4052 f73d
00000150: 00de 753d 6073 953e 603b 213e 403f e3be
00000160: 6408 04bf 70f6 90bd e690 85be 50d7 1dbe
00000170: 6071 163d 788f d93d fc1a 28bf 688c 92be
00000180: 0094 773d c0a3 b23e 50f6 bc3e 60cd 543e
00000190: d028 5f3e f8b6 013e 8026 513e e409 6a3e
000001a0: 1c5e 8a3e 4c2e b73d 4e13 2bbe 50d0 66bd
000001b0: d20b d63e c064 763d 9098 833e e056 343e
000001c0: 8032 0ebe 0014 f73d c07f d33d 4094 d3bd
000001d0: 4ed1 2dbf 6833 1ebf 401d 85bd a0f2 23be
000001e0: a0cb cb3e 00d5 f93c 00c9 473c 0074 613e
000001f0: 00db 78bd a0aa 603e 60c5 99be 5096 093f
00000200: 0073 9d3d 8013 143d 5a3c 3a3e 9cd6 473e
00000210: 4cdd a63e 54c5 ee3e 6029 633d d028 1d3e
00000220: 682f 96be 5087 7d3e 008e fdbd d868 c9be
00000230: 304d 0c3e 306c c43e b4b2 84be 57e5 81bf
00000240: 781f e5be 4046 86bd 0095 ae3e 40d1 16be
00000250: 502e 8b3d fc9a 95be 4028 be3d 08d4 273e
00000260: d8f2 1dbe c08d 573e ac45 8fbe 76ce 12be
00000270: 08be 463d 1dcd 893e 882f 9a3e 10ef bdbe
00000280: 5484 1b3f 6034 3d3e e882 5e3e d848 a03e
00000290: d0cd 62be 8063 ffbc 3c9e 063f 080d f6be
000002a0: 12f1 94be 6c29 99be f065 9dbe 40fc a23d
000002b0: 30e7 aa3e c050 36be 805a 3a3d 88f8 c5be
000002c0: 3098 aebe d80c 883e 5067 423e 1c72 873f
000002d0: 4bbf e83e 0094 973b a01f 603e 0091 ee3e
000002e0: 801c b8be 2063 bebe 3850 49bf 002b 64bd
000002f0: 58e6 b83e a8d9 97be 1050 63be b4d1 863e
00000300: c707 523f c02f edbd 8846 8e3e 680f d2be
00000310: 7a69 61bf 00ba 95bd e858 963e a86e 9cbe
00000320: b804 c8be b055 123e 3442 9ebe c08f 56bd
00000330: d056 54be 74a5 293f a0ea ddbb c84b ca3e
00000340: 8004 c4bc c0d5 833d 20f3 633e 000b 6e3d
00000350: 2037 4cbf bc0f 433e 3ab4 1abf 7c21 b23d
00000360: f227 46bf 40d4 c33d af8b d03e 2acf be3d
00000370: d0ea 7dbe 7e19 05bf f46d d0be 020b 00bf
00000380: 30ff 06be 8023 2ebe 9c69 52bf 3420 a0bd
00000390: 47ca 033f 8da5 c2be e80f 193f 7b6e 673e
000003a0: e2f4 9bbe 52e1 59be 083f 96bd 26cc 29bf
000003b0: f051 0e3d 90ff 8f3e d86d da3e a0ca 3bbe
000003c0: 384f 35be b0b8 2c3f 0cd8 a1be c84c 153e
000003d0: b80f dd3e b04c 89be 6049 873d 7064 f6be
000003e0: c01e db3d e0ba 9bbe 9082 253f d8ed ea3e
000003f0: 4064 7ebe a6f3 0fbf 5d83 2e3f 80eb 2e3c
0.0 0.01904287 0.022101752 0.04087174 0.086805135 2.977031 0.61356354 0.14083385
-0.5695324 -1.4966989 -0.44852448 0.10749936 0.108635426 0.08872986 0.05923748 -0.0032513142
-0.005666256 -1.8878882 -1.0414753 -1.4337978 0.3907318 4.968364 0.5469728 1.1759783
0.01087141 -0.16535425 -0.7008066 -0.263129 -0.20607758 0.02714467 -0.053754568 0.0995152
0.9614506 0.5983486 0.3250413 0.088749886 -0.011671066 -0.5431833 -0.89243245 -0.45114627
-0.036071062 0.046666384 -0.1650188 -0.58768034 -0.75667334 0.04775715 0.19289112 0.2862153
0.63730764 0.52195764 0.12768424 0.34359714 0.12073647 0.14340007 0.17943245 0.09187806
0.11049461 0.1998589 0.13939166 0.14226198 0.16184425 -0.06019354 0.1114645 -0.03883028
-0.38257122 -0.62303877 -0.43507665 -0.2336644 0.009931564 -0.21741867 -0.24971819 0.37636995
0.19559002 0.41692495 -0.102389336 -0.07483816 0.0950048 0.17971468 0.19710898 0.16599593
0.25351655 0.29191804 0.2722535 0.12076235 0.06002617 0.29189587 0.15745306 -0.44384193
-0.51575303 -0.07078254 -0.2608711 -0.15414166 0.036729217 0.106230676 -0.65666175 -0.28622746
0.06044388 0.34890556 0.36906672 0.2078147 0.21792912 0.12667453 0.20424843 0.22855335
0.27024925 0.08944377 -0.16706583 -0.056351006 0.41805893 0.060154676 0.25702333 0.17611265
-0.13886452 0.120643616 0.10327101 -0.10331011 -0.678975 -0.6179719 -0.064997196 -0.16010523
0.3980379 0.030497074 0.012193918 0.22016907 -0.06075573 0.21940088 -0.30033398 0.53744984
0.0768795 0.03615141 0.18187085 0.1951546 0.3259071 0.46634924 0.05545938 0.153476
-0.29333043 0.24758649 -0.123806 -0.39337802 0.1370132 0.3836379 -0.2591759 -1.0148114
-0.4475057 -0.06556368 0.34098053 -0.1472826 0.06795943 -0.29219806 0.09285021 0.16389477
-0.15424669 0.21050167 -0.27982843 -0.14336571 0.04852107 0.26914302 0.30114388 -0.37096453
0.6074879 0.1847701 0.21729624 0.31305575 -0.22148824 -0.031175375 0.52585196 -0.48056817
-0.29090172 -0.29914415 -0.30741835 0.07958269 0.33379507 -0.17804241 0.045496464 -0.38666177
-0.34100485 0.265723 0.18984723 1.0581698 0.45458445 0.0046257973 0.21887064 0.46595
-0.35959244 -0.37185 -0.7863803 -0.05570507 0.36113238 -0.29658246 -0.2219851 0.26331866
0.8204312 -0.11581373 0.27788186 -0.4102738 -0.8805157 -0.07310867 0.29364705 -0.30553174
-0.390661 0.142905 -0.30909884 -0.052383184 -0.20736241 0.66268086 -0.0067723542 0.39510942
-0.023927927 0.06437254 0.22260714 0.05811596 -0.79771614 0.19048971 -0.60431254 0.08697793
-0.774047 0.09561968 0.4073157 0.09316857 -0.24796605 -0.51992023 -0.40708888 -0.50016797
-0.13183284 -0.1700573 -0.821924 -0.07818642 0.51480526 -0.3801693 0.59789896 0.22600739
-0.30460268 -0.21277359 -0.07336241 -0.6632713 0.03474611 0.28124666 0.4266193 -0.18339014
-0.17706001 0.6746931 -0.31610143 0.14580071 0.43176055 -0.2681632 0.06605792 -0.48123503
0.106992245 -0.30416012 0.6465235 0.45884585 -0.2484293 -0.56231153 0.68169194 0.010676265
