Simplified/data/gp_torch_models/gp_retrained_dim0.pth (torch, 6657 bytes, 3 tensors)

covar_module.base_kernel.raw_lengthscale f4 [1, 8]
00000000: fe47 c440 e3fd c040 81f0 e03f 06cb b840
00000010: d848 c640 7fb6 d640 aaa3 c640 bf48 d240
6.133788 6.030992 1.7573396 5.774783 6.196392 6.7097774 6.2074785 6.57138

X_mean f4 [8]
00000000: 2d5d ae3e fca3 2c3f 3340 e1bd dcf2 a0be
00000010: 9003 3a40 aba5 9a3f f678 083f c0a9 dc3e
0.34055462 0.6743772 -0.10998573 -0.31435287 2.9064674 1.2081808 0.5330957 0.4309826

X_std f4 [8]
00000000: 0f10 863e c62b 293e 6d38 cb3f ac52 823f
00000010: a49d 833f 502d c140 1cb8 ff3e 0610 cf3e
0.26184127 0.16520604 1.5876595 1.018148 1.0282483 6.0367813 0.49945152 0.40441912
