Simplified/data/gp_torch_models/gp_retrained_dim1.pth (torch, 6657 bytes, 3 tensors)

covar_module.base_kernel.raw_lengthscale f4 [1, 8]
000000 60 8d f3 40 e5 7e b4 40 68 b3 e3 40 e9 c6 50 40
       7.6110077 5.64049 7.11565 3.2621405
000010 df db e5 40 88 1f d4 40 54 80 c3 40 31 4c d0 40
       7.1830897 6.628849 6.109415 6.5093007

X_mean f4 [8]
000000 2d 5d ae 3e fc a3 2c 3f 33 40 e1 bd dc f2 a0 be
       0.34055462 0.6743772 -0.10998573 -0.31435287
000010 90 03 3a 40 ab a5 9a 3f f6 78 08 3f c0 a9 dc 3e
       2.9064674 1.2081808 0.5330957 0.4309826

X_std f4 [8]
000000 0f 10 86 3e c6 2b 29 3e 6d 38 cb 3f ac 52 82 3f
       0.26184127 0.16520604 1.5876595 1.018148
000010 a4 9d 83 3f 50 2d c1 40 1c b8 ff 3e 06 10 cf 3e
       1.0282483 6.0367813 0.49945152 0.40441912
