Simplified/data/svgp_torch_models/svgp_dim1_final.pth (torch, 23292 bytes, 8 tensors)

variational_strategy.inducing_points f4 [25, 8]
00000000: 226d 82bf b621 f1be e21c 563d d925 093f
00000010: 6e50 b53f 781d f3be 08b7 d1bd 56e4 013e
00000020: 3917 c6bf ff82 bf3d 465a 69bf 1a6a cebf
00000030: 4544 bd3f 989b 8cbf 1c27 993e 7d85 b03f
00000040: 1a6a 65bf 6f2a 8dbe 989d 343f 8001 ac3e
00000050: a397 773f 13ff 02bf 0654 b43f c5d6 943f
00000060: 7202 9bbf 4169 04bf 1f90 d03e fa8d f03e
00000070: 1e64 933f b40b 493f f948 cb3f 7351 9ebf
00000080: 35c5 a6be 429c 9dbf 4845 d3bf 8b4b 353f
00000090: 4596 ea3e 6a4f 2b3f dbed 473c 89a2 02bf
000000a0: 8126 8a3e 8800 cfbe e122 b5be 7ce0 debe
000000b0: 89a2 a7be 2576 9e3f f770 bf3f 47c7 c13e
000000c0: badf a43f 99c8 e03f fe82 0abe a168 bebe
000000d0: 8b68 adbf db09 393e df07 f1be afdb 1d3f
000000e0: 1f88 9b3f 77b2 d83f 2464 613c 4f3e 06be
000000f0: 00d3 d9bf 8372 55be 2cb3 94bf 222a c3bf
00000100: 4ff6 8a3f b5e8 b63e 1d72 3ebf 743e 06c0
00000110: 64be 6c3d e725 adbf 9986 903f 5f13 bbbf
00000120: 2e68 773f 066e 94bd 6d42 d9be 7254 8fbf
00000130: 01c4 8bbf 3c7c b1be 3cbb 0cbe c23e 60bd
00000140: d28b 813f 36fe 01be 1c4a 8abe e2d7 66bf
00000150: 64cd a9bf 421f c43f 0f87 99be 4a44 ea3f
00000160: cf9b af3f 5f5f 973f 4756 40be c81c f5be
00000170: b05f e5bf 2cb9 9bbf 7564 1a40 2714 bdbd
00000180: 928f fa3d d6a5 a9be a141 243f 7354 6d3f
00000190: c6bc 21bf 2ff3 95be 60e2 0c40 7b36 1abe
000001a0: 9111 fc3e a1a3 c4be 3146 653f 779d 473f
000001b0: 4d6e 423f 8655 783f da7e d03d d325 8dbf
000001c0: 57c3 b53f ffd1 8abd 3f28 1fbf dfbd 0fbf
000001d0: 38fd aabf 9c71 4c40 b869 8b3f 12b7 ffbe
000001e0: 3047 fd3d 73bc 02bf f878 1cbe f4c4 4a3f
000001f0: ccdd 1bbf 4973 abbe d62a 8e3f daec 6740
00000200: e000 813f 6fc3 21be e6ea 18bd adce 663f
00000210: 365d 8dbf 608f 11c0 6cab 0cbf 1a79 08bf
00000220: bc5f 323f 2414 023e 45b0 3a3e 79a8 c83f
00000230: ff49 c9bf aae6 59bf 4b8c 2740 9138 1740
00000240: b1fb 2fbf 7311 a0bf e17a 70bf cd8f af3f
00000250: 989b a03f 5684 0a3e 812d 63bf 8ece 97bd
00000260: a00c 9b3d 1da1 943e 8c13 61bc dd48 a63f
00000270: 0be0 fabf 891f 89bf 5452 0ebf c2a1 e73f
00000280: 931b 0e3f 61ee 2dbf cf9e aabf 39b7 57bf
00000290: 48f0 54bf cec1 0740 7cee 9dbf 7517 a03f
000002a0: e1ec cabe b204 87bf a561 c63f 484f 113f
000002b0: ffb2 003e 8cc2 c7be 4615 cdbe 666b f13e
000002c0: e8f5 4f3e 0c36 9b3f 8991 b2be 771d 9cbf
000002d0: af63 d4bf ca53 963e 03da 10bf 816a 23bf
000002e0: 5e48 8a3f f2c4 6cbf 535b 4b3f a5be 8a3f
000002f0: 171b fdbe cefa fbbf 4d71 3840 18cc b43f
00000300: 08f6 e8be d1dc 013f 21fd bdbe 3f8d acbf
00000310: b043 68bf 7163 bb3e ceca a43e 39cd 6ebe
-1.0189555 -0.47096032 0.05227364 0.53573376 1.416517 -0.4748342 -0.102399886 0.1268476
-1.5475837 0.093511574 -0.9115337 -1.612613 1.4786459 -1.0984983 0.2991265 1.3790737
-0.89615023 -0.27571437 0.7055297 0.33594894 0.96715754 -0.5117046 1.4088142 1.1628042
-1.2110121 -0.51723105 0.40734956 0.4698332 1.1514928 0.7853348 1.5881644 -1.2368606
-0.32572332 -1.2313311 -1.6505518 0.70818394 0.45817772 0.6691805 0.012202705 -0.5102926
0.269825 -0.40430093 -0.35378173 -0.43530643 -0.32741192 1.2379805 1.4956349 0.3784735
1.2880776 1.7561218 -0.13526532 -0.371892 -1.3547529 0.18070166 -0.47076318 0.61663336
1.2150916 1.6929463 0.013756786 -0.13109706 -1.7017517 -0.20844464 -1.1617179 -1.5247233
1.0856417 0.35724416 -0.74392873 -2.0975618 0.05779876 -1.3527192 1.1291076 -1.4615287
0.9664334 -0.07247548 -0.4243349 -1.1197646 -1.0919191 -0.34665096 -0.13743299 -0.05474735
1.0120795 -0.1269463 -0.27009666 -0.9017316 -1.3265805 1.5322039 -0.29985854 1.830209
1.3719424 1.182598 -0.18782912 -0.4787352 -1.7919827 -1.2165885 2.4123814 -0.092323594
0.12234415 -0.33134335 0.6416264 0.92706984 -0.6317867 -0.29287097 2.2013168 -0.15059845
0.49232152 -0.3840609 0.8956023 0.7797465 0.75949556 0.970055 0.10180445 -1.1027168
1.4200238 -0.06778335 -0.62170786 -0.56149095 -1.3358526 3.1944342 1.0891638 -0.4994436
0.123670936 -0.510688 -0.15280521 0.79206777 -0.6088531 -0.33486393 1.1106822 3.6238313
1.0078392 -0.15797208 -0.03733339 0.9015911 -1.1044071 -2.274376 -0.5494907 -0.53309786
0.6967733 0.12702996 0.18231304 1.5676414 -1.5725707 -0.8511759 2.6179378 2.3628275
-0.68743426 -1.2505325 -0.939375 1.371576 1.2547483 0.13527045 -0.8874131 -0.07412444
0.075707674 0.2902917 -0.0137375705 1.2990986 -1.9599622 -1.0712749 -0.5559437 1.809624
0.55510825 -0.6794186 -1.3329715 -0.8426395 -0.8317914 2.121204 -1.2338405 1.2507159
-0.3963385 -1.0548308 1.5498549 0.567616 0.12568282 -0.39015615 -0.40055293 0.4715225
0.2030865 1.2125869 -0.3487666 -1.2196492 -1.6592921 0.293608 -0.5658266 -0.6383439
1.0803335 -0.92488015 0.79436225 1.083943 -0.4943473 -1.9685915 2.8819153 1.4124784
-0.45500207 0.50727564 -0.37107185 -1.3480605 -0.9072828 0.36599305 0.32185978 -0.23320474

variational_strategy._variational_distribution.variational_mean f4 [25]
00000000: 2efb febc 3021 3cc0 ab5e 3840 549d b03f
00000010: c894 9fbe 6085 c6bf a23f 05c0 6868 fc3f
00000020: 067c e7bf a6dd f7bf 2232 21c0 14f7 25c0
00000030: 34f6 bfbf d51e c13f aba7 4ac0 0440 02bf
00000040: 5de0 8e3f 7e18 8e40 f5d4 613f 2923 8e3d
00000050: aed8 a8bf a93a 06bf d80c 5bc0 1b76 c740
00000060: af26 adc0
-0.031125631 -2.9395256 2.880778 1.3798013 -0.311682 -1.5509453 -2.0820088 1.9719362
-1.8084724 -1.9364517 -2.5186849 -2.5932055 -1.499701 1.5087534 -3.1664836 -0.5087893
1.116222 4.44049 0.8821557 0.069403 -1.3191125 -0.5243326 -3.422659 6.233167
-5.410972

variational_strategy._variational_distribution.chol_variational_covar f4 [25, 25]
00000000: 0865 9f3c 0000 0000 0000 0000 0000 0000
00000010: 0000 0000 0000 0000 0000 0000 0000 0000
00000020: 0000 0000 0000 0000 0000 0000 0000 0000
00000030: 0000 0000 0000 0000 0000 0000 0000 0000
00000040: 0000 0000 0000 0000 0000 0000 0000 0000
00000050: 0000 0000 0000 0000 0000 0000 0000 0000
00000060: 0000 0000 beeb 08bc 69fc 003e 0000 0000
00000070: 0000 0000 0000 0000 0000 0000 0000 0000
00000080: 0000 0000 0000 0000 0000 0000 0000 0000
00000090: 0000 0000 0000 0000 0000 0000 0000 0000
000000a0: 0000 0000 0000 0000 0000 0000 0000 0000
000000b0: 0000 0000 0000 0000 0000 0000 0000 0000
000000c0: 0000 0000 0000 0000 885b 5ebd 7f23 a4bc
000000d0: 7916 9e3d 0000 0000 0000 0000 0000 0000
000000e0: 0000 0000 0000 0000 0000 0000 0000 0000
000000f0: 0000 0000 0000 0000 0000 0000 0000 0000
00000100: 0000 0000 0000 0000 0000 0000 0000 0000
00000110: 0000 0000 0000 0000 0000 0000 0000 0000
00000120: 0000 0000 0000 0000 0000 0000 e754 543a
00000130: 70db 823c fb62 233c 8b16 b93d 0000 0000
00000140: 0000 0000 0000 0000 0000 0000 0000 0000
00000150: 0000 0000 0000 0000 0000 0000 0000 0000
00000160: 0000 0000 0000 0000 0000 0000 0000 0000
00000170: 0000 0000 0000 0000 0000 0000 0000 0000
00000180: 0000 0000 0000 0000 0000 0000 0000 0000
00000190: 318b b2bd 4e8f aeb9 0f2f 653a bd7a 0dbd
000001a0: c709 af3d 0000 0000 0000 0000 0000 0000
000001b0: 0000 0000 0000 0000 0000 0000 0000 0000
000001c0: 0000 0000 0000 0000 0000 0000 0000 0000
000001d0: 0000 0000 0000 0000 0000 0000 0000 0000
000001e0: 0000 0000 0000 0000 0000 0000 0000 0000
000001f0: 0000 0000 eda8 a63d 831a d1bd cdc9 89bd
00000200: dab5 5cbc 8574 a8bd edc7 0d3d 0000 0000
00000210: 0000 0000 0000 0000 0000 0000 0000 0000
00000220: 0000 0000 0000 0000 0000 0000 0000 0000
00000230: 0000 0000 0000 0000 0000 0000 0000 0000
00000240: 0000 0000 0000 0000 0000 0000 0000 0000
00000250: 0000 0000 0000 0000 1590 1dbd 072f c23c
00000260: dcaf 0f3c 9428 a43c 66ed 413d 250b abbc
00000270: f108 873c 0000 0000 0000 0000 0000 0000
00000280: 0000 0000 0000 0000 0000 0000 0000 0000
00000290: 0000 0000 0000 0000 0000 0000 0000 0000
000002a0: 0000 0000 0000 0000 0000 0000 0000 0000
000002b0: 0000 0000 0000 0000 0000 0000 7a12 02bd
000002c0: 096c 283d 8d49 013d 6287 e7bc b270 ab3b
000002d0: 8d5f 123b 3d7f bfbc 3efc 343d 0000 0000
000002e0: 0000 0000 0000 0000 0000 0000 0000 0000
000002f0: 0000 0000 0000 0000 0000 0000 0000 0000
00000300: 0000 0000 0000 0000 0000 0000 0000 0000
00000310: 0000 0000 0000 0000 0000 0000 0000 0000
00000320: 8e5c fabc 28a9 f4bd 5b74 783c 40ab d6bc
00000330: ec43 1e3d 8652 8fbd 05e6 8ebc ec21 0ebd
00000340: 553b bb3d 0000 0000 0000 0000 0000 0000
00000350: 0000 0000 0000 0000 0000 0000 0000 0000
00000360: 0000 0000 0000 0000 0000 0000 0000 0000
00000370: 0000 0000 0000 0000 0000 0000 0000 0000
00000380: 0000 0000 44cb aabc f5b3 7f3c c346 f43c
00000390: 1482 683d 45b0 4b3c f5cd 9abb da97 0b3c
000003a0: 10da 653c f3d9 7dbd 2732 853d 0000 0000
000003b0: 0000 0000 0000 0000 0000 0000 0000 0000
000003c0: 0000 0000 0000 0000 0000 0000 0000 0000
000003d0: 0000 0000 0000 0000 0000 0000 0000 0000
000003e0: 0000 0000 0000 0000 1e90 9dbc 32dc 14bd
000003f0: ed52 c03c 9a20 fa3c 6e56 943d c0e2 ccbd
0.019457355 0.0 0.0 0.0 0.0 0.0 0.0 0.0
0.0 0.0 0.0 0.0 0.0 0.0 0.0 0.0
0.0 0.0 0.0 0.0 0.0 0.0 0.0 0.0
0.0 -0.008356987 0.12596287 0.0 0.0 0.0 0.0 0.0
0.0 0.0 0.0 0.0 0.0 0.0 0.0 0.0
0.0 0.0 0.0 0.0 0.0 0.0 0.0 0.0
0.0 0.0 -0.05428651 -0.020036457 0.0771913 0.0 0.0 0.0
0.0 0.0 0.0 0.0 0.0 0.0 0.0 0.0
0.0 0.0 0.0 0.0 0.0 0.0 0.0 0.0
0.0 0.0 0.0 0.00080998096 0.015973777 0.009972329 0.09037503 0.0
0.0 0.0 0.0 0.0 0.0 0.0 0.0 0.0
0.0 0.0 0.0 0.0 0.0 0.0 0.0 0.0
0.0 0.0 0.0 0.0 -0.08717955 -0.00033294637 0.0008742669 -0.03454088
0.08546787 0.0 0.0 0.0 0.0 0.0 0.0 0.0
0.0 0.0 0.0 0.0 0.0 0.0 0.0 0.0
0.0 0.0 0.0 0.0 0.0 0.08137689 -0.10210135 -0.067279436
-0.013471091 -0.08225349 0.034614492 0.0 0.0 0.0 0.0 0.0
0.0 0.0 0.0 0.0 0.0 0.0 0.0 0.0
0.0 0.0 0.0 0.0 0.0 0.0 -0.038467485 0.023704065
0.0087699555 0.02003888 0.04734554 -0.020879338 0.016483756 0.0 0.0 0.0
0.0 0.0 0.0 0.0 0.0 0.0 0.0 0.0
0.0 0.0 0.0 0.0 0.0 0.0 0.0 -0.031755902
0.041118655 0.031564284 -0.028262798 0.00523194 0.0022334785 -0.023376102 0.04418587 0.0
0.0 0.0 0.0 0.0 0.0 0.0 0.0 0.0
0.0 0.0 0.0 0.0 0.0 0.0 0.0 0.0
-0.030561712 -0.119463265 0.01516446 -0.026204705 0.038638994 -0.06998162 -0.017443666 -0.03470032
0.09142176 0.0 0.0 0.0 0.0 0.0 0.0 0.0
0.0 0.0 0.0 0.0 0.0 0.0 0.0 0.0
0.0 -0.020848878 0.01560687 0.029818898 0.056764677 0.012432163 -0.004724259 0.008520091
0.014029041 -0.06197543 0.065037064 0.0 0.0 0.0 0.0 0.0
0.0 0.0 0.0 0.0 0.0 0.0 0.0 0.0
0.0 0.0 -0.01923376 -0.036342807 0.023477042 0.030533124 0.07243048 -0.10004187

covar_module.base_kernel.raw_lengthscale f4 [1, 8]
00000000: 6b7c e140 e13f 5240 00af df40 7eae 1f40
00000010: 1106 9440 458b 2641 a7f2 1b41 7cbb 0941
7.0464377 3.2851489 6.9901123 2.4950252 4.6257405 10.409001 9.746741 8.608273

X_mean f4 [8]
00000000: 84a0 aa3e 7764 2b3f eef2 23be 62e6 bbbe
00000010: 995d 3c40 a9ed 683f cabc d33e 5e63 113f
0.3332559 0.6695017 -0.16010639 -0.36699206 2.9432127 0.9098764 0.41354972 0.5679225

X_std f4 [8]
00000000: 4824 843e cc64 2b3e f61b c03f e184 6c3f
00000010: 8324 8b3f 3952 c340 1162 d23e f2dd d63e
0.2580893 0.1673767 1.5008533 0.9239026 1.0870517 6.103787 0.41090444 0.41966206

X f4 [325, 8]
00000000: cdcc 2c3f f628 803f 0000 0000 0000 0000
00000010: db0f c93f 0000 0000 ff7d 7538 a0ba 2038
00000020: 85c5 2c3f 2732 7f3f c9c2 5dbc eb19 95be
00000030: de15 c93f 907b 213d 59f3 863d 3e89 133c
00000040: fa3e 2c3f 2749 7a3f 4a63 d0bd 7ce5 29bf
00000050: 7917 ca3f a74f b43e 65bf 833d 2a3d 7d3c
00000060: 5798 2a3f 9da3 713f ac65 72be ac52 83bf
00000070: b684 cd3f 779e 433f 8955 623e 1552 0b3d
00000080: ee36 273f a053 653f 2b64 dabe f89e afbf
00000090: d965 d33f 2536 a13f dac7 263e 3dda 3f3e
000000a0: efe1 213f 3065 553f 20ea 1dbf f8c8 ddbf
000000b0: 5ac3 da3f 86e7 a53f 6526 393c 7ae0 c53e
000000c0: 3c7e 1a3f d23f 423f 87df 58bf b20a ffbf
000000d0: 41fe de3f ef85 c03e aa83 943e 31a4 e03e
000000e0: 86c8 0e3f 8a2a 2e3f 5c7b cbbf 7ff0 d7bf
000000f0: a9f3 e53f 97ec af40 10bc ea3e 7770 0c3f
00000100: a39d f93e 4781 1e3f db9a f0bf 8c22 b7bf
00000110: e905 0740 e450 2141 f53d 9f3d cf7d a93e
00000120: 8947 d03e 125c 113f 263d 08c0 55fc 8ebf
00000130: e8db 2240 857e 2141 d731 a33d 374a 313f
00000140: cbc9 a23e b8c0 083f 498b 12c0 b210 0dbf
00000150: 0838 3c40 32fc 0f41 506e 363f c39f 253f
00000160: 68b8 6b3e cbf1 053f 6ae1 04c0 e701 d4bc
00000170: cc82 5240 aa88 0641 7700 1b3e 4919 7a3e
00000180: 815c 1c3e 39a3 073f 15ab e6bf 6dcb ae3e
00000190: db81 6940 bd77 1441 7185 d13e f1f7 673f
000001a0: c604 b53d 3967 0c3f 805a b4bf 7558 133f
000001b0: 8185 7c40 2084 f240 2823 823e f595 e33e
000001c0: cf3a 273d c2e8 123f 5a75 76bf 2e44 2a3f
000001d0: 1abc 8640 70a0 b140 0753 d83d a97c 0d3e
000001e0: eeeb 2d3c 1f8a 193f 2eb5 09bf f5ad 0f3f
000001f0: 002d 8c40 799e e73f 2e09 423f 0f68 083f
00000200: 622d 00bb 1094 1d3f 75ba e3bd 8507 6e3e
00000210: 9cdf 8d40 f7fc 053f 6ddf bc3e 5254 163f
00000220: e871 0a3a 7094 1e3f 47a3 6f3e 7848 5fbd
00000230: 195d 8d40 cac6 2fc0 7b7a 563f ed3e 893f
00000240: 7c42 8f3c f813 1c3f dbb0 233f 731a f6be
00000250: ce9d 8840 6df2 8fc0 d6f0 1a3f 441b 893f
00000260: f1e0 533d 2d4b 153f de80 8b3f aed8 52bf
00000270: 2c39 8140 e4eb 9cc0 13aa 113f 9aef 853f
00000280: 4e35 d73d df47 0c3f c4cd c93f ba9e 5ebf
00000290: f6b9 7440 c82a dac0 d01e 463f e6c5 4f3f
000002a0: f8f8 373e 2915 053f 8baa 0540 e1ca cfbe
000002b0: 3ee7 6740 9612 91c0 dc11 5e3e 986f c23f
000002c0: 9393 8a3e c68e 043f 2910 1b40 40e8 aa3e
000002d0: 7dba 5040 4aec 2fc1 128a 453e cc11 b53e
000002e0: dd51 bc3e 7521 0b3f ccca 1e40 a6d5 703f
000002f0: cef7 3640 389d f0c0 f20e ca3f 601a 803f
00000300: b464 f03e 9899 183f 8ba7 1f40 b077 d93f
00000310: 78c4 2340 60c0 e4c0 6bc2 af3f 0d06 973f
00000320: cdcc 2c3f f628 803f 0000 0000 0000 0000
00000330: db0f c93f 0000 0000 cf02 8a3e c9c6 753e
00000340: cdcc 2c3f f628 803f 0000 0000 0000 0000
00000350: db0f c93f 0000 0000 f43d eb3e daa3 9d3e
00000360: b5cc 2c3f 6a1d 803f 6bef 25ba 4f72 90bd
00000370: c11e c93f 863b b93d 76cf 433e 4f9d 043e
00000380: 46cb 2c3f 32fa 7f3f 637e 95bb 63df 01be
00000390: f77a c93f ca79 f13e 3b86 3a3e b26d b23d
000003a0: 84c5 2c3f 6c8c 7f3f fb92 64bc 5e2e 55be
000003b0: 492e ca3f 808e 1f3f c473 d63e 0000 0000
000003c0: c4b7 2c3f 6ee8 7e3f 1937 edbc 44ab 95be
000003d0: e51f cb3f 0c0c 5a3f 2050 933c 0000 0000
000003e0: 869e 2c3f 7910 7e3f 498d 48bd b6d4 bbbe
000003f0: 22d8 cc3f 07c6 ea3f 68e8 493e 0000 0000
0.675 1.00125 0.0 0.0 1.5707964 0.0 5.8529895e-05 3.832078e-05
0.6748889 0.996859 -0.01353521 -0.29121336 1.5709798 0.03942448 0.06589384 0.009004889
0.67283595 0.9776787 -0.10175188 -0.6636579 1.5788413 0.3521702 0.0643299 0.015456477
0.666387 0.9439028 -0.23671597 -1.0259604 1.6056125 0.76413673 0.22102942 0.034013826
0.6531819 0.89580727 -0.42654547 -1.3720388 1.6515456 1.2594649 0.16287175 0.18735595
0.6323537 0.83357525 -0.6168537 -1.7326956 1.7090867 1.296128 0.011300658 0.38647825
0.6034887 0.7587863 -0.84716076 -1.9925139 1.7421342 0.37602183 0.29006702 0.43875268
0.55774724 0.6803366 -1.5897021 -1.6870269 1.7964984 5.4976306 0.45846605 0.5485911
0.4875308 0.6191601 -1.8797258 -1.4307418 2.1097357 10.082249 0.07775489 0.33103797
0.40679577 0.56781113 -2.1287322 -1.1170756 2.544672 10.093389 0.079684906 0.6925387
0.3179458 0.53419065 -2.2897513 -0.551036 2.9409199 8.999071 0.71262074 0.646969
0.23019564 0.5232207 -2.0762582 -0.025879813 3.2892332 8.408365 0.15136896 0.24423708
0.15269662 0.52983433 -1.802096 0.34139577 3.6485507 9.279233 0.4092212 0.90612704
0.08838801 0.54845005 -1.4090118 0.5755685 3.9456484 7.5786285 0.25417447 0.44450346
0.04082757 0.5738641 -0.96272814 0.66510284 4.2104616 5.5508347 0.10562711 0.13817085
0.010615332 0.5997638 -0.53792083 0.5612481 4.380493 1.8095237 0.7579526 0.5328378
-0.00195583 0.6155405 -0.11119548 0.23245056 4.433546 0.5233912 0.3688921 0.5872241
0.00052812556 0.6194525 0.23402129 -0.05451247 4.4176145 -2.7465081 0.8378064 1.0722328
0.017487757 0.6096797 0.63941735 -0.48067054 4.2692633 -4.498343 0.60523736 1.0711446
0.051728193 0.58317834 1.0898702 -0.82361877 4.038229 -4.9037952 0.5690014 1.0463746
0.10508214 0.54797167 1.576592 -0.8696095 3.8238502 -6.8177223 0.77390766 0.81161344
0.17966068 0.5198541 2.088534 -0.40584472 3.623489 -4.533519 0.216865 1.5190306
0.27065715 0.51780355 2.4228613 0.33380318 3.2613823 -10.995188 0.19290951 0.3536514
0.36781207 0.54347926 2.4811277 0.94076 2.8588748 -7.5191917 1.5785811 1.0008049
0.4695183 0.59609365 2.494601 1.6989651 2.5588665 -7.1484833 1.3731207 1.1798722
0.675 1.00125 0.0 0.0 1.5707964 0.0 0.26955268 0.24001612
0.675 1.00125 0.0 0.0 1.5707964 0.0 0.45945704 0.3078907
0.6749986 1.0008976 -0.00063299265 -0.07053053 1.571251 0.09044556 0.19122109 0.12950633
0.6749767 0.9999114 -0.0045621856 -0.12682872 1.5740651 0.4716323 0.18215267 0.08712329
0.67488885 0.9982364 -0.0139510585 -0.20818469 1.5795375 0.6232681 0.41885197 0.0
0.67467904 0.9957341 -0.028956937 -0.29232228 1.5869108 0.8517463 0.017982543 0.0
0.6742939 0.99243885 -0.048962865 -0.36685723 1.6003458 1.8341683 0.19717562 0.0

Y f4 [325]
00000000: 0000 0000 0034 5ebb 80f1 e7bb 0090 2fbc
00000010: c0f3 68bc a0ce 90bc a080 a5bc 00ca 84bc
00000020: 800f 65bc 808b 2cbc 006a 9cbb 0008 8739
00000030: 000f 773b 00eb c23b 00e4 db3b 003d a93b
00000040: 0031 043b 00b8 59ba 80b3 abbb c09d 0abc
00000050: c088 0cbc 001f 54bb 0010 893b 40a1 283c
00000060: 80d9 913c 0000 0000 00c0 b8b9 0044 81ba
00000070: 008c dbba 00fe 23bb 00f5 57bb 8071 88bb
00000080: 0028 a7bb 8059 c3bb 8095 ddbb 00a9 fabb
00000090: 403a 0dbc 4018 1dbc 804c 2cbc 40d6 39bc
000000a0: 80d2 43bc 4042 4bbc c023 53bc c0f0 5abc
000000b0: c06d 61bc c036 67bc 80c4 69bc 00cb 6bbc
000000c0: 40eb 73bc 40ee 7fbc 80fe 81bc 60b8 83bc
000000d0: 40ab 86bc 40b9 89bc 40d6 8bbc a032 8dbc
000000e0: 6004 8dbc 8094 89bc 60d2 82bc 00af 70bc
000000f0: 40d8 56bc 4037 3dbc 4023 24bc c0d4 0dbc
00000100: 80c2 f4bb 00cc d1bb 80ee b1bb 8044 93bb
00000110: 0037 73bb 00a8 4dbb 00cd 37bb 0007 2dbb
00000120: 00a0 28bb 009f 20bb 0005 0dbb 0090 d5ba
00000130: 000c 4fba 00d0 2739 0018 723a 008c c23a
00000140: 0078 fb3a 00a8 123b 00e3 233b 0007 313b
00000150: 0085 333b 00b7 233b 00da 103b 00fc f73a
00000160: 003a cf3a 0012 9b3a 0020 2b3a 00c0 5538
00000170: 00d4 06ba 0090 7fba 0068 a5ba 0088 c0ba
00000180: 00c8 d4ba 0012 e5ba 00a8 f9ba 00be 04bb
00000190: 007a 06bb 004a 04bb 00da efba 0070 b0ba
000001a0: 00c0 68b9 003a cf3a 006b 363b 0087 5b3b
000001b0: 0042 783b 8047 ab3b 80d6 df3b c058 013c
000001c0: 40aa 093c 004f 063c 80af fc3b 00c5 ec3b
000001d0: 0061 dd3b 8015 ce3b 80b3 bc3b 00b5 a73b
000001e0: 00e9 913b 00a6 773b 0016 4d3b 00bb 293b
000001f0: 00d8 0d3b 002a f83a 00a6 ec3a 0058 f03a
00000200: 00c2 fe3a 00d5 113b 0021 223b 007d 203b
00000210: 008f 163b 00d3 013b 00d4 bc3a 00a8 443a
00000220: 0000 db37 00dc 1eba 00d4 7eba 00b4 a0ba
00000230: 008e b9ba 0020 c8ba 001c dcba 005c f2ba
00000240: 00bc 02bb 000f 04bb 00ae f4ba 00f2 cbba
00000250: 00b8 8fba 00a4 2bba 00c0 ebb8 0034 043a
00000260: 00ac a83a 008b 0d3b 004e 313b 00b4 4a3b
00000270: 0027 513b 00c6 483b 001c 493b 005e 603b
00000280: 8038 803b 0045 893b 00b9 853b 0057 7b3b
00000290: 00b3 693b 004a 4f3b 00df 293b 0038 123b
000002a0: 0003 2a3b 003f 5e3b 0099 8f3b 80c1 9a3b
000002b0: 8024 973b 8021 863b 0021 523b 0097 0d3b
000002c0: 0042 893a 0080 afb7 0094 5fba 009c c6ba
000002d0: 00f4 13bb 00b1 4ebb 8021 85bb 005e a2bb
000002e0: 808b c2bb 80f0 e0bb 0027 fcbb 8020 0bbc
000002f0: c00d 17bc 40e6 20bc c0c7 25bc 40e7 21bc
00000300: 00a3 14bc 0047 03bc 8016 e1bb 00cc b6bb
00000310: 0015 8ebb 0020 5dbb 0094 33bb 0091 1bbb
00000320: 00d1 06bb 0006 daba 00ec a1ba 0068 82ba
00000330: 0030 58ba 007c 21ba 00f0 04ba 00c0 f7b9
00000340: 00b0 d5b9 0080 7fb8 0008 6e3a 00f9 4d3b
00000350: 80dd a13b 806c d83b 40ab 053c 00b7 183c
00000360: 0034 223c 8067 263c 0094 2a3c 4072 303c
00000370: 4084 353c 40ea 373c 4031 353c 006e 303c
00000380: c010 2e3c 40ea 2b3c 4076 293c 8078 273c
00000390: 000d 233c 001a 1b3c 40b8 103c 8081 053c
000003a0: 80c6 ef3b 80b5 cf3b 80b0 b53b 806f a63b
000003b0: 805a 943b 00c2 813b 0054 5c3b 0059 353b
000003c0: 00e2 0e3b 00c8 ca3a 00ac 5e3a 0060 a438
000003d0: 0058 54ba 001a f0ba 0097 40bb 00d2 85bb
000003e0: 8098 a9bb 8080 c9bb 80ba e3bb 8023 f8bb
000003f0: 80ac 02bc 0034 15bc 0027 2fbc 0036 48bc
0.0 -0.0033905506 -0.0070783496 -0.010715485 -0.014218271 -0.017676651 -0.020202935 -0.016209602
-0.013980746 -0.010531306 -0.0047733784 0.00025755167 0.003769815 0.0059484243 0.0067105293 0.0051647425
0.0020170808 -0.0008305311 -0.005239904 -0.008460462 -0.008577526 -0.003236711 0.0041828156 0.010292351
0.017803907 0.0 -0.00035238266 -0.0009862185 -0.0016750097 -0.0025023222 -0.0032952428 -0.004163921
-0.005101204 -0.005961597 -0.0067622066 -0.007649541 -0.008619845 -0.009588301 -0.010516286 -0.011342585
-0.011952043 -0.012405932 -0.012886941 -0.013363063 -0.013759077 -0.0141121745 -0.014268041 -0.014391661
-0.014887631 -0.015620768 -0.015868425 -0.016079128 -0.01643908 -0.016811967 -0.017069936 -0.017236054
-0.017214 -0.016794443 -0.015969455 -0.014690161 -0.013113081 -0.011548817 -0.01001817 -0.008656681
-0.0074694753 -0.0064024925 -0.0054300427 -0.00449425 -0.003711164 -0.0031380653 -0.0028045774 -0.0026401877
-0.0025730133 -0.0024508834 -0.0021517873 -0.0016293526 -0.00078982115 0.00016003847 0.00092351437 0.0014842749
0.0019185543 0.0022377968 0.0025007129 0.002701223 0.0027392507 0.0024980903 0.0022102594 0.0018919706
0.0015810132 0.0011830926 0.00065279007 5.096197e-05 -0.0005143285 -0.00097489357 -0.0012619495 -0.0014688969
-0.0016233921 -0.0017476678 -0.001904726 -0.002025485 -0.0020519495 -0.002018571 -0.0018299222 -0.0013461113
-0.0002219677 0.0015810132 0.0027834773 0.0033497214 0.0037881136 0.0052270293 0.0068309903 0.007894695
0.008402407 0.008197546 0.007711351 0.0072256327 0.006755948 0.006289184 0.0057587028 0.0051180124
0.0044528246 0.0037788153 0.003129363 0.0025898814 0.0021643639 0.0018933415 0.0018054843 0.0018336773
0.0019436479 0.0022252202 0.0024738908 0.0024488568 0.0022973418 0.0019809604 0.0014406443 0.00075018406
2.6106834e-05 -0.0006060004 -0.00097209215 -0.0012260675 -0.0014156699 -0.0015268326 -0.0016793013 -0.0018490553
-0.0019948483 -0.0020150542 -0.0018667579 -0.0015559793 -0.001096487 -0.000654757 -0.00011241436 0.0005043149
0.0012868643 0.0021597743 0.0027054548 0.0030930042 0.0031914115 0.0030635595 0.0030686855 0.0034235716
0.0039129853 0.0041891336 0.0040808916 0.0038351417 0.003565967 0.00316298 0.0025920272 0.002231121
0.002594173 0.0033912063 0.0043822527 0.004722774 0.0046125054 0.004093349 0.0032063127 0.0021604896
0.001047194 -2.092123e-05 -0.00085288286 -0.0015152693 -0.0022575855 -0.0031538606 -0.0040628314 -0.0049550533
-0.00593704 -0.0068646073 -0.007695079 -0.008491635 -0.009219587 -0.009820521 -0.010118425 -0.009881794
-0.009072065 -0.008012533 -0.0068691373 -0.005578518 -0.0043359995 -0.0033740997 -0.0027401447 -0.002373755
-0.002057135 -0.0016633868 -0.0012353659 -0.0009949207 -0.00082468987 -0.000616014 -0.0005071163 -0.00047254562
-0.00040757656 -6.0915947e-05 0.00090801716 0.0031428933 0.004939735 0.006604731 0.008158505 0.009320974
0.009900093 0.010156512 0.0104112625 0.010769427 0.011078894 0.011225283 0.011059105 0.010768414
0.010624111 0.010492861 0.010343134 0.0102216005 0.00995183 0.009466648 0.008832991 0.008148551
0.007317364 0.006338775 0.005544722 0.00507921 0.00452739 0.003959894 0.0033619404 0.0027671456
0.0021802187 0.0015470982 0.0008494258 7.838011e-05 -0.0008100271 -0.0018318295 -0.0029386878 -0.004083872
-0.00517565 -0.0061493516 -0.0069497228 -0.0075725913 -0.0079756975 -0.009106636 -0.010690451 -0.012219906
