Simplified/data/svgp_torch_models/svgp2_dim5.pth (torch, 160053 bytes, 8 tensors)

variational_strategy.inducing_points f4 [64, 8]
000000 c3 e1 63 bf e8 0f f7 3f 3b 4d 66 bf fb 81 f8 be
       -0.8901636 1.9301729 -0.89961594 -0.48536667
000010 36 53 2b c0 7b c1 4f 3e 27 64 69 3f 4d 56 be 3f
       -2.6769538 0.2028865 0.91168445 1.4870087
000020 82 77 b7 bf ff 1d ee 3f 68 6b 7c bf 33 a3 e2 3e
       -1.4333346 1.8602904 -0.9860139 0.44265136
000030 5d fa b1 bf 94 ed 85 40 5f 37 ff 3e 03 a3 01 3f
       -1.390453 4.185251 0.49846932 0.5063936
000040 cc 70 d5 3f d0 f3 a1 3e 04 71 45 3f 1b 6a 27 c0
       1.6675048 0.31631327 0.77125573 -2.6158512
000050 94 7a e2 3e 3a 23 0c 3f 93 4d 45 bf ef 19 1d bc
       0.44234145 0.5474125 -0.77071494 -0.009588703
000060 93 0f b3 bf 92 78 50 bf 84 85 31 3c 59 e9 93 be
       -1.3989128 -0.81433976 0.010835055 -0.28888968
000070 b3 8e 80 3f b3 c4 fe be a1 ba 7b bf b1 08 21 bf
       1.0043548 -0.49759445 -0.9833165 -0.6290389
000080 77 ae 2d be be 4f dc be b1 44 f5 be be 41 66 3e
       -0.16961084 -0.43029588 -0.4790397 0.22486016
000090 10 a3 16 3f 95 c7 80 bf 06 63 34 3f ca 9c 03 40
       0.58842564 -1.0060908 0.704636 2.0564446
0000a0 57 5f 9b 3f 09 77 e8 3d 15 28 25 3f 84 52 bb bd
       1.213847 0.11350829 0.64514285 -0.09146598
0000b0 15 77 39 3f 28 46 ba bf 5b 20 d9 3f 36 80 12 bf
       0.7244733 -1.455266 1.6962999 -0.57226884
0000c0 13 5f 47 bf 93 e8 13 bf e3 22 ff 3e 5a 21 07 bf
       -0.77879447 -0.57776755 0.49831304 -0.52785265
0000d0 6e f1 e6 3e 0f 50 c5 3f 6c ba 8e bf 94 e9 d1 3f
       0.4510607 1.5415057 -1.1150641 1.6399407
0000e0 52 61 94 3f 5d 70 f8 3d ec 88 e5 bf f3 de 07 c0
       1.15922 0.121308066 -1.793241 -2.1229827
0000f0 78 c6 73 3e eb f4 5e be 96 8b 3e bf b3 7a 3a 3f
       0.23806179 -0.21773116 -0.7443174 0.72843474
000100 4c 52 9c bf 49 f1 49 be d1 77 27 3f bf a6 bf be
       -1.2212615 -0.19720949 0.654172 -0.37431905
000110 3c 97 b5 3f e7 3a bc bf 92 32 fe bd 1f 51 b6 3f
       1.4186778 -1.4705476 -0.12411989 1.4243506
000120 cb 17 fb bf 55 2e f4 be 74 88 04 c0 fb 7c 12 40
       -1.9616636 -0.476916 -2.0708284 2.2888782
000130 d5 44 53 3f 3a 11 83 40 24 46 b4 bf 18 8a 30 bd
       0.82526904 4.095853 -1.4083905 -0.043100446
000140 c2 04 a8 3c 6b 46 cc 3f c3 5e b2 3e b7 28 74 bf
       0.020510081 1.595899 0.34837922 -0.95374626
000150 d9 d3 92 3e 4d 57 47 40 57 31 21 40 72 e9 1c 3f
       0.28677252 3.1147034 2.5186365 0.6129371
000160 55 ea b6 3f 84 a9 13 40 4d ba 2d bf 6f a5 af 3f
       1.4290262 2.3072214 -0.678624 1.3722361
000170 99 cb 48 be 36 19 ec be 16 60 93 3d fd 2b 41 3f
       -0.19608916 -0.46112984 0.07196061 0.75457746
000180 8a 0f df 3e 94 45 28 bf 6b ca 63 be 32 8e d8 3d
       0.43566543 -0.6573117 -0.22245185 0.105739966
000190 92 f4 4e 3f f2 91 f4 3e 02 e3 b1 bf 97 28 82 3e
       0.80841935 0.47767597 -1.3897402 0.25421593
0001a0 9a 46 67 3f 59 7d 09 bf 37 57 c9 be e7 66 a0 3f
       0.90342104 -0.5370689 -0.39324352 1.2531403
0001b0 f7 73 11 3f c3 9e 32 3f fb 95 d7 3f f5 67 a2 3e
       0.56817573 0.697735 1.6842645 0.31719938
0001c0 d6 3e e3 be fc ec 13 40 ae 29 b4 3f e8 ad ba bf
       -0.44383878 2.3113394 1.407522 -1.4584322
0001d0 43 9f d6 3f c6 76 02 40 65 22 86 bc dc b6 35 40
       1.6767353 2.0384994 -0.016373822 2.8392859
0001e0 5d 84 da bf 2a 4d f3 3f 9b 2d 12 bf 73 b1 fe be
       -1.7071644 1.9007924 -0.5710084 -0.49744758
0001f0 87 4f e4 bf 47 ce fb 3f 99 38 06 40 6c bf d6 3e
       -1.783677 1.9672326 2.0972044 0.41942918
000200 ab 99 06 be 15 9e 8e 3f b0 75 ac 3f 5d ea 19 40
       -0.13144557 1.1141993 1.3473415 2.4049294
000210 70 2d f8 bf 42 8b 0a bf cb aa 7a 3f 4c 95 3f 3f
       -1.9388866 -0.5411874 0.9791686 0.74837184
000220 7e 6c 85 3f ff 87 cd bc a8 ee 65 bf 1b 3e 29 3f
       1.0423734 -0.025089262 -0.89817286 0.6611039
000230 3f e8 d1 bc fb 4b e1 3f 6b 91 c5 3e ff 85 e1 bf
       -0.025623439 1.7601312 0.38587508 -1.7619017
000240 d3 d7 8f 3f 5f df 24 40 4f fe 31 c0 31 5a b1 40
       1.1237739 2.5761335 -2.7811468 5.5422597
000250 44 94 02 c0 3e f2 09 c0 b1 d4 da 3f 7e 5e f8 3e
       -2.0402994 -2.1554103 1.7096158 0.48509592
000260 65 f6 97 be 83 df 63 bf 9c 5a ed 3f f3 d8 39 3a
       -0.29680172 -0.89012927 1.8543277 0.0007089518
000270 44 50 22 3f 9e 8e e1 bf 04 d8 2b bf 9b 2e d0 bc
       0.63403726 -1.7621648 -0.6712649 -0.025412848
000280 9c 87 40 3d ed 37 0a bf 10 28 46 3f da 6e 08 bf
       0.047004327 -0.53991586 0.7740488 -0.53294146
000290 7a e9 48 3e 54 71 24 bd 18 8c 08 40 48 2b 9e 3f
       0.19620314 -0.04014714 2.1335506 1.2356958
0002a0 6b e4 c4 be 55 cd 7e 40 27 70 29 c0 5f 89 18 bf
       -0.3845552 3.9812825 -2.6474702 -0.5958461
0002b0 5b 1e 97 be 97 4f 40 bf 8d 44 7a bc f0 8a b9 3f
       -0.29515347 -0.75121444 -0.015275133 1.4495525
0002c0 b8 de c6 3f 56 24 04 3f 4b cb 0e 3f 44 66 e9 3f
       1.5536718 0.51617944 0.5577895 1.8234334
0002d0 19 f8 f0 bb a2 78 c3 be 06 58 53 3f 91 c5 91 3f
       -0.0073537943 -0.38177973 0.8255619 1.1388417
0002e0 48 19 d6 3f d0 03 6a 3f 00 9a 93 3c 23 58 d7 be
       1.6726465 0.9141207 0.018017769 -0.4205943
0002f0 a9 aa df 3e 65 27 11 be 7e 43 5a 40 4a 27 b8 3f
       0.4368489 -0.14175184 3.4103694 1.438699
000300 53 fa 56 be 1f 9f 61 bf 1f 19 af be fe 48 0c 3f
       -0.20993929 -0.88133425 -0.34198853 0.5479888
000310 4e 36 0e 3f af 99 8c 3e 16 d1 1d bf ee 11 ef bf
       0.5555161 0.27461 -0.61647165 -1.8677347
000320 90 92 05 c0 87 60 bb 3f 45 bf e5 be 63 7a ce 3e
       -2.0870705 1.4638833 -0.4487249 0.4032775
000330 9b ed 2e bf f2 c6 1c 40 62 b2 1e bf a7 6b 20 40
       -0.6833131 2.4496427 -0.6199094 2.5065706
000340 ee 76 bc be 0f 99 92 be 3a 72 1d 40 9c eb 65 be
       -0.36809486 -0.286324 2.4600968 -0.22453159
000350 f8 37 33 3f 60 a3 7c 3f d9 39 fe 3f e6 2b c9 3f
       0.70007277 0.9868679 1.9861404 1.5716522
000360 95 e6 0b bf 5d a0 98 bf fa 82 25 bf 16 c6 b7 3e
       -0.54648715 -1.1923939 -0.6465298 0.35893315
000370 c8 44 f8 3d 5b 24 bf bf c3 63 49 c0 84 ef 83 3f
       0.12122494 -1.493297 -3.146714 1.0307469
000380 1a 9d e4 3f d3 d6 e9 3f 04 b6 a5 bd c2 45 24 bf
       1.7860444 1.8268684 -0.08091357 -0.6416894
000390 82 13 7c 3e e1 ab 01 3e 9f ed 9f be 2f e4 49 bf
       0.24616817 0.12663223 -0.31235978 -0.78863806
0003a0 bd 69 9e 3f 4c 5c 5e 3e 82 53 d9 3f dc 0d 33 40
       1.2376019 0.21714896 1.697861 2.797721
0003b0 55 bf 0b 3f 36 4b be bd 71 e8 65 3f 5a 0f 9d 3f
       0.54588825 -0.09291689 0.898078 1.227031
0003c0 58 d5 f4 bb f6 62 8e bf 2f d1 21 3f b4 ff b6 3f
       -0.0074717216 -1.112395 0.63209814 1.4296784
0003d0 fa 2c 4b 3f 68 ad 55 3e c1 d1 4f 40 28 9f fe 3e
       0.79365504 0.2086693 3.2471774 0.49730802
0003e0 0c 83 56 bf e2 c0 c4 3c c5 c6 88 40 52 50 b7 3f
       -0.8379371 0.024017755 4.274264 1.4321387
0003f0 d0 1a e9 bf d1 fc 9c bf 3f 42 0f 40 28 1f d2 3f
       -1.8211308 -1.2264653 2.2384183 1.6415758

variational_strategy._variational_distribution.variational_mean f4 [64]
000000 ec f9 f9 3f f7 34 90 3e 80 97 64 be ae 4f 34 3e
       1.9529395 0.2816541 -0.22323418 0.1760852
000010 a0 ed 19 3e 46 20 62 3d 1b 0f 67 bf 11 2a e3 3e
       0.15032053 0.05520656 -0.90257424 0.44368032
000020 9f 32 74 bf 76 a5 49 c0 bd d8 c9 bf 40 f9 d7 be
       -0.9538974 -3.150724 -1.5769268 -0.4218235
000030 bf b3 c8 bf dd de 2d 40 5b fb 16 c0 28 b6 41 bb
       -1.5679854 2.7167275 -2.3590915 -0.0029558036
000040 7e e5 f3 be af a8 1a 40 03 a3 06 c1 4f 9d 37 3f
       -0.47636026 2.4165456 -8.414798 0.7172441
000050 be 64 1d 40 29 7c a5 bf 5b 02 8d be ac 03 9c 3f
       2.4592738 -1.2928516 -0.2754086 1.218862
000060 3e 40 01 40 41 fc 0b c1 17 a0 fa bf ad 4d 28 41
       2.019546 -8.749085 -1.9580106 10.518964
000070 e7 48 84 be fb 2f 6f c0 0d 62 6c c0 83 32 00 40
       -0.2583687 -3.7373035 -3.6934845 2.003083
000080 30 bb 80 40 85 a9 12 40 40 05 71 40 05 05 f8 c0
       4.02285 2.2915967 3.7659454 -7.7506127
000090 44 fb f9 3e cd 07 7b 41 4e 51 85 bf 84 4f d5 c0
       0.48824513 15.6894045 -1.0415437 -6.6659565
0000a0 2f fa 37 c1 32 52 66 c1 1c a7 b7 c0 b5 2a e4 bf
       -11.49858 -14.395067 -5.739149 -1.7825533
0000b0 4c 7d 1d 41 f5 68 ae c1 6d 32 9b 41 bd 15 e3 40
       9.84309 -21.801249 19.399622 7.0964036
0000c0 a6 a4 31 41 db 4d 8b c0 32 83 6e 41 30 2b 17 41
       11.102697 -4.353254 14.90703 9.448044
0000d0 1e a5 34 c1 1e 5c ad 3f 2e 8c a3 40 e5 8b e9 c1
       -11.290312 1.3543737 5.110862 -29.193308
0000e0 7d 06 56 40 76 24 4e 41 47 be 89 c1 85 7f bd c1
       3.344146 12.883902 -17.217909 -23.687265
0000f0 b0 9a 37 40 be 29 70 41 7d 24 c1 41 23 4c 50 41
       2.8688164 15.010191 24.142817 13.018588

variational_strategy._variational_distribution.chol_variational_covar f4 [64, 64]
000000 5a f1 97 bc 00 00 00 00 00 00 00 00 00 00 00 00
       -0.018547703 0.0 0.0 0.0
000010 00 00 00 00 00 00 00 00 00 00 00 00 00 00 00 00
       0.0 0.0 0.0 0.0
000020 00 00 00 00 00 00 00 00 00 00 00 00 00 00 00 00
       0.0 0.0 0.0 0.0
000030 00 00 00 00 00 00 00 00 00 00 00 00 00 00 00 00
       0.0 0.0 0.0 0.0
000040 00 00 00 00 00 00 00 00 00 00 00 00 00 00 00 00
       0.0 0.0 0.0 0.0
000050 00 00 00 00 00 00 00 00 00 00 00 00 00 00 00 00
       0.0 0.0 0.0 0.0
000060 00 00 00 00 00 00 00 00 00 00 00 00 00 00 00 00
       0.0 0.0 0.0 0.0
000070 00 00 00 00 00 00 00 00 00 00 00 00 00 00 00 00
       0.0 0.0 0.0 0.0
000080 00 00 00 00 00 00 00 00 00 00 00 00 00 00 00 00
       0.0 0.0 0.0 0.0
000090 00 00 00 00 00 00 00 00 00 00 00 00 00 00 00 00
       0.0 0.0 0.0 0.0
0000a0 00 00 00 00 00 00 00 00 00 00 00 00 00 00 00 00
       0.0 0.0 0.0 0.0
0000b0 00 00 00 00 00 00 00 00 00 00 00 00 00 00 00 00
       0.0 0.0 0.0 0.0
0000c0 00 00 00 00 00 00 00 00 00 00 00 00 00 00 00 00
       0.0 0.0 0.0 0.0
0000d0 00 00 00 00 00 00 00 00 00 00 00 00 00 00 00 00
       0.0 0.0 0.0 0.0
0000e0 00 00 00 00 00 00 00 00 00 00 00 00 00 00 00 00
       0.0 0.0 0.0 0.0
0000f0 00 00 00 00 00 00 00 00 00 00 00 00 00 00 00 00
       0.0 0.0 0.0 0.0
000100 59 87 54 3a f4 ea 35 3c 00 00 00 00 00 00 00 00
       0.00081073266 0.0111033805 0.0 0.0
000110 00 00 00 00 00 00 00 00 00 00 00 00 00 00 00 00
       0.0 0.0 0.0 0.0
000120 00 00 00 00 00 00 00 00 00 00 00 00 00 00 00 00
       0.0 0.0 0.0 0.0
000130 00 00 00 00 00 00 00 00 00 00 00 00 00 00 00 00
       0.0 0.0 0.0 0.0
000140 00 00 00 00 00 00 00 00 00 00 00 00 00 00 00 00
       0.0 0.0 0.0 0.0
000150 00 00 00 00 00 00 00 00 00 00 00 00 00 00 00 00
       0.0 0.0 0.0 0.0
000160 00 00 00 00 00 00 00 00 00 00 00 00 00 00 00 00
       0.0 0.0 0.0 0.0
000170 00 00 00 00 00 00 00 00 00 00 00 00 00 00 00 00
       0.0 0.0 0.0 0.0
000180 00 00 00 00 00 00 00 00 00 00 00 00 00 00 00 00
       0.0 0.0 0.0 0.0
000190 00 00 00 00 00 00 00 00 00 00 00 00 00 00 00 00
       0.0 0.0 0.0 0.0
0001a0 00 00 00 00 00 00 00 00 00 00 00 00 00 00 00 00
       0.0 0.0 0.0 0.0
0001b0 00 00 00 00 00 00 00 00 00 00 00 00 00 00 00 00
       0.0 0.0 0.0 0.0
0001c0 00 00 00 00 00 00 00 00 00 00 00 00 00 00 00 00
       0.0 0.0 0.0 0.0
0001d0 00 00 00 00 00 00 00 00 00 00 00 00 00 00 00 00
       0.0 0.0 0.0 0.0
0001e0 00 00 00 00 00 00 00 00 00 00 00 00 00 00 00 00
       0.0 0.0 0.0 0.0
0001f0 00 00 00 00 00 00 00 00 00 00 00 00 00 00 00 00
       0.0 0.0 0.0 0.0
000200 4c 40 98 ba 53 c5 a3 ba ec f2 33 bc 00 00 00 00
       -0.0011615842 -0.001249472 -0.01098321 0.0
000210 00 00 00 00 00 00 00 00 00 00 00 00 00 00 00 00
       0.0 0.0 0.0 0.0
000220 00 00 00 00 00 00 00 00 00 00 00 00 00 00 00 00
       0.0 0.0 0.0 0.0
000230 00 00 00 00 00 00 00 00 00 00 00 00 00 00 00 00
       0.0 0.0 0.0 0.0
000240 00 00 00 00 00 00 00 00 00 00 00 00 00 00 00 00
       0.0 0.0 0.0 0.0
000250 00 00 00 00 00 00 00 00 00 00 00 00 00 00 00 00
       0.0 0.0 0.0 0.0
000260 00 00 00 00 00 00 00 00 00 00 00 00 00 00 00 00
       0.0 0.0 0.0 0.0
000270 00 00 00 00 00 00 00 00 00 00 00 00 00 00 00 00
       0.0 0.0 0.0 0.0
000280 00 00 00 00 00 00 00 00 00 00 00 00 00 00 00 00
       0.0 0.0 0.0 0.0
000290 00 00 00 00 00 00 00 00 00 00 00 00 00 00 00 00
       0.0 0.0 0.0 0.0
0002a0 00 00 00 00 00 00 00 00 00 00 00 00 00 00 00 00
       0.0 0.0 0.0 0.0
0002b0 00 00 00 00 00 00 00 00 00 00 00 00 00 00 00 00
       0.0 0.0 0.0 0.0
0002c0 00 00 00 00 00 00 00 00 00 00 00 00 00 00 00 00
       0.0 0.0 0.0 0.0
0002d0 00 00 00 00 00 00 00 00 00 00 00 00 00 00 00 00
       0.0 0.0 0.0 0.0
0002e0 00 00 00 00 00 00 00 00 00 00 00 00 00 00 00 00
       0.0 0.0 0.0 0.0
0002f0 00 00 00 00 00 00 00 00 00 00 00 00 00 00 00 00
       0.0 0.0 0.0 0.0
000300 b7 e9 9e 38 34 5c a8 b8 2d 0f 6f 3a a4 51 d5 3b
       7.57756e-05 -8.0280384e-05 0.0009119388 0.0065099765
000310 00 00 00 00 00 00 00 00 00 00 00 00 00 00 00 00
       0.0 0.0 0.0 0.0
000320 00 00 00 00 00 00 00 00 00 00 00 00 00 00 00 00
       0.0 0.0 0.0 0.0
000330 00 00 00 00 00 00 00 00 00 00 00 00 00 00 00 00
       0.0 0.0 0.0 0.0
000340 00 00 00 00 00 00 00 00 00 00 00 00 00 00 00 00
       0.0 0.0 0.0 0.0
000350 00 00 00 00 00 00 00 00 00 00 00 00 00 00 00 00
       0.0 0.0 0.0 0.0
000360 00 00 00 00 00 00 00 00 00 00 00 00 00 00 00 00
       0.0 0.0 0.0 0.0
000370 00 00 00 00 00 00 00 00 00 00 00 00 00 00 00 00
       0.0 0.0 0.0 0.0
000380 00 00 00 00 00 00 00 00 00 00 00 00 00 00 00 00
       0.0 0.0 0.0 0.0
000390 00 00 00 00 00 00 00 00 00 00 00 00 00 00 00 00
       0.0 0.0 0.0 0.0
0003a0 00 00 00 00 00 00 00 00 00 00 00 00 00 00 00 00
       0.0 0.0 0.0 0.0
0003b0 00 00 00 00 00 00 00 00 00 00 00 00 00 00 00 00
       0.0 0.0 0.0 0.0
0003c0 00 00 00 00 00 00 00 00 00 00 00 00 00 00 00 00
       0.0 0.0 0.0 0.0
0003d0 00 00 00 00 00 00 00 00 00 00 00 00 00 00 00 00
       0.0 0.0 0.0 0.0
0003e0 00 00 00 00 00 00 00 00 00 00 00 00 00 00 00 00
       0.0 0.0 0.0 0.0
0003f0 00 00 00 00 00 00 00 00 00 00 00 00 00 00 00 00
       0.0 0.0 0.0 0.0

covar_module.base_kernel.raw_lengthscale f4 [1, 8]
000000 0c f5 fd 3f f0 20 f6 3f 54 5e ac 40 c4 22 21 41
       1.9840407 1.9228802 5.3865147 10.070988
000010 1b 9f df be 8c 88 8b 40 76 f3 19 41 8a 5c 0a 41
       -0.43676075 4.3604183 9.621939 8.647593

X_mean f4 [8]
000000 4b df b4 3e c9 6d 2e 3f 9b 5e ed bb 60 2e d1 3a
       0.3532661 0.6813627 -0.007243944 0.0015959255
000010 60 9e ad 3f dc 1b 1c be 62 e5 fc 3e e2 38 ff 3e
       1.3563957 -0.15245003 0.49393755 0.49848086

X_std f4 [8]
000000 88 33 26 3e 92 61 29 3e 27 48 41 3f 44 16 16 3f
       0.16230595 0.16541126 0.7550072 0.58627725
000010 cb 91 31 40 19 d6 e8 40 75 07 d7 3e f8 cf e3 3e
       2.7745235 7.276135 0.41997877 0.44494605

X f4 [3700, 8]
000000 cd cc 2c 3f f6 28 80 3f 00 00 00 00 00 00 00 00
       0.675 1.00125 0.0 0.0
000010 db 0f c9 3f 00 00 00 00 ad b8 dc 38 f6 02 16 3a
       1.5707964 0.0 0.00010524816 0.0005722487
000020 21 b8 2c 3f 0b 50 7e 3f b4 1c e7 bc 33 a3 c8 be
       0.6746846 0.99340886 -0.028211929 -0.3918701
000030 a8 16 c9 3f 38 bf b1 3c 3e 95 b6 38 c2 cc dd 39
       1.5710039 0.021697626 8.706235e-05 0.0004230496
000040 68 95 2b 3f 81 2a 76 3f 16 98 1d be 83 89 61 bf
       0.6702485 0.96158606 -0.15390047 -0.8810045
000050 5b 80 c9 3f 41 e1 e1 3d bc 27 8a 3b 51 b9 d5 39
       1.5742296 0.11029292 0.0042161625 0.00040764597
000060 b0 3c 28 3f 3f c4 67 3f b6 a6 c2 be 76 4b af bf
       0.657176 0.9053382 -0.38017815 -1.3694904
000070 5a b6 ca 3f bb 19 86 3e 86 00 b2 3a 59 e2 b7 39
       1.5836899 0.26191506 0.0013580478 0.00035073122
000080 bd a6 21 3f d9 0b 53 3f 7c 47 28 bf f0 0e ef bf
       0.6314505 0.82439953 -0.65734076 -1.8676434
000090 1d e1 cc 3f 50 76 e5 3e c0 49 bc 3b ab e2 04 3c
       1.6006199 0.44816828 0.0057460964 0.0081106825
0000a0 aa 7c 16 3f 1b 87 38 3f 58 54 a1 bf a8 28 07 c0
       0.5878397 0.72081155 -1.2603865 -2.1118565
0000b0 58 91 d2 3f d3 5a 43 40 f6 fe ff 3b 64 dd bf 3a
       1.6450605 3.0524185 0.007812376 0.0014638123
0000c0 b8 43 00 3f bd e8 20 3f 06 e8 00 c0 4c e4 d7 bf
       0.5010333 0.6285513 -2.0141616 -1.6866546
0000d0 b2 28 05 40 a6 58 44 41 05 08 ae 3b 09 2d 01 3c
       2.0806088 12.271643 0.0053110146 0.007884272
0000e0 1a 36 c6 3e 8a 85 0e 3f c2 23 21 c0 3b ab 8f bf
       0.3871315 0.55672514 -2.5178075 -1.122413
0000f0 5e 05 2f 40 d3 4f 57 41 fe e4 4e 3c a7 93 59 3c
       2.7347026 13.456988 0.012627838 0.013279832
000100 44 ef 81 3e 8f af 05 3f b7 4c 2f c0 00 2f 7d be
       0.25377858 0.52221006 -2.7390573 -0.2472496
000110 32 f8 5a 40 86 7e 5d 41 24 06 05 3b 2b ff 82 3c
       3.4213986 13.8433895 0.002029785 0.015990814
000120 72 03 f4 3d 14 b2 08 3f 56 82 23 c0 18 f8 32 3f
       0.1191472 0.53396726 -2.55483 0.6990981
000130 f2 c3 7f 40 85 4f 03 41 e7 10 18 3c 18 62 d8 3b
       3.9963346 8.206914 0.009281374 0.0066034906
000140 35 44 a7 3b 92 e1 15 3f ab 55 fc bf 99 35 a3 3f
       0.0051045665 0.5854732 -1.9713644 1.2750732
000150 af ea 87 40 45 b1 29 40 12 f8 98 3b c9 9c de 3a
       4.247398 2.6514447 0.004668244 0.0016983981
000160 26 90 9a bd 5a 88 27 3f ab 2a 9f bf 7e de b6 3f
       -0.075470254 0.6544243 -1.2434896 1.4286649
000170 82 6e 8b 40 2b 03 12 40 da 0d af 3c 1e bd bb 3c
       4.3572397 2.2814434 0.02136891 0.022917327
000180 93 30 f3 bd f3 43 39 3f 69 92 f9 be 27 19 a6 3f
       -0.11874499 0.7236931 -0.48744515 1.2976426
000190 c0 87 8f 40 86 e9 36 40 72 8f 10 3c ff db 07 3c
       4.485321 2.8580031 0.0088232625 0.008292197
0001a0 1f 63 01 be 9d b2 47 3f cd 77 14 3e c0 d8 6c 3f
       -0.12635468 0.7800692 0.14498825 0.92518234
0001b0 84 9c 94 40 0a 48 5f 40 72 d6 0f 3a 4c 13 89 3a
       4.644106 3.488772 0.0005486972 0.0010458021
0001c0 6c 3e dc bd 97 55 50 3f 9a e3 13 3f e6 48 d0 3e
       -0.107540935 0.813806 0.5776917 0.40680617
0001d0 f6 84 9a 40 18 28 78 40 ad 3c 6e 3c 1a ed c6 3c
       4.8287306 3.8774471 0.014540833 0.02428298
0001e0 4e 0f 93 bd e4 c8 51 3f 90 e5 50 3f b1 a4 44 be
       -0.071806535 0.8194716 0.81600285 -0.1920345
0001f0 84 f1 a0 40 3a e1 83 40 e7 66 b1 3a be f0 5f 3b
       5.029482 4.1212435 0.0013534696 0.0034170593
000200 79 ca ec bc 2d 54 4b 3f 2a 7b 64 3f 8a 71 50 bf
       -0.02890514 0.7942532 0.89250433 -0.81423247
000210 64 78 a7 40 27 0a 82 40 ef 3a 09 3c c1 92 21 3c
       5.233446 4.0637393 0.008375867 0.009861649
000220 39 01 96 3c 99 a8 3d 3f 38 9c 80 3f 19 9c a3 bf
       0.01831113 0.74085385 1.0047674 -1.2782012
000230 af c4 a9 40 28 37 64 c0 5f 9a 01 3d ce 3b ea 3c
       5.305259 -3.5658665 0.03164136 0.02859297
000240 90 11 92 3d 37 8b 2a 3f 8f 95 91 3f 98 94 d8 bf
       0.07132256 0.66618675 1.1373767 -1.6920347
000250 24 b9 9d 40 4e 68 2d c1 ce f6 09 3c c6 6a 57 3c
       4.92885 -10.837965 0.008420659 0.013148015
000260 84 52 0a 3e 8c 74 13 3f d0 10 ba 3f b7 f5 e8 bf
       0.1350804 0.5759971 1.4536381 -1.8199986
000270 d5 38 88 40 1a 59 81 c1 a0 b5 b3 3c a2 5a d8 3c
       4.2569375 -16.168507 0.021937191 0.026410405
000280 f8 1b 5f 3e ca 45 03 3f 1b aa df 3f c0 37 96 be
       0.21788013 0.51278365 1.7473787 -0.2933941
000290 c3 bd 51 40 00 f3 a7 c1 bf ee 12 3d 59 c8 9b 3c
       3.2772071 -20.993652 0.035872217 0.019016432
0002a0 4a ef 98 3e d3 86 06 3f af 02 c9 3f 0e 1e 2a 3f
       0.29870063 0.52549475 1.5703944 0.6645211
0002b0 46 28 14 40 f6 9a 5a c1 eb 51 11 3c f1 44 bd 3c
       2.314958 -13.662832 0.008869628 0.023104163
0002c0 a4 96 c1 3e 17 36 11 3f f2 2b ca 3f 21 42 4b 3f
       0.37810242 0.5672316 1.5794661 0.7939778
0002d0 ea 1a 03 40 65 41 93 bf 51 ca 28 3c ab f0 f6 3c
       2.0485177 -1.1504332 0.010302142 0.030144056
0002e0 e9 cd e8 3e 89 b2 19 3f 97 39 ba 3f 40 8f 11 3f
       0.45469597 0.6003805 1.4548825 0.5685921
0002f0 3d a1 03 40 8d 49 d6 3f 72 73 18 3d 5d e6 37 3d
       2.0567162 1.6741196 0.037219472 0.044897426
000300 23 2e 04 3f c1 be 22 3f 40 88 79 3f 0d b1 5c 3f
       0.516329 0.6357232 0.97473526 0.8620766
000310 23 db 10 40 c5 4e ae 40 9c 76 f6 3c 66 61 0e 3d
       2.263375 5.4471154 0.030085854 0.034760855
000320 2c a3 0e 3f ad 43 2d 3f e9 e2 27 3f 39 2e 40 3f
       0.5571773 0.6768139 0.6558061 0.7507053
000330 5c 3e 22 40 61 e3 ab 40 ed 1c 9e 3c 48 76 36 3d
       2.535056 5.371506 0.019300902 0.044546396
000340 56 44 14 3f e6 36 35 3f eb 12 85 3e 0c 9c f1 3e
       0.5791677 0.70786893 0.25990996 0.47189367
000350 70 4b 2e 40 04 c7 f2 3f ec 96 53 3d ea 17 0f 3d
       2.7233543 1.8966985 0.051657602 0.034934916
000360 c7 58 16 3f 09 e6 38 3f a2 e7 ad 3d cc cd cd 3d
       0.58729213 0.72226006 0.08491446 0.10049018
000370 b7 20 30 40 e5 9f d0 be db 12 30 3d 0e 7c 06 3d
       2.7519968 -0.4074699 0.042986732 0.03283315
000380 12 3c 16 3f d4 ff 37 3f 14 2b e8 bd fe 77 71 be
       0.5868541 0.7187474 -0.113363415 -0.2358093
000390 ee 42 2c 40 c3 c1 fb bf ce 28 18 3d 4e 41 32 3d
       2.691585 -1.9668506 0.03714829 0.04351931
0003a0 2c 2c 13 3f f4 27 33 3f 83 39 c6 be 61 28 00 bf
       0.57489276 0.6998284 -0.38715753 -0.50061613
0003b0 9e c6 23 40 9e 09 4a c0 f0 96 3e 3c bd 0b 61 3c
       2.5589976 -3.156837 0.011632666 0.013735709
0003c0 bd f9 0b 3f d1 6f 2b 3f 65 0b 3c bf 6f 16 37 bf
       0.54677945 0.66967493 -0.73454887 -0.71518606
0003d0 7c fa 19 40 b1 38 39 c0 70 d0 6b 3d e7 35 c2 3c
       2.4059134 -2.8940852 0.05757183 0.023707343
0003e0 39 a9 00 3f 11 e4 20 3f c1 51 86 bf c3 a5 66 bf
       0.50258213 0.62848 -1.0493699 -0.9009668
0003f0 34 cc 11 40 70 6c 0d c0 0b 7c 2f 3c f8 39 bc 3b
       2.2780886 -2.2097435 0.0107107265 0.005744215

Y f4 [3700]
000000 00 00 00 00 40 89 86 3c 5c f4 e5 3c 20 eb a0 3c
       0.0 0.016422868 0.028070621 0.019643366
000010 18 c1 c1 3d 1d 68 3f 40 80 e3 1d 3f 00 e0 e5 3d
       0.09460658 2.9907296 0.6167526 0.11224365
000020 d0 ed 16 bf 0c 06 bc bf 50 b8 dc be 00 fe bc 3d
       -0.58956623 -1.4689345 -0.4310937 0.09228134
000030 80 15 08 3e 00 9e d0 3d 20 00 97 3d 00 4a 75 bc
       0.13289452 0.10186386 0.07373071 -0.014971256
000040 00 b4 6c bc 54 bc e0 bf 10 0c 88 bf a0 c2 be bf
       -0.014447212 -1.7557473 -1.0628681 -1.4903145
000050 c0 59 d2 3e 9a b3 9f 40 64 01 19 3f fb 42 90 3f
       0.410841 4.990674 0.59767747 1.1270441
000060 00 1a 0b 3c 70 bf 0b bf 18 75 28 bf 9d dc a9 be
       0.008490086 -0.54588985 -0.6580367 -0.33176127
000070 34 c6 ad be 00 a6 c3 bc 80 a3 d8 3d 40 ff 26 3e
       -0.3394028 -0.023882866 0.1057806 0.16308308
000080 f8 41 5a 3f d0 07 26 3f c0 ea b7 3e 00 01 0e 3d
       0.8525691 0.6485567 0.35921288 0.034668922
000090 00 68 7b bd 90 40 44 bf 38 e6 2d bf 78 48 55 be
       -0.06137848 -0.76661015 -0.6792941 -0.20828426
0000a0 10 b5 84 bc 80 0d f7 bc ea d5 b7 be 14 8a 2b bf
       -0.016199619 -0.030157804 -0.3590539 -0.67007565
0000b0 18 65 4a bf 00 a4 e7 3d 60 fd 82 3e a0 45 cc 3e
       -0.79060507 0.113105774 0.25583935 0.3989687
0000c0 e0 57 e4 3e e0 aa 8a 3e 50 3f b0 3e c7 d9 98 3d
       0.44598293 0.27083492 0.34423304 0.07463413
0000d0 4c 26 03 bd e0 bb 79 bd 80 9c 12 3c 50 43 dc 3d
       -0.032018945 -0.060970187 0.008948445 0.10755026
0000e0 c0 c6 c6 bc f0 77 6a 3e 20 f9 30 3e 80 6d 18 3d
       -0.024264693 0.22897315 0.17282534 0.037213802
0000f0 20 b5 84 3e 00 81 b4 bc c0 46 9d 3d 80 58 fc 3d
       0.25919437 -0.022034168 0.0767951 0.123215675
000100 90 dd ea be b8 d1 43 bf d3 e6 29 bf c0 09 8f be
       -0.45872164 -0.7649188 -0.66367835 -0.27937126
000110 28 d9 94 be 00 e5 08 be 20 8f 30 be 20 8e 9e 3e
       -0.29071927 -0.13368607 -0.17242098 0.30967808
000120 00 64 a0 3d 80 c6 42 bd c0 36 1a 3d 20 b1 5a 3e
       0.078315735 -0.047552586 0.03764987 0.2135663
000130 70 57 4d 3e 68 c3 2e 3e e8 75 14 be c0 37 97 3d
       0.20052886 0.17066729 -0.14498103 0.0738368
000140 a4 1c 30 3e 26 68 10 3f 78 04 28 3f 50 39 be 3e
       0.17198426 0.5640892 0.6563182 0.371531
000150 40 9d eb 3d c0 7f ad 3d c0 52 a3 3e 20 31 ce be
       0.115046024 0.08471632 0.3189907 -0.40271854
000160 18 10 1b bf 30 33 c2 bd c8 32 36 be d0 81 54 be
       -0.6057143 -0.094824195 -0.17792809 -0.20752645
000170 20 e7 a5 be 20 56 40 be 88 e8 b4 be b0 32 8f 3e
       -0.32402897 -0.18782854 -0.35333657 0.2796836
000180 00 6a 8f 3b 60 33 88 3e 00 3e c4 3c 00 f0 ff 3d
       0.00437665 0.26601696 0.023955345 0.12496948
000190 10 c3 5e be 00 3f 35 3c 10 25 9c 3e 20 a0 e8 3d
       -0.21754098 0.011062384 0.30497026 0.113586664
0001a0 60 12 93 3e c4 75 e2 3e 73 d5 96 3e 14 2a 01 3f
       0.28724957 0.44230473 0.29459724 0.5045483
0001b0 c0 fc c4 3d 30 3d fe 3e 80 ed 8a 3d 60 f3 14 3e
       0.09618521 0.49656057 0.06783581 0.14545965
0001c0 80 79 ba be 54 6e 41 bf 38 d0 24 bf 48 d1 61 3e
       -0.36420822 -0.7555897 -0.64380217 0.2205249
0001d0 c0 f9 13 bd 96 cf 9b be 80 f9 6d be 44 e8 f6 be
       -0.036126852 -0.30431813 -0.23239708 -0.4822408
0001e0 40 8a 4a be 50 a8 1f be 00 c0 f3 bc e8 d7 0b 3f
       -0.197793 -0.1559155 -0.029754639 0.5462632
0001f0 80 3d 64 3d d0 d2 48 3e cc 6a 6e be 90 e1 dd bd
       0.055722713 0.19611669 -0.23282927 -0.10834038
000200 64 f3 a2 3e a0 fe 12 bd 00 d8 0a 3e 1e 8d b6 3e
       0.31826317 -0.03588736 0.1355896 0.3565454
000210 14 0c f0 3e 80 25 81 3d f0 5f 3a 3e 00 60 e4 3e
       0.46884215 0.06305981 0.1820066 0.44604492
000220 d0 ad ff 3e 00 54 f7 bd 70 81 25 bf 50 4b 53 be
       0.49937296 -0.120765686 -0.6465063 -0.20634198
000230 6c 84 9f be d8 18 dc be dc a4 d6 be 90 e3 78 be
       -0.31155717 -0.42987704 -0.41922653 -0.24305558
000240 00 5a 3d 3c 40 36 6c 3d c0 dd 39 be 98 0b ab 3e
       0.011557102 0.057668924 -0.18150997 0.33407283
000250 a0 a8 1a be a0 61 4a 3e 50 d8 2b 3e 98 ee c4 3e
       -0.15103388 0.19763803 0.16781735 0.38463283
000260 10 41 d5 3d 50 60 80 be 40 10 fa 3d 80 25 c3 3d
       0.104128 -0.2507348 0.12210131 0.09528637
000270 0c fb b7 3e 2e 45 12 3f 00 97 ce 3d 80 bf c1 bd
       0.3593372 0.5713681 0.10087395 -0.09460354
000280 e0 9b 4b 3f 00 c2 1b 3d e0 57 09 be 00 2c ee 3b
       0.7953472 0.03802681 -0.13412428 0.007268429
000290 80 43 9b be ff 9d 31 be 38 e2 1c be 50 82 28 3e
       -0.30324936 -0.17345427 -0.1532067 0.1645596
0002a0 91 20 af 3e 24 9e 21 be 04 c5 90 be 00 e0 78 ba
       0.34204534 -0.15782982 -0.2827531 -0.0009493828
0002b0 70 20 3b be c0 36 4c 3d 48 66 96 3e 80 1a 43 be
       -0.18274093 0.0498569 0.2937491 -0.19053078
0002c0 34 da f6 3e d0 f5 05 be 88 56 82 be de f9 17 bf
       0.4821335 -0.13082051 -0.25456643 -0.5936564
0002d0 3c f1 97 3e 6a d3 29 3f fc 1f 3b 3f e8 5a f0 3e
       0.29676235 0.6633822 0.7309568 0.46944356
0002e0 00 e2 8b 3d 70 c4 83 be e0 1d 88 3d 98 ba 18 3f
       0.068302155 -0.25735807 0.06646323 0.5965972
0002f0 00 6a 0f be a0 8a 00 be e8 b1 2d bf a2 57 4c bf
       -0.1400528 -0.12552881 -0.6784959 -0.7982122
000300 90 69 9d bd b8 6d a5 be e0 a7 b4 3e 28 1d 57 3e
       -0.0768615 -0.3231027 0.35284328 0.21007216
000310 c0 f2 88 3d 00 95 03 3d 20 73 6d be b0 1c 2b be
       0.06686926 0.03212452 -0.23188448 -0.16710162
000320 d0 e6 2a be 48 a3 f3 be 80 88 51 bd c0 8c b4 3e
       -0.1668961 -0.4758551 -0.051155567 0.35263634
000330 c3 e4 22 3f b4 4a c8 be fc dd aa be ae ef c0 3e
       0.6363031 -0.39119494 -0.33372486 0.3768286
000340 ea 43 14 3e 66 42 34 3f 20 3b ef 3e 80 fc 06 3e
       0.14479032 0.70413816 0.46724796 0.13182259
000350 f0 53 d3 3e d0 40 19 3f 60 20 e6 be 28 2d aa bd
       0.41274977 0.5986452 -0.44946575 -0.08309394
000360 d8 c0 11 bf 14 72 96 3e c0 c6 8b 3d 18 da 1d 3f
       -0.5693488 0.2938391 0.06825018 0.6166091
000370 f8 1b bd 3e 32 4e 33 3f fc b9 f1 3e 0c 90 a5 be
       0.369354 0.7004119 0.47212207 -0.32336462
000380 74 c8 d3 3e 42 f0 ae 3e b6 69 d0 be 40 88 2c be
       0.4136387 0.34167677 -0.4070565 -0.1684885
000390 80 2d 2d bd 80 f8 1f be c0 62 91 3d f0 aa 02 3e
       -0.04227972 -0.15622139 0.07098913 0.1276052
0003a0 40 1d 7d 3f d6 ec 8f 3e 27 a3 36 3f 40 c1 b8 3d
       0.98872757 0.2811038 0.713427 0.090212345
0003b0 a0 e2 42 bf 00 74 43 3e 50 50 80 3e b0 af fc 3e
       -0.7612705 0.19087219 0.25061274 0.4935279
0003c0 80 21 23 bf 58 54 9b be ce e7 6f bf bc a6 08 3f
       -0.6372299 -0.30337787 -0.9371308 0.53379416
0003d0 f8 9a d0 3e c8 fc ca 3e 80 2d ea bd e8 ca cb 3e
       0.40743232 0.39645982 -0.1143446 0.39803243
0003e0 f8 9b 51 3f 08 6c be be c0 01 87 bd 28 da 38 be
       0.81878614 -0.37191796 -0.06592131 -0.1805197
0003f0 3c 2f 21 3f 0c 73 b2 3e 38 9b 22 3f a2 56 71 3f
       0.629627 0.348534 0.63518095 0.94272816
