Simplified/data/svgp_torch_models/svgp_dim0_final.pth (torch, 239292 bytes, 8 tensors)

variational_strategy.inducing_points f4 [25, 8]
0	0xc14401ea	-12.250467
1	0x40b2b29e	5.584304
2	0x410dec6c	8.87022
3	0xc10060fa	-8.023676
4	0xc121ebba	-10.12005
5	0xc07c5784	-3.9428415
6	0xc11d4908	-9.83033
7	0xc0a376c1	-5.1082463
8	0xc0d6cc4b	-6.712438
9	0xc0a3caed	-5.118521
10	0x407ad61a	3.9193177
11	0xbd356746	-0.044287942
12	0xc091661f	-4.543716
13	0x4100262d	8.00932
14	0xc0977d61	-4.734055
15	0x40f126f8	7.536007
16	0x412360b9	10.211114
17	0xc0f3ea75	-7.6223702
18	0x40206267	2.506006
19	0xbe6a4fb8	-0.22881973
20	0xc0d8bbcf	-6.772926
21	0x407959d9	3.8961089
22	0x3e0f93c3	0.1402121
23	0x40819433	4.0493407
24	0xbf26d6fd	-0.65171796
25	0xbf84e05c	-1.0380969
26	0x402408c8	2.563036
27	0x4030865a	2.7582002
28	0x3fb4dd90	1.4130116
29	0x4024f681	2.5775454
30	0x3f3f2324	0.74662995
31	0x3f55d577	0.83528847
32	0xbff58037	-1.9179753
33	0xbea1f60c	-0.3163303
34	0x4088a45a	4.2700624
35	0x3fc4dab8	1.5379248
36	0x3fa85477	1.3150777
37	0x3f9e4b94	1.2366815
38	0xbfef5e2c	-1.8700614
39	0xbf8ed142	-1.115761
40	0x3cd61bd2	0.026136313
41	0x3fcb342a	1.5875294
42	0x40200b7d	2.5007012
43	0x3fd3fa5c	1.6560779
44	0x3e12dea8	0.14342749
45	0x402f01dc	2.7344885
46	0x408d6b45	4.4193444
47	0x3fd48e35	1.6605898
48	0xbff2523f	-1.893135
49	0xbf39bcfb	-0.72553986
50	0x3f56b010	0.838624
51	0xc0120e8f	-2.2821386
52	0xbf8f6f51	-1.1205846
53	0xbf3c7d0f	-0.73628324
54	0xbe827a4b	-0.25483927
55	0x3fd9e44a	1.7022793
56	0x3fa34885	1.2756506
57	0x4014ee67	2.327051
58	0x3e2dccfa	0.16972724
59	0x402fc8d5	2.7466328
60	0xc0155738	-2.3334484
61	0xbfb91df3	-1.4462265
62	0xbf18a605	-0.59628326
63	0xbfb268bc	-1.3938212
64	0xbf5cb2b5	-0.86210185
65	0xbed6db2f	-0.419641
66	0x4001fccb	2.0310543
67	0x3fc980f2	1.5742476
68	0xc0420af7	-3.0319192
69	0x3e961e09	0.2931979
70	0xbf75f744	-0.9608042
71	0x40337fbe	2.8046718
72	0x3f878ab8	1.0589209
73	0x401d0b32	2.4538083
74	0xbeb0c87a	-0.3452795
75	0xbeb39691	-0.3507581
76	0xbf3a9fde	-0.7290019
77	0x3ec2bc14	0.38034117
78	0x3f8b46f8	1.0881033
79	0x3fac56d5	1.3463999
80	0x3ede1723	0.43377027
81	0x3fb2c970	1.3967724
82	0xbf20058e	-0.62508476
83	0x3ee1f6f3	0.4413372
84	0xc03dada7	-2.963724
85	0x3f023328	0.5085931
86	0x4054c655	3.3246052
87	0xbf7cf4ca	-0.9881102
88	0x4015556b	2.3333385
89	0x3fd2b6c1	1.6462022
90	0xbe2bbcde	-0.16771266
91	0xbf3dcb0f	-0.7413797
92	0x3eca578e	0.39519924
93	0xbffdab46	-1.9817894
94	0x40f26ee6	7.5760374
95	0x3f8fae46	1.1225059
96	0x3ff37762	1.9020808
97	0xbf5e07ba	-0.8673054
98	0x3e834de3	0.2564536
99	0xbfe74f18	-1.8071012
100	0x3fac2a30	1.3450375
101	0x3f26919d	0.6506594
102	0x3e332201	0.1749344
103	0xbfde85fa	-1.7384636
104	0x3bf2435b	0.0073932833
105	0xbf3e010e	-0.7422036
106	0xbf5485a7	-0.8301644
107	0xbf378a93	-0.7169582
108	0xbf9807ba	-1.1877358
109	0x3f487041	0.78296286
110	0x40062649	2.0960867
111	0x405a4e77	3.411039
112	0xbeb04133	-0.34424743
113	0x3d91ae69	0.07113344
114	0x40191d5d	2.3924172
115	0x3f7f1bfc	0.99652076
116	0xc072acf1	-3.7918055
117	0xc00e0b6e	-2.2194476
118	0x406941c7	3.6446397
119	0xbf7b3fb4	-0.9814408
120	0xbf3a9539	-0.72883946
121	0x3f302db2	0.68819726
122	0x3ef8f3ac	0.48623407
123	0xbe638cfe	-0.22221753
124	0xc0d5c399	-6.6801267
125	0xbf1279fe	-0.57217395
126	0x404e8e62	3.2274404
127	0xbf06432a	-0.52446234
128	0xbed988ad	-0.42487088
129	0x3d1b0336	0.03784486
130	0xbf225dd9	-0.6342445
131	0x3f2c2c70	0.67255306
132	0xbfa3d334	-1.2798829
133	0x3fa1e701	1.2648622
134	0xbf929d68	-1.1454287
135	0x3f4d4358	0.80180883
136	0x3f6d2d1a	0.92646945
137	0x3fbab29f	1.4585761
138	0xbf581edd	-0.84422094
139	0x40d2d180	6.5880737
140	0xbf85bd08	-1.0448313
141	0xbf49caf6	-0.7882532
142	0x4067e2b7	3.6232126
143	0x3f049398	0.5178771
144	0x3fded64f	1.7409152
145	0xbf069afc	-0.5258024
146	0xbfbc7386	-1.4722755
147	0xbfd5c824	-1.6701703
148	0xc04b489d	-3.176307
149	0xbf1fdb5d	-0.62444097
150	0xbfc94da1	-1.5726815
151	0xbef78a9c	-0.48347938
152	0x3f1ec6ce	0.620221
153	0x3fde7815	1.7380396
154	0xbf559159	-0.8342491
155	0x4007e3db	2.1232822
156	0xc042954c	-3.0403624
157	0xc034ed15	-2.8269703
158	0xbf90a581	-1.1300508
159	0x40a73e05	5.2263207
160	0xbfb982b8	-1.4493017
161	0x3f49d4e7	0.7884049
162	0xbfcd2287	-1.6026162
163	0xbfa9d7a2	-1.3268931
164	0x40234971	2.5513575
165	0xbfc17b2d	-1.5115715
166	0x3ffbcfc8	1.9672785
167	0xc01ca0d1	-2.4473155
168	0xbe82c090	-0.2553754
169	0x40446603	3.0687263
170	0xbf5c723b	-0.861118
171	0xbf2cadc0	-0.6745262
172	0xc0af9535	-5.4869637
173	0x40b8a0e8	5.769642
174	0x401258bb	2.2866657
175	0x3fd55c9c	1.6668887
176	0xbf7024e2	-0.9380628
177	0x4096263a	4.6921663
178	0xbfcd5c9b	-1.6043886
179	0xbf3efe36	-0.74606645
180	0xc0bbcd1a	-5.868787
181	0xc0066fa3	-2.1005638
182	0x40311dcd	2.767444
183	0xbe5ca467	-0.2154709
184	0x3f311ef4	0.69187856
185	0xbfd252b4	-1.6431489
186	0x3f43d56d	0.76497537
187	0xc011c5ab	-2.2776897
188	0x40c255c4	6.0729694
189	0x3ee60694	0.44926894
190	0xc056c942	-3.3560338
191	0x407c5c30	3.9431267
192	0x3f11fe92	0.5702907
193	0xbe9cddd4	-0.3063799
194	0x3ea89f09	0.32933834
195	0x3f70d252	0.94070923
196	0xbeaa47bd	-0.33257857
197	0xbfdf8523	-1.7462505
198	0x3fc8d23c	1.5689158
199	0x3f4ad2c9	0.7922788

variational_strategy._variational_distribution.variational_mean f4 [25]
0	0xc0a71ebc	-5.2225018
1	0xc10cc250	-8.79744
2	0xc0cd8254	-6.422159
3	0xc0dc8867	-6.8916507
4	0x407cee32	3.9520383
5	0x3d375f48	0.0447686
6	0xc0885ed8	-4.2615776
7	0xc056805a	-3.351584
8	0x40475e20	3.11512
9	0xc018a5f3	-2.3851287
10	0xc0218fd1	-2.5244029
11	0xbfc60f84	-1.5473485
12	0x3fe1e950	1.7649326
13	0xc0dc504e	-6.884803
14	0x3f53cc5f	0.8273372
15	0x3fb0bfbb	1.3808511
16	0xbf6da926	-0.92836225
17	0xbf77cee8	-0.9680009
18	0xc0918c55	-4.5483804
19	0xc0893afb	-4.28845
20	0xc0c93258	-6.2873955
21	0xc197972e	-18.948818
22	0xc06c1c44	-3.6892252
23	0xc10a4286	-8.641241
24	0x41b0e9ba	22.114124

variational_strategy._variational_distribution.chol_variational_covar f4 [25, 25]
0	0x3de4883f	0.111587994
1	0x00000000	0.0
2	0x00000000	0.0
3	0x00000000	0.0
4	0x00000000	0.0
5	0x00000000	0.0
6	0x00000000	0.0
7	0x00000000	0.0
8	0x00000000	0.0
9	0x00000000	0.0
10	0x00000000	0.0
11	0x00000000	0.0
12	0x00000000	0.0
13	0x00000000	0.0
14	0x00000000	0.0
15	0x00000000	0.0
16	0x00000000	0.0
17	0x00000000	0.0
18	0x00000000	0.0
19	0x00000000	0.0
20	0x00000000	0.0
21	0x00000000	0.0
22	0x00000000	0.0
23	0x00000000	0.0
24	0x00000000	0.0
25	0xbd521d36	-0.05129739
26	0x3d01a61e	0.031652562
27	0x00000000	0.0
28	0x00000000	0.0
29	0x00000000	0.0
30	0x00000000	0.0
31	0x00000000	0.0
32	0x00000000	0.0
33	0x00000000	0.0
34	0x00000000	0.0
35	0x00000000	0.0
36	0x00000000	0.0
37	0x00000000	0.0
38	0x00000000	0.0
39	0x00000000	0.0
40	0x00000000	0.0
41	0x00000000	0.0
42	0x00000000	0.0
43	0x00000000	0.0
44	0x00000000	0.0
45	0x00000000	0.0
46	0x00000000	0.0
47	0x00000000	0.0
48	0x00000000	0.0
49	0x00000000	0.0
50	0x3c229296	0.009922644
51	0xbc8ec4a5	-0.017427752
52	0x3d8b4bca	0.06801565
53	0x00000000	0.0
54	0x00000000	0.0
55	0x00000000	0.0
56	0x00000000	0.0
57	0x00000000	0.0
58	0x00000000	0.0
59	0x00000000	0.0
60	0x00000000	0.0
61	0x00000000	0.0
62	0x00000000	0.0
63	0x00000000	0.0
64	0x00000000	0.0
65	0x00000000	0.0
66	0x00000000	0.0
67	0x00000000	0.0
68	0x00000000	0.0
69	0x00000000	0.0
70	0x00000000	0.0
71	0x00000000	0.0
72	0x00000000	0.0
73	0x00000000	0.0
74	0x00000000	0.0
75	0xbd5f1288	-0.054461032
76	0xbd1333e2	-0.03593815
77	0xbd8b5019	-0.06802387
78	0x3c5d7440	0.013516486
79	0x00000000	0.0
80	0x00000000	0.0
81	0x00000000	0.0
82	0x00000000	0.0
83	0x00000000	0.0
84	0x00000000	0.0
85	0x00000000	0.0
86	0x00000000	0.0
87	0x00000000	0.0
88	0x00000000	0.0
89	0x00000000	0.0
90	0x00000000	0.0
91	0x00000000	0.0
92	0x00000000	0.0
93	0x00000000	0.0
94	0x00000000	0.0
95	0x00000000	0.0
96	0x00000000	0.0
97	0x00000000	0.0
98	0x00000000	0.0
99	0x00000000	0.0
100	0xbd9876d5	-0.074445404
101	0xba1c7ba6	-0.0005969353
102	0xbb3c2eeb	-0.0028714489
103	0x3cd55296	0.026040357
104	0x3d2512cc	0.04030113
105	0x00000000	0.0
106	0x00000000	0.0
107	0x00000000	0.0
108	0x00000000	0.0
109	0x00000000	0.0
110	0x00000000	0.0
111	0x00000000	0.0
112	0x00000000	0.0
113	0x00000000	0.0
114	0x00000000	0.0
115	0x00000000	0.0
116	0x00000000	0.0
117	0x00000000	0.0
118	0x00000000	0.0
119	0x00000000	0.0
120	0x00000000	0.0
121	0x00000000	0.0
122	0x00000000	0.0
123	0x00000000	0.0
124	0x00000000	0.0
125	0xbb94ff86	-0.0045470623
126	0xbc2eacd9	-0.010661327
127	0xbc20bfaa	-0.009811321
128	0xbc1aa5a9	-0.0094389105
129	0x3cdaeff8	0.026725754
130	0x3d0ce70f	0.034400042
131	0x00000000	0.0
132	0x00000000	0.0
133	0x00000000	0.0
134	0x00000000	0.0
135	0x00000000	0.0
136	0x00000000	0.0
137	0x00000000	0.0
138	0x00000000	0.0
139	0x00000000	0.0
140	0x00000000	0.0
141	0x00000000	0.0
142	0x00000000	0.0
143	0x00000000	0.0
144	0x00000000	0.0
145	0x00000000	0.0
146	0x00000000	0.0
147	0x00000000	0.0
148	0x00000000	0.0
149	0x00000000	0.0
150	0xbce807ab	-0.028323969
151	0x3a899324	0.0010496122
152	0x3cbf500d	0.0233536
153	0xbbda2077	-0.006656702
154	0x3cc056b4	0.023478843
155	0x3ad7a4d5	0.0016452322
156	0x3c284b46	0.010271853
157	0x00000000	0.0
158	0x00000000	0.0
159	0x00000000	0.0
160	0x00000000	0.0
161	0x00000000	0.0
162	0x00000000	0.0
163	0x00000000	0.0
164	0x00000000	0.0
165	0x00000000	0.0
166	0x00000000	0.0
167	0x00000000	0.0
168	0x00000000	0.0
169	0x00000000	0.0
170	0x00000000	0.0
171	0x00000000	0.0
172	0x00000000	0.0
173	0x00000000	0.0
174	0x00000000	0.0
175	0x3c5cd7b1	0.013479159
176	0x3d0dfa84	0.03466274
177	0xbc997645	-0.018733153
178	0xbb217ae2	-0.0024639894
179	0x3c312e29	0.010814228
180	0x3b9cd1dc	0.0047857594
181	0xbbc4be7c	-0.006004153
182	0x3be43e08	0.0069654025
183	0x00000000	0.0
184	0x00000000	0.0
185	0x00000000	0.0
186	0x00000000	0.0
187	0x00000000	0.0
188	0x00000000	0.0
189	0x00000000	0.0
190	0x00000000	0.0
191	0x00000000	0.0
192	0x00000000	0.0
193	0x00000000	0.0
194	0x00000000	0.0
195	0x00000000	0.0
196	0x00000000	0.0
197	0x00000000	0.0
198	0x00000000	0.0
199	0x00000000	0.0
200	0xbcca5a4e	-0.024701264
201	0xbcc48b57	-0.023992224
202	0xbd064b24	-0.032786503
203	0xbc40b410	-0.01176168
204	0xbca4fb6d	-0.02013942
205	0xbc149c67	-0.009070492
206	0xbb979dc2	-0.0046269605
207	0x3a4683c8	0.00075727375
208	0x3cc52016	0.024063151
209	0x00000000	0.0
210	0x00000000	0.0
211	0x00000000	0.0
212	0x00000000	0.0
213	0x00000000	0.0
214	0x00000000	0.0
215	0x00000000	0.0
216	0x00000000	0.0
217	0x00000000	0.0
218	0x00000000	0.0
219	0x00000000	0.0
220	0x00000000	0.0
221	0x00000000	0.0
222	0x00000000	0.0
223	0x00000000	0.0
224	0x00000000	0.0
225	0xbc5b9c50	-0.013403967
226	0xbbb05128	-0.0053807683
227	0xbd3b8c97	-0.045788374
228	0x3cd2b1e5	0.025719592
229	0x3c832096	0.01600675
230	0xbcb74263	-0.022370523
231	0xbc9ec2f3	-0.019380068
232	0xbc453224	-0.01203588
233	0x3c1563f9	0.009118074
234	0xbc435042	-0.01192099
235	0x00000000	0.0
236	0x00000000	0.0
237	0x00000000	0.0
238	0x00000000	0.0
239	0x00000000	0.0
240	0x00000000	0.0
241	0x00000000	0.0
242	0x00000000	0.0
243	0x00000000	0.0
244	0x00000000	0.0
245	0x00000000	0.0
246	0x00000000	0.0
247	0x00000000	0.0
248	0x00000000	0.0
249	0x00000000	0.0
250	0xbcb5e730	-0.022204965
251	0xbc3d5bf7	-0.011557571
252	0xbc55072f	-0.013002201
253	0x3c4ab947	0.012373275
254	0x3c3686dc	0.011140551
255	0xbc8498c9	-0.016186135

covar_module.base_kernel.raw_lengthscale f4 [1, 8]
0	0x41951058	18.63298
1	0x420ad875	34.711384
2	0x40f860c1	7.761811
3	0x421574d4	37.36409
4	0x4227b2da	41.92466
5	0x41b16468	22.174026
6	0x421b1dff	38.779293
7	0x41d10d44	26.131477

X_mean f4 [8]
0	0x3eaaa084	0.3332559
1	0x3f2b6477	0.6695017
2	0xbe23f2ee	-0.16010639
3	0xbebbe662	-0.36699206
4	0x403c5d99	2.9432127
5	0x3f68eda9	0.9098764
6	0x3ed3bcca	0.41354972
7	0x3f11635e	0.5679225

X_std f4 [8]
0	0x3e842448	0.2580893
1	0x3e2b64cc	0.1673767
2	0x3fc01bf6	1.5008533
3	0x3f6c84e1	0.9239026
4	0x3f8b2483	1.0870517
5	0x40c35239	6.103787
6	0x3ed26211	0.41090444
7	0x3ed6ddf2	0.41966206

X f4 [6325, 8]
0	0x3f2ccccd	0.675
1	0x3f8028f6	1.00125
2	0x00000000	0.0
3	0x00000000	0.0
4	0x3fc90fdb	1.5707964
5	0x00000000	0.0
6	0x38757dff	5.8529895e-05
7	0x3820baa0	3.832078e-05
8	0x3f2cc585	0.6748889
9	0x3f7f3227	0.996859
10	0xbc5dc2c9	-0.01353521
11	0xbe9519eb	-0.29121336
12	0x3fc915de	1.5709798
13	0x3d217b90	0.03942448
14	0x3d86f359	0.06589384
15	0x3c13893e	0.009004889
16	0x3f2c3efa	0.67283595
17	0x3f7a4927	0.9776787
18	0xbdd0634a	-0.10175188
19	0xbf29e57c	-0.6636579
20	0x3fca1779	1.5788413
21	0x3eb44fa7	0.3521702
22	0x3d83bf65	0.0643299
23	0x3c7d3d2a	0.015456477
24	0x3f2a9857	0.666387
25	0x3f71a39d	0.9439028
26	0xbe7265ac	-0.23671597
27	0xbf8352ac	-1.0259604
28	0x3fcd84b6	1.6056125
29	0x3f439e77	0.76413673
30	0x3e625589	0.22102942
31	0x3d0b5215	0.034013826
32	0x3f2736ee	0.6531819
33	0x3f6553a0	0.89580727
34	0xbeda642b	-0.42654547
35	0xbfaf9ef8	-1.3720388
36	0x3fd365d9	1.6515456
37	0x3fa13625	1.2594649
38	0x3e26c7da	0.16287175
39	0x3e3fda3d	0.18735595
40	0x3f21e1ef	0.6323537
41	0x3f556530	0.83357525
42	0xbf1dea20	-0.6168537
43	0xbfddc8f8	-1.7326956
44	0x3fdac35a	1.7090867
45	0x3fa5e786	1.296128
46	0x3c392665	0.011300658
47	0x3ec5e07a	0.38647825
48	0x3f1a7e3c	0.6034887
49	0x3f423fd2	0.7587863
50	0xbf58df87	-0.84716076
51	0xbfff0ab2	-1.9925139
52	0x3fdefe41	1.7421342
53	0x3ec085ef	0.37602183
54	0x3e9483aa	0.29006702
55	0x3ee0a431	0.43875268
56	0x3f0ec886	0.55774724
57	0x3f2e2a8a	0.6803366
58	0xbfcb7b5c	-1.5897021
59	0xbfd7f07f	-1.6870269
60	0x3fe5f3a9	1.7964984
61	0x40afec97	5.4976306
62	0x3eeabc10	0.45846605
63	0x3f0c7077	0.5485911
64	0x3ef99da3	0.4875308
65	0x3f1e8147	0.6191601
66	0xbff09adb	-1.8797258
67	0xbfb7228c	-1.4307418
68	0x400705e9	2.1097357
69	0x412150e4	10.082249
70	0x3d9f3df5	0.07775489
71	0x3ea97dcf	0.33103797
72	0x3ed04789	0.40679577
73	0x3f115c12	0.56781113
74	0xc0083d26	-2.1287322
75	0xbf8efc55	-1.1170756
76	0x4022dbe8	2.544672
77	0x41217e85	10.093389
78	0x3da331d7	0.079684906
79	0x3f314a37	0.6925387
80	0x3ea2c9cb	0.3179458
81	0x3f08c0b8	0.53419065
82	0xc0128b49	-2.2897513
83	0xbf0d10b2	-0.551036
84	0x403c3808	2.9409199
85	0x410ffc32	8.999071
86	0x3f366e50	0.71262074
87	0x3f259fc3	0.646969
88	0x3e6bb868	0.23019564
89	0x3f05f1cb	0.5232207
90	0xc004e16a	-2.0762582
91	0xbcd401e7	-0.025879813
92	0x405282cc	3.2892332
93	0x410688aa	8.408365
94	0x3e1b0077	0.15136896
95	0x3e7a1949	0.24423708
96	0x3e1c5c81	0.15269662
97	0x3f07a339	0.52983433
98	0xbfe6ab15	-1.802096
99	0x3eaecb6d	0.34139577
100	0x406981db	3.6485507
101	0x411477bd	9.279233
102	0x3ed18571	0.4092212
103	0x3f67f7f1	0.90612704
104	0x3db504c6	0.08838801
105	0x3f0c6739	0.54845005
106	0xbfb45a80	-1.4090118
107	0x3f135875	0.5755685
108	0x407c8581	3.9456484
109	0x40f28420	7.5786285
110	0x3e822328	0.25417447
111	0x3ee395f5	0.44450346
112	0x3d273acf	0.04082757
113	0x3f12e8c2	0.5738641
114	0xbf76755a	-0.96272814
115	0x3f2a442e	0.66510284
116	0x4086bc1a	4.2104616
117	0x40b1a070	5.5508347
118	0x3dd85307	0.10562711
119	0x3e0d7ca9	0.13817085
120	0x3c2debee	0.010615332
121	0x3f198a1f	0.5997638
122	0xbf09b52e	-0.53792083
123	0x3f0fadf5	0.5612481
124	0x408c2d00	4.380493
125	0x3fe79e79	1.8095237
126	0x3f42092e	0.7579526
127	0x3f08680f	0.5328378
128	0xbb002d62	-0.00195583
129	0x3f1d9410	0.6155405
130	0xbde3ba75	-0.11119548
131	0x3e6e0785	0.23245056
132	0x408ddf9c	4.433546
133	0x3f05fcf7	0.5233912
134	0x3ebcdf6d	0.3688921
135	0x3f165452	0.5872241
136	0x3a0a71e8	0.00052812556
137	0x3f1e9470	0.6194525
138	0x3e6fa347	0.23402129
139	0xbd5f4878	-0.05451247
140	0x408d5d19	4.4176145
141	0xc02fc6ca	-2.7465081
142	0x3f567a7b	0.8378064
143	0x3f893eed	1.0722328
144	0x3c8f427c	0.017487757
145	0x3f1c13f8	0.6096797
146	0x3f23b0db	0.63941735
147	0xbef61a73	-0.48067054
148	0x40889dce	4.2692633
149	0xc08ff26d	-4.498343
150	0x3f1af0d6	0.60523736
151	0x3f891b44	1.0711446
152	0x3d53e0f1	0.051728193
153	0x3f154b2d	0.58317834
154	0x3f8b80de	1.0898702
155	0xbf52d8ae	-0.82361877
156	0x4081392c	4.038229
157	0xc09cebe4	-4.9037952
158	0x3f11aa13	0.5690014
159	0x3f85ef9a	1.0463746
160	0x3dd7354e	0.10508214
161	0x3f0c47df	0.54797167
162	0x3fc9cdc4	1.576592
163	0xbf5e9eba	-0.8696095
164	0x4074b9f6	3.8238502
165	0xc0da2ac8	-6.8177223
166	0x3f461ed0	0.77390766
167	0x3f4fc5e6	0.81161344
168	0x3e37f8f8	0.17966068
169	0x3f051529	0.5198541
170	0x4005aa8b	2.088534
171	0xbecfcae1	-0.40584472
172	0x4067e73e	3.623489
173	0xc0911296	-4.533519
174	0x3e5e11dc	0.216865
175	0x3fc26f98	1.5190306
176	0x3e8a9393	0.27065715
177	0x3f048ec6	0.51780355
178	0x401b1029	2.4228613
179	0x3eaae840	0.33380318
180	0x4050ba7d	3.2613823
181	0xc12fec4a	-10.995188
182	0x3e458a12	0.19290951
183	0x3eb511cc	0.3536514
184	0x3ebc51dd	0.36781207
185	0x3f0b2175	0.54347926
186	0x401ecacc	2.4811277
187	0x3f70d5a6	0.94076
188	0x4036f7ce	2.8588748
189	0xc0f09d38	-7.5191917
190	0x3fca0ef2	1.5785811
191	0x3f801a60	1.0008049
192	0x3ef064b4	0.4695183
193	0x3f189998	0.59609365
194	0x401fa78b	2.494601
195	0x3fd977b0	1.6989651
196	0x4023c478	2.5588665
197	0xc0e4c060	-7.1484833
198	0x3fafc26b	1.3731207
199	0x3f97060d	1.1798722
200	0x3f2ccccd	0.675
201	0x3f8028f6	1.00125
202	0x00000000	0.0
203	0x00000000	0.0
204	0x3fc90fdb	1.5707964
205	0x00000000	0.0
206	0x3e8a02cf	0.26955268
207	0x3e75c6c9	0.24001612
208	0x3f2ccccd	0.675
209	0x3f8028f6	1.00125
210	0x00000000	0.0
211	0x00000000	0.0
212	0x3fc90fdb	1.5707964
213	0x00000000	0.0
214	0x3eeb3df4	0.45945704
215	0x3e9da3da	0.3078907
216	0x3f2cccb5	0.6749986
217	0x3f801d6a	1.0008976
218	0xba25ef6b	-0.00063299265
219	0xbd90724f	-0.07053053
220	0x3fc91ec1	1.571251
221	0x3db93b86	0.09044556
222	0x3e43cf76	0.19122109
223	0x3e049d4f	0.12950633
224	0x3f2ccb46	0.6749767
225	0x3f7ffa32	0.9999114
226	0xbb957e63	-0.0045621856
227	0xbe01df63	-0.12682872
228	0x3fc97af7	1.5740651
229	0x3ef179ca	0.4716323
230	0x3e3a863b	0.18215267
231	0x3db26db2	0.08712329
232	0x3f2cc584	0.67488885
233	0x3f7f8c6c	0.9982364
234	0xbc6492fb	-0.0139510585
235	0xbe552e5e	-0.20818469
236	0x3fca2e49	1.5795375
237	0x3f1f8e80	0.6232681
238	0x3ed673c4	0.41885197
239	0x00000000	0.0
240	0x3f2cb7c4	0.67467904
241	0x3f7ee86e	0.9957341
242	0xbced3719	-0.028956937
243	0xbe95ab44	-0.29232228
244	0x3fcb1fe5	1.5869108
245	0x3f5a0c0c	0.8517463
246	0x3c935020	0.017982543
247	0x00000000	0.0
248	0x3f2c9e86	0.6742939
249	0x3f7e1079	0.99243885
250	0xbd488d49	-0.048962865
251	0xbebbd4b6	-0.36685723
252	0x3fccd822	1.6003458
253	0x3feac607	1.8341683
254	0x3e49e868	0.19717562
255	0x00000000	0.0

Y f4 [6325]
0	0x00000000	0.0
1	0xb9555000	-0.00020343065
2	0xba9a0c00	-0.0011752844
3	0xbb2a0900	-0.0025945306
4	0xbb934f00	-0.0044955015
5	0xbbd1fb80	-0.006408155
6	0xbc1271c0	-0.008938253
7	0xbc87f6c0	-0.016597152
8	0xbc9d20e0	-0.019180715
9	0xbcb06c30	-0.021535963
10	0xbcba63b0	-0.022752613
11	0xbca70798	-0.020389363
12	0xbc8ff530	-0.01757297
13	0xbc5dabc8	-0.013529725
14	0xbc152264	-0.009102438
15	0xbb9c2b68	-0.0047659166
16	0xba2e7234	-0.0006654591
17	0x3b338428	0.0027392004
18	0x3be1459c	0.006874753
19	0x3c3bb0a4	0.011455689
20	0x3c8817f4	0.016612984
21	0x3caf6240	0.021409154
22	0x3cc73c00	0.024320602
23	0x3cce20a0	0.025162041
24	0x3cc739d0	0.02431956
25	0x00000000	0.0
26	0xb5c00000	-1.4305115e-06
27	0xb7b78000	-2.1874905e-05
28	0xb8b84000	-8.785725e-05
29	0xb95c0000	-0.00020980835
30	0xb9c9f000	-0.0003851652
31	0xba203800	-0.000611186
32	0xba678000	-0.0008831024
33	0xba9ce400	-0.0011969805
34	0xbac23400	-0.0014816523
35	0xbaea2400	-0.0017863512
36	0xbb104f00	-0.0022019744
37	0xbb2c2300	-0.0026265979
38	0xbb468600	-0.0030292273
39	0xbb5f4300	-0.0034067035
40	0xbb74ed00	-0.0037372708
41	0xbb82e880	-0.0039950013
42	0xbb8bf600	-0.004271269
43	0xbb977400	-0.0046219826
44	0xbba45e80	-0.005016148
45	0xbbb22f80	-0.0054377913
46	0xbbc17980	-0.0059043765
47	0xbbcff400	-0.0063462257
48	0xbbda1e00	-0.0066564083
49	0xbbe54300	-0.0069965124
50	0xbbfe6800	-0.0077638626
51	0xbc0cbb80	-0.008589625
52	0xbc18e540	-0.009332001
53	0xbc247100	-0.010036707
54	0xbc2fc780	-0.010728717
55	0xbc3b8c80	-0.011447072
56	0xbc48d780	-0.01225841
57	0xbc581680	-0.013188958
58	0xbc690f40	-0.014224827
59	0xbc79f800	-0.015256882
60	0xbc83d950	-0.016094834
61	0xbc875070	-0.016517848
62	0xbc879540	-0.01655066
63	0xbc870660	-0.016482532
64	0xbc869090	-0.016426355
65	0xbc8603d0	-0.01635924
66	0xbc8535d0	-0.016261011
67	0xbc83b980	-0.016079664
68	0xbc82b530	-0.015955538
69	0xbc822fc0	-0.01589191
70	0xbc8249f0	-0.015904397
71	0xbc820a10	-0.015873939
72	0xbc813a40	-0.015774846
73	0xbc7f98e0	-0.015600413
74	0xbc7b4d60	-0.015338272
75	0xbc75c290	-0.015000001
76	0xbc69f530	-0.014279649
77	0xbc582830	-0.013193175
78	0xbc446370	-0.011986598
79	0xbc2e1610	-0.010625377
80	0xbc14afc0	-0.009075105
81	0xbbf22a20	-0.0073902756
82	0xbbb85780	-0.005625665
83	0xbb7bbf80	-0.0038413703
84	0xbb098240	-0.0020982176
85	0xb9e63e00	-0.00043915212
86	0x3a848700	0.0010111034
87	0x3b148880	0.0022664368
88	0x3b646940	0.0034852773
89	0x3b94e5c0	0.00454399
90	0x3bafa220	0.005359903
91	0x3bc4a880	0.006001532
92	0x3bd93100	0.0066281557
93	0x3bf01720	0.0073269755
94	0x3c065990	0.008200064
95	0x3c14bed0	0.009078696
96	0x3c21a8c0	0.009866893
97	0x3c2c80d0	0.010528758
98	0x3c337a70	0.010954484
99	0x3c38ebd0	0.011286691
100	0x3c3e50c0	0.011615932
101	0x3c42d3e0	0.011891335
102	0x3c481de0	0.012214154
103	0x3c4d2920	0.012522012
104	0x3c50d3c0	0.012745798
105	0x3c551940	0.013006508
106	0x3c5abd80	0.013350844
107	0x3c610a20	0.013735324
108	0x3c6769e0	0.014124364
109	0x3c582de0	0.013194531
110	0x3c3beea0	0.011470467
111	0x3c21fae0	0.009886473
112	0x3c11e220	0.00890401
113	0x3c0a1ce0	0.008429736
114	0x3c049780	0.008092761
115	0x3c005140	0.0078318715
116	0x3bfbf600	0.0076892376
117	0x3bfa71c0	0.0076429546
118	0x3bf8d6c0	0.0075939596
119	0x3bf794c0	0.007555574
120	0x3bf68100	0.007522702
121	0x3bf4c080	0.007469237
122	0x3bf24780	0.0073937774
123	0x3bee8500	0.0072790384
124	0x3be7b880	0.0070715547
125	0x3bdb8580	0.006699264
126	0x3bc69d00	0.0060611963
127	0x3baad080	0.0052128434
128	0x3b8f8480	0.004379809
129	0x3b728c00	0.0037009716
130	0x3b410f00	0.0029458404
131	0x3b06d100	0.002057135
132	0x3aa1ec00	0.0012353659
133	0x3a1a4400	0.00058847666
134	0x381b8000	3.707409e-05
135	0xb9d43000	-0.00040471554
136	0xba4d5000	-0.00078320503
137	0xba8d7800	-0.0010793209
138	0xba9f5800	-0.0012156963
139	0xbaaa3e00	-0.0012988448
140	0xbab35e00	-0.001368463
141	0xbab90e00	-0.0014118552
142	0xbac36600	-0.0014907718
143	0xbacbe600	-0.0015556216
144	0xbad19600	-0.0015990138
145	0xbacc0800	-0.0015566349
146	0xbab5f800	-0.0013883114
147	0xba8b8200	-0.0010643601
148	0xba138800	-0.00056278706
149	0xb7a38000	-1.9490719e-05
150	0x3a2d4000	0.0006608963
151	0x3ac3fc00	0.0014952421
152	0x3af50400	0.0018693209
153	0x3afdf600	0.0019375682
154	0x3b050500	0.002029717
155	0x3b195600	0.0023397207
156	0x3b3c3300	0.0028716922
157	0x3b600200	0.003418088
158	0x3b82fb80	0.0039972663
159	0x3b907d80	0.004409492
160	0x3b8dcb80	0.0043272376
161	0x3b793a00	0.0038028955
162	0x3b4e3600	0.0031465292
163	0x3b21f000	0.0024709702
164	0x3aeb4600	0.0017949939
165	0x3a92c400	0.0011197329
166	0x3a11b000	0.0005557537
167	0x38e8c000	0.00011098385
168	0xba2bb800	-0.00065505505
169	0xbad78800	-0.0016443729
170	0xbb3d4b00	-0.0028883815
171	0xbb619900	-0.003442347
172	0xbb7a9800	-0.0038237572
173	0xbb87e180	-0.0041467547
174	0xbb867080	-0.0041027665
175	0xbb7c9700	-0.0038542151
176	0xbb6a3d00	-0.0035741925
177	0xbb595000	-0.0033159256
178	0xbb4e8600	-0.0031512976
179	0xbb47c100	-0.0030480027
180	0xbb3ea900	-0.002909243
181	0xbb323b00	-0.0027195811
182	0xbb26e600	-0.002546668
183	0xbb1cc600	-0.0023921728
184	0xbb126a00	-0.0022341013
185	0xbb0c7f00	-0.0021438003
186	0xbb0d0f00	-0.0021523833
187	0xbb13ea00	-0.0022569895
188	0xbb21e600	-0.002470374
189	0xbb353b00	-0.0027653575
190	0xbb4d0b80	-0.0031287372
191	0xbb6a9500	-0.0035794377
192	0xbb85ce80	-0.0040834546
193	0xbb942700	-0.0045212507
194	0xbba24a40	-0.004952699
195	0xbbad0a00	-0.005280733
196	0xbbae6740	-0.005322367
197	0xbba6c880	-0.0050898194
198	0xbb9c76c0	-0.0047748983
199	0xbb9477c0	-0.004530877
200	0xbb8cd880	-0.0042982697
201	0xbb7fee80	-0.003905207
202	0xbb5b7b80	-0.003349036
203	0xbb3ae380	-0.0028516948
204	0xbb17a700	-0.0023140311
205	0xbad80300	-0.0016480386
206	0xba8be200	-0.0010672212
207	0xba1ede00	-0.0006060302
208	0xb9456800	-0.00018826127
209	0x39580000	0.00020599365
210	0x3a6bce00	0.0008995235
211	0x3aa53f00	0.0012607276
212	0x3ac63200	0.0015121102
213	0x3ac2fc00	0.0014876127
214	0x3aa41500	0.0012518466
215	0x3a838b00	0.0010035932
216	0x3a649000	0.00087189674
217	0x3a46bc00	0.0007581115
218	0x3a284c00	0.0006420016
219	0x39ff6800	0.00048714876
220	0x39982c00	0.00029024482
221	0x38b97000	8.842349e-05
222	0xb8092000	-3.2693148e-05
223	0xb9320000	-0.00016975403
224	0xb9f90c00	-0.00047501922
225	0xba5e3000	-0.00084757805
226	0xbaa59600	-0.0012633204
227	0xbae9ad00	-0.0017828047
228	0xbb15e580	-0.0022872388
229	0xbb297c80	-0.0025861561
230	0xbb32a680	-0.0027259886
231	0xbb37f400	-0.002806902
232	0xbb2f1c80	-0.0026719868
233	0xbb170d80	-0.0023048818
234	0xbb0a2280	-0.0021077693
235	0xbb165480	-0.002293855
236	0xbb181200	-0.0023204088
237	0xbb0eba00	-0.0021778345
238	0xbaff6300	-0.001948446
239	0xbae37600	-0.0017353892
240	0xbaba9d00	-0.0014237463
241	0xba898000	-0.0010490417
242	0xba465c00	-0.00075668097
243	0xba1a3600	-0.00058826804
244	0xba000600	-0.00048837066
245	0xb9b39c00	-0.0003425777
246	0xb8f5c000	-0.00011718273
247	0x385e2000	5.2958727e-05
248	0xb7190000	-9.119511e-06
249	0xb9233800	-0.00015565753
250	0xb9885400	-0.00026002526
251	0xb9922c00	-0.00027880073
252	0xb93f6000	-0.00018250942
253	0x3a822400	0.0009928942
254	0x3b124f00	0.002232492
255	0x3b4c8a80	0.0031210482
