Simplified/data/svgp_torch_models/svgp_dim3_final.pth (torch, 23292 bytes, 8 tensors)

variational_strategy.inducing_points f4 [25, 8]
000000 03 a3 09 bf 1d 7f 88 bf 87 dd 97 bf 80 43 c8 3d
       -0.5376436 -1.0663792 -1.186448 0.097784996
000010 66 24 ab 3f 46 76 cc 3f 17 9b 6d bf 6e 94 54 3f
       1.3370483 1.5973594 -0.92814773 0.83038986
000020 7f 32 bf 3f 32 eb 5a 3f ef d5 a3 3f be 58 20 3f
       1.4937285 0.8551513 1.2799662 0.6263541
000030 5d ee 69 bf fe a1 d6 bf 45 8c b2 be e0 ef 9a bf
       -0.9137934 -1.6768186 -0.34872642 -1.2104454
000040 fc d2 b8 3f aa 8d 8b be 2e 78 c1 3f 73 ae 73 3f
       1.4439387 -0.2725652 1.5114801 0.95188063
000050 9f 97 db be 6d f4 13 c0 1e d2 dc bf e6 41 ae bf
       -0.42889115 -2.3117936 -1.7251623 -1.3613861
000060 b7 83 ca 3f 33 b2 f3 3f 65 b9 06 bf 34 a5 45 3f
       1.5821446 1.9038757 -0.5262664 0.77205205
000070 37 1b e3 bf 63 c4 f9 bf 93 8e 08 bd 15 bb 9e bf
       -1.774268 -1.9513057 -0.033339094 -1.2400843
000080 18 52 8b 3d 08 ca 61 bf 82 18 98 bf ee 5c 97 bd
       0.068027675 -0.881989 -1.1882479 -0.07390772
000090 1d c3 0c bf f6 56 4d 3f f7 f1 9e bd 87 f3 8f be
       -0.5498522 0.80210817 -0.07760995 -0.28115484
0000a0 98 5a bc 3f b6 fd c9 3f 38 36 67 3f 57 d4 98 3f
       1.4715147 1.5780551 0.90317106 1.1939801
0000b0 c3 70 d6 bf 83 d0 56 be 54 6b bd bf 9a 1e d9 bf
       -1.6753162 -0.20977978 -1.4798379 -1.6962464
0000c0 ad 58 c8 be 9c 68 b3 bf 99 c3 46 3f 5c e3 9c 3f
       -0.39130154 -1.4016299 0.7764221 1.2256885
0000d0 f7 1e 4f 3f 54 68 bd bf 75 2e cd be 92 db 12 bf
       0.80906624 -1.4797463 -0.40074506 -0.5736629
0000e0 f0 48 b4 3f e9 cf 2d 3f 8a 6b 4d bf d7 f0 05 bf
       1.4084759 0.6789537 -0.80242217 -0.5232062
0000f0 9b 5c c7 bf 7d 77 5f bf 19 09 67 bf d5 b3 05 3f
       -1.5575136 -0.872917 -0.90248257 0.52227527
000100 e9 02 6a bf e0 00 78 bf d1 b8 c0 be 7b 83 aa 3f
       -0.9141069 -0.96876335 -0.37641004 1.3321375
000110 2f f7 e4 be 39 b1 c8 3d 1c 87 35 bf a9 29 81 be
       -0.44719836 0.097994275 -0.70909286 -0.25227097
000120 b5 66 dd bd 7c 22 bb bf 98 d5 95 3f 08 76 5d 3f
       -0.108106054 -1.4619899 1.1705809 0.86508226
000130 a6 72 23 bf 45 41 04 be 6c aa de bc 82 65 c5 3e
       -0.63846815 -0.12915523 -0.027180873 0.38554007
000140 60 8d 40 bd 26 a0 bb be f0 86 31 bf aa ff 34 3f
       -0.047009826 -0.3664562 -0.69346523 0.7070261
000150 36 20 a5 bd 8a cc 68 3f af 99 3b bf cf a2 0d 40
       -0.080627844 0.909371 -0.7328138 2.213062
000160 98 70 ad 3f 2f be 33 3f eb cf 60 bf 6a d5 fb be
       1.3549986 0.7021207 -0.8781726 -0.4918626
000170 88 f0 d3 bf c2 75 6a bf ee f8 a0 bf 6b a5 ea 3e
       -1.6557779 -0.91585934 -1.2575967 0.4582933
000180 69 de 0e bf d6 d9 62 bf 52 84 12 bf bb 67 44 3f
       -0.5580812 -0.8861364 -0.57233155 0.7672078
000190 0a 47 6e 3d 54 1e 45 3e bb 54 d8 3f 57 1b 6b 3f
       0.058173217 0.1924985 1.6900858 0.9183859
0001a0 38 6f 9f bd 80 78 a3 bf c7 15 a2 3f 86 d5 8c 3f
       -0.07784885 -1.2771149 1.2662896 1.1002662
0001b0 85 12 f8 be 10 b2 ce be ca 01 09 3f e0 51 26 3f
       -0.4845163 -0.40370226 0.53518355 0.6496868
0001c0 41 58 8f 3f 3f 28 5c 3f 9f 4c 34 be 37 78 e1 bf
       1.1198808 0.8599891 -0.17607354 -1.7614812
0001d0 c2 04 d8 bf 74 75 47 3e 2a 12 de 3d 4e 89 05 be
       -1.6876452 0.19478399 0.10843308 -0.13040659
0001e0 f8 8d bb 3e 3d bf 6f bf 52 1a c4 3f 0b a4 bd 3f
       0.3663175 -0.9365118 1.5320532 1.4815687
0001f0 c2 74 60 be ec f9 8d bf b1 8f e1 3f 60 a3 e2 3f
       -0.2191954 -1.1091895 1.7621976 1.7706108
000200 b6 8c 1a 3f 6a ac 43 3d 4c c2 27 bf 4b 0f e5 bf
       0.6037096 0.04777185 -0.6553085 -1.7895292
000210 00 02 b0 bf e5 04 32 3f b6 78 f3 be 7f 5d a9 3f
       -1.375061 0.6953872 -0.47553033 1.3231658
000220 03 a8 8f bf 4e a4 e2 3d 74 8d 29 3f fa 3c 8c 3f
       -1.1223148 0.11066495 0.66231465 1.0956109
000230 55 a3 e2 3f 66 56 d0 3d 9e dd e1 3f df cc d6 be
       1.7706095 0.10172729 1.7645757 -0.4195318
000240 e0 0f 4e bf eb 66 ee 3d 20 61 3c 3f 24 5f dc 3e
       -0.80492973 0.11640724 0.735857 0.43041337
000250 ec 06 2e 3e 9a eb bb bf 76 9f 02 3f 46 be 96 3f
       0.16994828 -1.4681275 0.5102457 1.1776817
000260 23 e4 88 bf 83 0f d8 bd 08 42 53 3f 62 f8 5b 3e
       -1.0694622 -0.105498336 0.8252263 0.2148147
000270 32 93 8b 3f 34 2d 8d bd ae 98 20 3f 58 54 6a 3f
       1.0904295 -0.068933874 0.6273297 0.9153495
000280 7a 8f 0d bf df 0c 60 bf 98 41 23 bf cb 4e 4f 3f
       -0.5529705 -0.8751964 -0.63771963 0.80979604
000290 eb 0d 90 3c 28 29 25 3e ff 60 c1 3f 9d c4 87 3f
       0.017584762 0.16128981 1.5107726 1.0606877
0002a0 7d a4 5e 3f 0c bd 5b 3f 07 f7 ca 3d 78 e9 87 bf
       0.8696974 0.8583534 0.09910398 -1.0618124
0002b0 43 fc ad bf 83 4a a3 bd f3 85 fd bf 8c 23 af bf
       -1.3592609 -0.07973196 -1.9806503 -1.3682723
0002c0 d4 3f 97 bf 1c 07 f1 bd 04 ba 5f 3f bd a3 75 3e
       -1.1816354 -0.11768934 0.8739321 0.23988242
0002d0 5e b2 8f 3f 70 3d 81 bc 21 97 8d be 01 69 59 3f
       1.1226308 -0.015776366 -0.27654365 0.8492585
0002e0 2a 59 63 3f 27 dd 3d 3f 3c 1a e4 3d 70 dc 7a bf
       0.8880793 0.74165577 0.11137816 -0.9799261
0002f0 fe c8 7f bf 06 65 73 be 8c 77 cc 3e 8b 4d 85 bf
       -0.99916065 -0.23769006 0.39934957 -1.0414289
000300 98 30 1a 3f b0 a8 ff be b1 1d 91 3e df e6 ef be
       0.602304 -0.49933386 0.28342965 -0.46855828
000310 51 39 30 bd 04 4f 49 3f 25 69 22 3f a1 e8 19 3f
       -0.04302341 0.78636193 0.6344169 0.6012059

variational_strategy._variational_distribution.variational_mean f4 [25]
000000 70 07 aa bf 9a 3f 38 c0 4a 41 55 40 18 68 1d c0
       -1.328352 -2.878882 3.33211 -2.4594784
000010 a8 e8 c1 be a9 e1 29 c0 38 ad 68 c0 ec 80 3a c0
       -0.37872815 -2.6543982 -3.6355724 -2.9141188
000020 33 8f 4d c0 fd 6b 2c c0 a1 27 d4 bf f0 ea ab 40
       -3.2118652 -2.694091 -1.6574594 5.372429
000030 b3 b0 37 c0 ad fa 9e 40 e6 fd ce c0 6d 31 7b c0
       -2.8701599 4.9681 -6.4684935 -3.9248917
000040 11 46 2b 40 14 61 c3 c0 31 6a 9a c0 6e 99 cc c0
       2.6761515 -6.1056004 -4.825463 -6.393729
000050 c1 93 bf 40 56 2a 75 c0 e3 9c f4 40 ce 77 e6 c0
       5.9867864 -3.830709 7.644151 -7.2021246
000060 34 56 14 c1
       -9.271046

variational_strategy._variational_distribution.chol_variational_covar f4 [25, 25]
000000 2c 50 07 3d 00 00 00 00 00 00 00 00 00 00 00 00
       0.033035442 0.0 0.0 0.0
000010 00 00 00 00 00 00 00 00 00 00 00 00 00 00 00 00
       0.0 0.0 0.0 0.0
000020 00 00 00 00 00 00 00 00 00 00 00 00 00 00 00 00
       0.0 0.0 0.0 0.0
000030 00 00 00 00 00 00 00 00 00 00 00 00 00 00 00 00
       0.0 0.0 0.0 0.0
000040 00 00 00 00 00 00 00 00 00 00 00 00 00 00 00 00
       0.0 0.0 0.0 0.0
000050 00 00 00 00 00 00 00 00 00 00 00 00 00 00 00 00
       0.0 0.0 0.0 0.0
000060 00 00 00 00 77 cf 51 3b 7f 39 7d 3d 00 00 00 00
       0.0 0.0032014528 0.06182241 0.0
000070 00 00 00 00 00 00 00 00 00 00 00 00 00 00 00 00
       0.0 0.0 0.0 0.0
000080 00 00 00 00 00 00 00 00 00 00 00 00 00 00 00 00
       0.0 0.0 0.0 0.0
000090 00 00 00 00 00 00 00 00 00 00 00 00 00 00 00 00
       0.0 0.0 0.0 0.0
0000a0 00 00 00 00 00 00 00 00 00 00 00 00 00 00 00 00
       0.0 0.0 0.0 0.0
0000b0 00 00 00 00 00 00 00 00 00 00 00 00 00 00 00 00
       0.0 0.0 0.0 0.0
0000c0 00 00 00 00 00 00 00 00 4f 52 d6 b9 ea f1 d5 bd
       0.0 0.0 -0.00040878585 -0.10446532
0000d0 b7 ce a8 3d 00 00 00 00 00 00 00 00 00 00 00 00
       0.08242553 0.0 0.0 0.0
0000e0 00 00 00 00 00 00 00 00 00 00 00 00 00 00 00 00
       0.0 0.0 0.0 0.0
0000f0 00 00 00 00 00 00 00 00 00 00 00 00 00 00 00 00
       0.0 0.0 0.0 0.0
000100 00 00 00 00 00 00 00 00 00 00 00 00 00 00 00 00
       0.0 0.0 0.0 0.0
000110 00 00 00 00 00 00 00 00 00 00 00 00 00 00 00 00
       0.0 0.0 0.0 0.0
000120 00 00 00 00 00 00 00 00 00 00 00 00 d1 cd 9e 3b
       0.0 0.0 0.0 0.0048463126
000130 e7 6a 9b bc 8f 53 3e 3c 63 c9 00 3d 00 00 00 00
       -0.018971873 0.011616602 0.031442057 0.0
000140 00 00 00 00 00 00 00 00 00 00 00 00 00 00 00 00
       0.0 0.0 0.0 0.0
000150 00 00 00 00 00 00 00 00 00 00 00 00 00 00 00 00
       0.0 0.0 0.0 0.0
000160 00 00 00 00 00 00 00 00 00 00 00 00 00 00 00 00
       0.0 0.0 0.0 0.0
000170 00 00 00 00 00 00 00 00 00 00 00 00 00 00 00 00
       0.0 0.0 0.0 0.0
000180 00 00 00 00 00 00 00 00 00 00 00 00 00 00 00 00
       0.0 0.0 0.0 0.0
000190 93 ca 74 bd e6 b6 a2 3b af 25 8e bb 3a d1 48 bc
       -0.059763502 0.004965651 -0.0043379883 -0.012256915
0001a0 16 31 e4 3c 00 00 00 00 00 00 00 00 00 00 00 00
       0.027855437 0.0 0.0 0.0
0001b0 00 00 00 00 00 00 00 00 00 00 00 00 00 00 00 00
       0.0 0.0 0.0 0.0
0001c0 00 00 00 00 00 00 00 00 00 00 00 00 00 00 00 00
       0.0 0.0 0.0 0.0
0001d0 00 00 00 00 00 00 00 00 00 00 00 00 00 00 00 00
       0.0 0.0 0.0 0.0
0001e0 00 00 00 00 00 00 00 00 00 00 00 00 00 00 00 00
       0.0 0.0 0.0 0.0
0001f0 00 00 00 00 d9 32 e4 3c ba 8e ad bc 23 af bd 3c
       0.0 0.027856277 -0.021186221 0.0231548
000200 40 4a 40 bc 67 39 dc bb 13 fb 5f 3d 00 00 00 00
       -0.011736453 -0.00672071 0.054682802 0.0
000210 00 00 00 00 00 00 00 00 00 00 00 00 00 00 00 00
       0.0 0.0 0.0 0.0
000220 00 00 00 00 00 00 00 00 00 00 00 00 00 00 00 00
       0.0 0.0 0.0 0.0
000230 00 00 00 00 00 00 00 00 00 00 00 00 00 00 00 00
       0.0 0.0 0.0 0.0
000240 00 00 00 00 00 00 00 00 00 00 00 00 00 00 00 00
       0.0 0.0 0.0 0.0
000250 00 00 00 00 00 00 00 00 f8 33 18 bc de 28 5b bd
       0.0 0.0 -0.009289734 -0.05350577
000260 7a e5 e9 bb fc 44 ff 3b c2 e3 b0 3b 64 6c 94 bc
       -0.0071379514 0.007790206 0.0053982446 -0.01811809
000270 8f 03 c8 3c 00 00 00 00 00 00 00 00 00 00 00 00
       0.02441576 0.0 0.0 0.0
000280 00 00 00 00 00 00 00 00 00 00 00 00 00 00 00 00
       0.0 0.0 0.0 0.0
000290 00 00 00 00 00 00 00 00 00 00 00 00 00 00 00 00
       0.0 0.0 0.0 0.0
0002a0 00 00 00 00 00 00 00 00 00 00 00 00 00 00 00 00
       0.0 0.0 0.0 0.0
0002b0 00 00 00 00 00 00 00 00 00 00 00 00 16 5b f3 3c
       0.0 0.0 0.0 0.02970652
0002c0 b5 b1 9a 3c 10 fd 1d 3b a4 ac 0e bb fa 1d d9 bc
       0.018883565 0.0024107136 -0.0021770382 -0.026503552
0002d0 d8 6f 87 3b eb 4f 93 bb 11 81 f1 3c 00 00 00 00
       0.004133206 -0.004495611 0.029480489 0.0
0002e0 00 00 00 00 00 00 00 00 00 00 00 00 00 00 00 00
       0.0 0.0 0.0 0.0
0002f0 00 00 00 00 00 00 00 00 00 00 00 00 00 00 00 00
       0.0 0.0 0.0 0.0
000300 00 00 00 00 00 00 00 00 00 00 00 00 00 00 00 00
       0.0 0.0 0.0 0.0
000310 00 00 00 00 00 00 00 00 00 00 00 00 00 00 00 00
       0.0 0.0 0.0 0.0
000320 77 ff d7 bc c1 a1 be 3c df 87 31 bc e0 a7 e7 bc
       -0.026366932 0.02327049 -0.010835617 -0.028278291
000330 ba 0b 8b b9 fa 98 87 bb a0 ea 76 bb 58 6d 2b 3b
       -0.00026520883 -0.0041381093 -0.0037676468 0.0026157703
000340 d0 31 9f 3c 00 00 00 00 00 00 00 00 00 00 00 00
       0.019432932 0.0 0.0 0.0
000350 00 00 00 00 00 00 00 00 00 00 00 00 00 00 00 00
       0.0 0.0 0.0 0.0
000360 00 00 00 00 00 00 00 00 00 00 00 00 00 00 00 00
       0.0 0.0 0.0 0.0
000370 00 00 00 00 00 00 00 00 00 00 00 00 00 00 00 00
       0.0 0.0 0.0 0.0
000380 00 00 00 00 b2 c3 08 3b e7 e8 90 bc 75 91 dc bc
       0.0 0.0020868597 -0.017689181 -0.026924828
000390 ac e1 c6 bb 90 1d 4e 3b 88 7b 03 3c a6 26 9f 3c
       -0.0060693827 0.0031450726 0.008025058 0.019427609
0003a0 4d fc 46 3a f0 dd 1a 3b d7 fd 0c 3d 00 00 00 00
       0.00075906963 0.002363082 0.034421768 0.0
0003b0 00 00 00 00 00 00 00 00 00 00 00 00 00 00 00 00
       0.0 0.0 0.0 0.0
0003c0 00 00 00 00 00 00 00 00 00 00 00 00 00 00 00 00
       0.0 0.0 0.0 0.0
0003d0 00 00 00 00 00 00 00 00 00 00 00 00 00 00 00 00
       0.0 0.0 0.0 0.0
0003e0 00 00 00 00 00 00 00 00 6d 8d 15 bd b5 dc dc bc
       0.0 0.0 -0.036511827 -0.02696071
0003f0 4b ba bc 3b cc 5c 14 3c 39 07 ad 3b 14 44 05 bc
       0.0057595125 0.009055328 0.005280402 -0.008133907

covar_module.base_kernel.raw_lengthscale f4 [1, 8]
000000 aa 5c a1 40 11 94 6b 40 d4 9f 39 bd 68 5c 8a 3f
       5.0425615 3.6809123 -0.04531844 1.080945
000010 a9 98 ca 40 33 b6 1e 40 76 d4 e4 40 d8 8a cb 40
       6.3311353 2.4798706 7.150935 6.3606987

X_mean f4 [8]
000000 84 a0 aa 3e 77 64 2b 3f ee f2 23 be 62 e6 bb be
       0.3332559 0.6695017 -0.16010639 -0.36699206
000010 99 5d 3c 40 a9 ed 68 3f ca bc d3 3e 5e 63 11 3f
       2.9432127 0.9098764 0.41354972 0.5679225

X_std f4 [8]
000000 48 24 84 3e cc 64 2b 3e f6 1b c0 3f e1 84 6c 3f
       0.2580893 0.1673767 1.5008533 0.9239026
000010 83 24 8b 3f 39 52 c3 40 11 62 d2 3e f2 dd d6 3e
       1.0870517 6.103787 0.41090444 0.41966206

X f4 [325, 8]
000000 cd cc 2c 3f f6 28 80 3f 00 00 00 00 00 00 00 00
       0.675 1.00125 0.0 0.0
000010 db 0f c9 3f 00 00 00 00 ff 7d 75 38 a0 ba 20 38
       1.5707964 0.0 5.8529895e-05 3.832078e-05
000020 85 c5 2c 3f 27 32 7f 3f c9 c2 5d bc eb 19 95 be
       0.6748889 0.996859 -0.01353521 -0.29121336
000030 de 15 c9 3f 90 7b 21 3d 59 f3 86 3d 3e 89 13 3c
       1.5709798 0.03942448 0.06589384 0.009004889
000040 fa 3e 2c 3f 27 49 7a 3f 4a 63 d0 bd 7c e5 29 bf
       0.67283595 0.9776787 -0.10175188 -0.6636579
000050 79 17 ca 3f a7 4f b4 3e 65 bf 83 3d 2a 3d 7d 3c
       1.5788413 0.3521702 0.0643299 0.015456477
000060 57 98 2a 3f 9d a3 71 3f ac 65 72 be ac 52 83 bf
       0.666387 0.9439028 -0.23671597 -1.0259604
000070 b6 84 cd 3f 77 9e 43 3f 89 55 62 3e 15 52 0b 3d
       1.6056125 0.76413673 0.22102942 0.034013826
000080 ee 36 27 3f a0 53 65 3f 2b 64 da be f8 9e af bf
       0.6531819 0.89580727 -0.42654547 -1.3720388
000090 d9 65 d3 3f 25 36 a1 3f da c7 26 3e 3d da 3f 3e
       1.6515456 1.2594649 0.16287175 0.18735595
0000a0 ef e1 21 3f 30 65 55 3f 20 ea 1d bf f8 c8 dd bf
       0.6323537 0.83357525 -0.6168537 -1.7326956
0000b0 5a c3 da 3f 86 e7 a5 3f 65 26 39 3c 7a e0 c5 3e
       1.7090867 1.296128 0.011300658 0.38647825
0000c0 3c 7e 1a 3f d2 3f 42 3f 87 df 58 bf b2 0a ff bf
       0.6034887 0.7587863 -0.84716076 -1.9925139
0000d0 41 fe de 3f ef 85 c0 3e aa 83 94 3e 31 a4 e0 3e
       1.7421342 0.37602183 0.29006702 0.43875268
0000e0 86 c8 0e 3f 8a 2a 2e 3f 5c 7b cb bf 7f f0 d7 bf
       0.55774724 0.6803366 -1.5897021 -1.6870269
0000f0 a9 f3 e5 3f 97 ec af 40 10 bc ea 3e 77 70 0c 3f
       1.7964984 5.4976306 0.45846605 0.5485911
000100 a3 9d f9 3e 47 81 1e 3f db 9a f0 bf 8c 22 b7 bf
       0.4875308 0.6191601 -1.8797258 -1.4307418
000110 e9 05 07 40 e4 50 21 41 f5 3d 9f 3d cf 7d a9 3e
       2.1097357 10.082249 0.07775489 0.33103797
000120 89 47 d0 3e 12 5c 11 3f 26 3d 08 c0 55 fc 8e bf
       0.40679577 0.56781113 -2.1287322 -1.1170756
000130 e8 db 22 40 85 7e 21 41 d7 31 a3 3d 37 4a 31 3f
       2.544672 10.093389 0.079684906 0.6925387
000140 cb c9 a2 3e b8 c0 08 3f 49 8b 12 c0 b2 10 0d bf
       0.3179458 0.53419065 -2.2897513 -0.551036
000150 08 38 3c 40 32 fc 0f 41 50 6e 36 3f c3 9f 25 3f
       2.9409199 8.999071 0.71262074 0.646969
000160 68 b8 6b 3e cb f1 05 3f 6a e1 04 c0 e7 01 d4 bc
       0.23019564 0.5232207 -2.0762582 -0.025879813
000170 cc 82 52 40 aa 88 06 41 77 00 1b 3e 49 19 7a 3e
       3.2892332 8.408365 0.15136896 0.24423708
000180 81 5c 1c 3e 39 a3 07 3f 15 ab e6 bf 6d cb ae 3e
       0.15269662 0.52983433 -1.802096 0.34139577
000190 db 81 69 40 bd 77 14 41 71 85 d1 3e f1 f7 67 3f
       3.6485507 9.279233 0.4092212 0.90612704
0001a0 c6 04 b5 3d 39 67 0c 3f 80 5a b4 bf 75 58 13 3f
       0.08838801 0.54845005 -1.4090118 0.5755685
0001b0 81 85 7c 40 20 84 f2 40 28 23 82 3e f5 95 e3 3e
       3.9456484 7.5786285 0.25417447 0.44450346
0001c0 cf 3a 27 3d c2 e8 12 3f 5a 75 76 bf 2e 44 2a 3f
       0.04082757 0.5738641 -0.96272814 0.66510284
0001d0 1a bc 86 40 70 a0 b1 40 07 53 d8 3d a9 7c 0d 3e
       4.2104616 5.5508347 0.10562711 0.13817085
0001e0 ee eb 2d 3c 1f 8a 19 3f 2e b5 09 bf f5 ad 0f 3f
       0.010615332 0.5997638 -0.53792083 0.5612481
0001f0 00 2d 8c 40 79 9e e7 3f 2e 09 42 3f 0f 68 08 3f
       4.380493 1.8095237 0.7579526 0.5328378
000200 62 2d 00 bb 10 94 1d 3f 75 ba e3 bd 85 07 6e 3e
       -0.00195583 0.6155405 -0.11119548 0.23245056
000210 9c df 8d 40 f7 fc 05 3f 6d df bc 3e 52 54 16 3f
       4.433546 0.5233912 0.3688921 0.5872241
000220 e8 71 0a 3a 70 94 1e 3f 47 a3 6f 3e 78 48 5f bd
       0.00052812556 0.6194525 0.23402129 -0.05451247
000230 19 5d 8d 40 ca c6 2f c0 7b 7a 56 3f ed 3e 89 3f
       4.4176145 -2.7465081 0.8378064 1.0722328
000240 7c 42 8f 3c f8 13 1c 3f db b0 23 3f 73 1a f6 be
       0.017487757 0.6096797 0.63941735 -0.48067054
000250 ce 9d 88 40 6d f2 8f c0 d6 f0 1a 3f 44 1b 89 3f
       4.2692633 -4.498343 0.60523736 1.0711446
000260 f1 e0 53 3d 2d 4b 15 3f de 80 8b 3f ae d8 52 bf
       0.051728193 0.58317834 1.0898702 -0.82361877
000270 2c 39 81 40 e4 eb 9c c0 13 aa 11 3f 9a ef 85 3f
       4.038229 -4.9037952 0.5690014 1.0463746
000280 4e 35 d7 3d df 47 0c 3f c4 cd c9 3f ba 9e 5e bf
       0.10508214 0.54797167 1.576592 -0.8696095
000290 f6 b9 74 40 c8 2a da c0 d0 1e 46 3f e6 c5 4f 3f
       3.8238502 -6.8177223 0.77390766 0.81161344
0002a0 f8 f8 37 3e 29 15 05 3f 8b aa 05 40 e1 ca cf be
       0.17966068 0.5198541 2.088534 -0.40584472
0002b0 3e e7 67 40 96 12 91 c0 dc 11 5e 3e 98 6f c2 3f
       3.623489 -4.533519 0.216865 1.5190306
0002c0 93 93 8a 3e c6 8e 04 3f 29 10 1b 40 40 e8 aa 3e
       0.27065715 0.51780355 2.4228613 0.33380318
0002d0 7d ba 50 40 4a ec 2f c1 12 8a 45 3e cc 11 b5 3e
       3.2613823 -10.995188 0.19290951 0.3536514
0002e0 dd 51 bc 3e 75 21 0b 3f cc ca 1e 40 a6 d5 70 3f
       0.36781207 0.54347926 2.4811277 0.94076
0002f0 ce f7 36 40 38 9d f0 c0 f2 0e ca 3f 60 1a 80 3f
       2.8588748 -7.5191917 1.5785811 1.0008049
000300 b4 64 f0 3e 98 99 18 3f 8b a7 1f 40 b0 77 d9 3f
       0.4695183 0.59609365 2.494601 1.6989651
000310 78 c4 23 40 60 c0 e4 c0 6b c2 af 3f 0d 06 97 3f
       2.5588665 -7.1484833 1.3731207 1.1798722
000320 cd cc 2c 3f f6 28 80 3f 00 00 00 00 00 00 00 00
       0.675 1.00125 0.0 0.0
000330 db 0f c9 3f 00 00 00 00 cf 02 8a 3e c9 c6 75 3e
       1.5707964 0.0 0.26955268 0.24001612
000340 cd cc 2c 3f f6 28 80 3f 00 00 00 00 00 00 00 00
       0.675 1.00125 0.0 0.0
000350 db 0f c9 3f 00 00 00 00 f4 3d eb 3e da a3 9d 3e
       1.5707964 0.0 0.45945704 0.3078907
000360 b5 cc 2c 3f 6a 1d 80 3f 6b ef 25 ba 4f 72 90 bd
       0.6749986 1.0008976 -0.00063299265 -0.07053053
000370 c1 1e c9 3f 86 3b b9 3d 76 cf 43 3e 4f 9d 04 3e
       1.571251 0.09044556 0.19122109 0.12950633
000380 46 cb 2c 3f 32 fa 7f 3f 63 7e 95 bb 63 df 01 be
       0.6749767 0.9999114 -0.0045621856 -0.12682872
000390 f7 7a c9 3f ca 79 f1 3e 3b 86 3a 3e b2 6d b2 3d
       1.5740651 0.4716323 0.18215267 0.08712329
0003a0 84 c5 2c 3f 6c 8c 7f 3f fb 92 64 bc 5e 2e 55 be
       0.67488885 0.9982364 -0.0139510585 -0.20818469
0003b0 49 2e ca 3f 80 8e 1f 3f c4 73 d6 3e 00 00 00 00
       1.5795375 0.6232681 0.41885197 0.0
0003c0 c4 b7 2c 3f 6e e8 7e 3f 19 37 ed bc 44 ab 95 be
       0.67467904 0.9957341 -0.028956937 -0.29232228
0003d0 e5 1f cb 3f 0c 0c 5a 3f 20 50 93 3c 00 00 00 00
       1.5869108 0.8517463 0.017982543 0.0
0003e0 86 9e 2c 3f 79 10 7e 3f 49 8d 48 bd b6 d4 bb be
       0.6742939 0.99243885 -0.048962865 -0.36685723
0003f0 22 d8 cc 3f 07 c6 ea 3f 68 e8 49 3e 00 00 00 00
       1.6003458 1.8341683 0.19717562 0.0

Y f4 [325]
000000 00 00 00 00 ec fa c3 bd e0 f8 b4 bd f0 df ba bd
       0.0 -0.09569344 -0.08836532 -0.09124744
000010 50 fb cb bd 10 a4 8e bd 80 b7 54 bd 30 5a e6 3d
       -0.099600434 -0.06964886 -0.05193281 0.11247671
000020 f0 f3 87 3d c0 02 07 3e fe 7a 15 3e 74 30 cf 3d
       0.06638324 0.13184643 0.14597699 0.101166636
000030 f8 cc 8f 3d b0 2c 19 3d 80 86 26 3c 6c 19 ba bd
       0.070215166 0.037396133 0.010163903 -0.0908688
000040 d4 62 7d bd ac 6d 6b bd 1c d4 af bd e0 09 28 bd
       -0.061861828 -0.057477638 -0.085853785 -0.041025043
000050 60 1e 02 3d 1d d8 27 3e a6 fe 29 3e d8 51 39 3e
       0.03176725 0.16391034 0.16601047 0.18097627
000060 f0 c7 25 3e 00 00 00 00 4f 72 90 bd ee 98 66 bd
       0.16189551 0.0 -0.07053053 -0.05629819
000070 f6 9d a6 bd 54 50 ac bd c8 a5 98 bd f0 e0 ca bd
       -0.081355974 -0.08413759 -0.07453495 -0.09906185
000080 48 2a b5 bd 40 3e ab bd 28 93 9c bd a8 59 cf bd
       -0.08845955 -0.083614826 -0.07645255 -0.101245224
000090 f0 c8 bd bd 80 cb ce bd 80 5d b3 bd 00 d8 97 bd
       -0.092668414 -0.10097408 -0.08758068 -0.074142456
0000a0 a0 52 43 bd 60 86 33 bd 40 26 57 bd e0 90 2e bd
       -0.04768622 -0.04382932 -0.052526712 -0.042618632
0000b0 20 e6 14 bd c0 cd 0b bd 00 92 2a 3b 80 6a e5 bc
       -0.036352277 -0.034131765 0.0026026964 -0.028004885
0000c0 10 be 8e bd 80 d0 7b bd 00 e8 02 bc 20 87 03 bd
       -0.06969845 -0.061478138 -0.007989883 -0.032111287
0000d0 e0 28 1f bd 60 77 11 bd 80 5d 7a bc 00 6f 84 bc
       -0.03885734 -0.035514235 -0.015281081 -0.01616621
0000e0 c0 18 b8 3c c0 18 81 3d a0 86 d0 3d 40 b3 1a 3e
       0.02247274 0.06303549 0.10181928 0.15107441
0000f0 e0 b9 23 3e 40 e9 1b 3e bc 5d 1c 3e 00 b4 fa 3d
       0.15988874 0.15225697 0.15270132 0.122413635
000100 e0 ae ec 3d 38 5b ca 3d 70 3c c5 3d a0 b7 b5 3d
       0.11556792 0.0988068 0.09630668 0.08872914
000110 88 32 8a 3d 18 fa 40 3d 10 94 9f 3c 60 cd 42 3c
       0.06747919 0.047113508 0.019479781 0.0118897855
000120 00 bc af 3b f8 9a a3 3c ec d9 29 3d ee e4 84 3d
       0.0053629875 0.019971356 0.041467592 0.064889774
000130 c7 ac c9 3d 15 0d b2 3d f0 8d 86 3d b6 c0 45 3d
       0.09847408 0.086939014 0.06570041 0.048279487
000140 d0 8e 1d 3d 60 37 e4 3c 78 49 c0 3c a0 df 8a 3c
       0.038466275 0.027858436 0.023472533 0.016952336
000150 a0 6b 88 bc 18 78 bc bc e4 14 10 bd 40 67 e2 bc
       -0.016652882 -0.023006484 -0.035176173 -0.027637124
000160 b0 76 11 bd f0 39 36 bd b2 3c 7a bd cb c4 6e bd
       -0.03551358 -0.044488847 -0.06109304 -0.058293145
000170 b7 10 5f bd 90 e9 18 bd d8 ea a7 bc 78 9f a3 bc
       -0.0544593 -0.037332118 -0.020497724 -0.019973502
000180 a0 a1 31 bc 00 d0 61 bc f0 b2 9b bc 80 b6 98 bb
       -0.010841757 -0.013782501 -0.019006222 -0.0046604276
000190 00 90 a6 b8 00 ad fb 3b 48 ac ff 3c ac 2b 93 3d
       -7.942319e-05 0.0076805353 0.03121008 0.07186064
0001a0 a0 d8 22 3e 3e a3 2a 3e 3e 97 a5 3d 28 ef 2b 3d
       0.15902948 0.16663834 0.08085488 0.041976124
0001b0 38 b6 8b 3d 00 93 66 3e c8 38 af 3d 50 e0 c5 3d
       0.06821865 0.22517014 0.08555752 0.09661925
0001c0 80 31 b3 3b a0 7e 1f bd 10 dc 52 bd 20 50 38 bd
       0.0054685473 -0.03893912 -0.0514794 -0.04499829
0001d0 50 f7 4c bd 40 f0 37 bd 10 3f 7a bd 34 b7 87 bd
       -0.050040543 -0.044906855 -0.061095297 -0.0662674
0001e0 38 e9 86 bd 9c 1a 8c bd 30 a8 77 bd 50 2d 3e bd
       -0.06587452 -0.06841013 -0.06046313 -0.046429932
0001f0 20 e6 1c bd 48 65 81 bc 80 30 20 bb 60 62 bf 3b
       -0.0383054 -0.015795365 -0.002444297 0.0058405846
000200 88 e2 83 3c 40 f7 20 3d d0 c6 1b 3c f0 7a 65 bc
       0.01609923 0.039298296 0.00950785 -0.014006361
000210 58 22 9a bc 94 54 30 bd 73 3c 84 bd e2 33 93 bd
       -0.018815205 -0.04304941 -0.06456842 -0.0718763
000220 aa 24 95 bd c3 50 5b bd 00 99 a0 bc 24 41 ff bc
       -0.07282384 -0.053543817 -0.019604206 -0.031158991
000230 c0 84 de bb 80 c2 69 bc 18 f9 95 bc b0 09 70 bc
       -0.0067907274 -0.014267564 -0.018307254 -0.014650747
000240 f0 c9 6b bc 80 a1 28 3c 48 f8 9d 3c 78 0d 2e 3d
       -0.014391407 0.010292411 0.019283429 0.042493314
000250 4c d6 49 3d 97 35 21 3d f8 c2 8c 3d 95 df 69 3d
       0.049276635 0.039357748 0.06873125 0.05709799
000260 4a 0b cc 3d a6 f9 84 3d 28 75 4a 3d 60 15 de 3c
       0.09963091 0.06492929 0.049428135 0.027109802
000270 40 ca c1 bb a0 b1 83 bc f0 e8 af 3c 48 2f 48 3d
       -0.0059140027 -0.01607591 0.021473378 0.048873216
000280 48 ba 36 3d 80 99 b3 3b 30 3f c5 bc f0 c2 c4 bc
       0.044611245 0.005480945 -0.024077982 -0.024018735
000290 60 b1 fa bc b8 46 51 bd 30 95 7e bd c0 b6 56 3b
       -0.030602157 -0.051092833 -0.062153995 0.0032762736
0002a0 14 48 7b 3d 24 22 d2 3d 7c 77 86 3d 00 8b a2 3c
       0.061348036 0.10260418 0.065657586 0.019841671
0002b0 c0 39 27 bd 0c c6 90 bd 30 f7 c4 bd 40 bc e6 bd
       -0.04082656 -0.070690244 -0.0961746 -0.112663746
0002c0 6c 2a e1 bd 77 fe d3 bd d8 88 81 bd f4 bd 8d bd
       -0.109944195 -0.1035127 -0.06324929 -0.06920996
0002d0 f0 63 a3 bd 24 d0 c9 bd f4 60 ab bd a4 b9 c2 bd
       -0.07978046 -0.09854153 -0.08368102 -0.095080644
0002e0 b8 9d ce bd 38 80 ab bd c8 4a a7 bd e0 4c 9e bd
       -0.10088676 -0.08374065 -0.0816856 -0.077295065
0002f0 38 38 8e bd 10 e1 4d bd 00 f9 f4 bb 20 a5 6c 3d
       -0.069443166 -0.050263464 -0.007475972 0.057774663
000300 88 43 c8 3d a0 dc ec 3d b0 d2 e7 3d 2c 9a 0e 3e
       0.097785056 0.115655184 0.11319482 0.13926
000310 0c a9 dc 3d c8 8c b2 3d 58 35 2b 3d 80 41 02 3d
       0.10774431 0.08718258 0.04179892 0.031800747
000320 00 bf fb 3c 18 28 46 3d da 0e 17 3d 10 5a 3f 3c
       0.030730724 0.04837808 0.036879398 0.011679187
000330 68 40 b7 3c 34 31 a3 3c c0 06 21 3b 10 fd a1 3b
       0.022369578 0.019920923 0.0024570674 0.0049434975
000340 38 b5 09 3c f2 ba 2c 3d 24 be 51 3e 9f 97 48 3e
       0.008405022 0.042170472 0.20482689 0.19589089
000350 84 11 2e 3e 8c 6f 2a 3e dc 07 0d 3e c8 d4 b5 3d
       0.16998869 0.16644114 0.1377253 0.088784754
000360 a0 91 19 3d 00 d0 5a 3c a0 fd 1d 3d e0 15 07 3d
       0.037492394 0.013355255 0.038571954 0.032979846
000370 80 bc e9 3c 00 94 c5 3a 20 0e 0e bd 80 d6 bd bc
       0.028532267 0.0015074015 -0.03468144 -0.02317357
000380 00 03 a7 bb 40 ea a6 bc 00 66 1e bc 80 44 87 bc
       -0.005096793 -0.020375371 -0.009667873 -0.016512156
000390 b0 80 12 bd 90 9c 79 bd f8 b5 86 bd 98 9b 91 bd
       -0.035767257 -0.060940325 -0.065776765 -0.07109755
0003a0 38 4c c2 bd c8 b6 ce bd 10 5f 49 bd 10 f7 5d bd
       -0.09487194 -0.100934565 -0.049162924 -0.054190695
0003b0 40 6f 60 bd 50 c6 6f bd f8 4b 7b bd 90 4b 6a bd
       -0.054793596 -0.058538735 -0.061351746 -0.05720097
0003c0 e0 c3 77 bd c0 46 88 bd 12 d7 95 bd 5c ff a5 bd
       -0.060489535 -0.066541195 -0.07316412 -0.081053466
0003d0 78 7a c7 bd 14 a9 da bd c2 79 e9 bd e4 95 e8 bd
       -0.09740156 -0.1067678 -0.114001766 -0.11356714
0003e0 c4 dc d3 bd 80 5c b9 bd f0 0d 8e bd 70 cf 61 bd
       -0.10344842 -0.09050846 -0.06936252 -0.05512947
0003f0 60 66 49 bd 34 72 1e be 10 5b 25 be a8 b1 13 be
       -0.049169898 -0.15473253 -0.16148019 -0.14423239
