Simplified/data/svgp_torch_models/svgp2_dim3.pth (torch, 160053 bytes, 8 tensors)

variational_strategy.inducing_points f4 [64, 8]
1.6058903 0.27779436 0.8468086 1.025929 -0.034389954 0.52777135 -2.1132267 1.2377394
1.7321727 1.0520428 -0.17925753 -0.09295688 0.48484522 0.5242823 2.8369753 1.0292505
-0.32596493 -1.0743337 -1.2606235 -0.2560932 0.5784339 1.0879875 0.09871203 0.35796654
-0.5091537 -0.7945715 3.0962725 -0.20801264 0.34343836 1.4278103 4.675209 3.7557306
0.29159954 2.9737456 -0.4311828 -0.84111637 -0.02078814 -1.0763292 -0.07268261 0.5293149
0.34432963 1.4148742 -0.57372427 -0.25725466 -0.49997658 -0.60059214 -0.66336805 -3.6949718
-0.12029951 -0.7774587 0.51335245 0.024459511 0.3063477 -1.6079073 1.7407432 5.1290607
-0.9835046 -1.3054945 0.7296748 1.1282513 1.1740112 3.9747813 -1.3555197 -1.5486073
0.97902524 0.20603459 0.52784705 -1.1174502 -0.5702056 -0.005490051 4.020509 0.43014318
1.7704657 1.1427612 0.237366 0.08866177 -0.032154094 -1.5147934 1.6995115 1.1870145
1.2449335 0.1686539 2.5404842 2.146198 0.09172384 -3.0951247 2.2651556 -2.38653
-1.189534 0.42412695 0.4033802 -2.6929305 0.92624724 -0.46561933 -0.02896964 -0.5645138
0.33034703 -0.60141826 2.35662 -1.1544845 1.7684997 -0.3659529 -1.1185287 1.9998604
1.6036093 0.47823316 -1.2829727 -3.0168164 0.13049595 0.3673702 -0.5719948 -0.530123
0.44287467 -0.41115072 -0.33549243 -3.3148663 0.26645768 -1.094266 -0.47368297 -2.7392144
-1.3418126 -1.1363708 2.088677 -1.1297824 0.3322336 -1.3198941 0.47164223 -1.4783851
1.2678219 -0.065698795 -0.26731586 0.29070386 0.60053396 -0.59310466 1.1376618 0.058532216
0.738313 1.8573933 -1.7685127 -2.5394375 -0.6170828 -0.00058577466 1.0838071 2.2555842
-1.7778616 2.5315645 -2.6921978 -0.85552955 -2.7137818 1.0303721 1.1933964 1.6912966
0.6550252 -0.63937265 -3.7529674 -2.7748315 0.55848306 0.25144312 1.7428566 1.9888399
-0.13598591 -0.37017018 -1.0566869 -0.6515539 0.2038804 0.57375395 -3.571799 1.3146379
-0.90775853 -0.35233545 1.082535 -3.1061707 1.078076 2.9037209 2.0879865 1.1661508
-1.4118265 2.2635376 2.4184208 0.6507423 1.3065761 2.3936985 4.870935 1.7330835
-0.9664073 -0.7762392 -3.2186131 -0.7048045 0.79102194 2.8544292 0.05532336 0.15071236
-0.14269604 -0.38674447 -0.6434886 -2.4517934 -0.48845968 3.2969012 -0.5614257 3.516004
-1.8623047 1.1188971 0.86445147 -0.9567778 -1.3125857 -0.91445506 0.7130225 1.3584996
-2.1955667 -0.7271728 -0.8174429 -2.3180962 0.48142293 5.1801777 -0.06727831 2.0805397
1.7559274 2.4231324 -0.8926496 3.3347318 -0.08306845 -0.046501793 2.400479 1.5662178
0.017729191 2.023982 -0.7236582 0.5029802 -2.3986816 -0.7426014 -0.18187019 0.6706848
-2.2495656 1.5378886 1.1168461 -4.467219 -3.0716891 -0.20648041 2.2289174 -0.5663816
-0.6409115 -0.7440512 -2.4587398 -4.011096 0.5486959 3.0371194 -1.5412002 0.28988802
0.90319794 -0.46371928 0.27123177 -1.1820308 0.44199327 2.0005074 1.8536042 1.8803576
00000000: d08d cd3f 103b 8e3e 73c8 583f a451 833f
00000010: 7bdc 0cbd 061c 073f 1b3f 07c0 3f6e 9e3f
00000020: d6b7 dd3f 57a9 863f 498f 37be 2d60 bebd
00000030: a23d f83e 5d37 063f 0191 3540 7bbe 833f
00000040: e0e4 a6be c483 89bf 1c5c a1bf a61e 83be
00000050: 3e14 143f 2d43 8b3f 8829 ca3d 6447 b73e
00000060: e657 02bf 0a69 4bbf 5429 4640 4401 55be
00000070: 27d7 af3e 7dc2 b63f 509b 9540 e45d 7040
00000080: 894c 953e d951 3e40 fec3 dcbe 6753 57bf
00000090: e44b aabc 28c5 89bf 9fda 94bd 2e81 073f
000000a0: f94b b03e 991a b53f 98df 12bf e2b6 83be
000000b0: eefc ffbe 68c0 19bf 7dd2 29bf 6b7a 6cc0
000000c0: 975f f6bd 8907 47bf 116b 033f 505f c83c
000000d0: 9bd9 9c3e e8cf cdbf acd0 de3f 4421 a440
000000e0: f5c6 7bbf 721a a7bf f8cb 3a3f 8a6a 903f
000000f0: 0046 963f d162 7e40 ab81 adbf c438 c6bf
00000100: 66a1 7a3f bbfa 523e fc20 073f 9c08 8fbf
00000110: fff8 11bf e3e5 b3bb 02a8 8040 ba3b dc3e
00000120: 9f9e e23f 0046 923f 1310 733e 4d94 b53d
00000130: 03b4 03bd c0e4 c1bf 9889 d93f 17f0 973f
00000140: fb59 9f3f 9cb3 2c3e 4b97 2240 4f5b 0940
00000150: b5d9 bb3d 8616 46c0 4ff8 1040 e8bc 18c0
00000160: a642 98bf 2b27 d93e d987 ce3e f958 2cc0
00000170: 8a1e 6d3f a865 eebe bd51 edbc fa83 10bf
00000180: 3f23 a93e 8cf6 19bf ddd2 1640 26c6 93bf
00000190: 335e e23f 2e5e bbbe f32b 8fbf 6dfb ff3f
000001a0: 1243 cd3f fada f43e 7338 a4bf 8513 41c0
000001b0: bba0 053e f217 bc3e 406e 12bf 24b6 07bf
000001c0: 78c0 e23e 5982 d2be aac5 abbe c526 54c0
000001d0: 246d 883e e910 8cbf 9386 f2be 4a4f 2fc0
000001e0: 84c0 abbf 9974 91bf e2ac 0540 b69c 90bf
000001f0: 861a aa3e 4af2 a8bf 177b f13e b93b bdbf
00000200: fd47 a23f 178d 86bd a0dd 88be 23d7 943e
00000210: 98bc 193f b5d5 17bf e79e 913f 7abf 6f3d
00000220: 1502 3d3f 10bf ed3f a05e e2bf 2586 22c0
00000230: 23f9 1dbf ac8e 19ba 31ba 8a3f 7e5b 1040
00000240: f890 e3bf 2705 2240 f84c 2cc0 fc03 5bbf
00000250: 9aae 2dc0 3ce3 833f 37c1 983f 687c d83f
00000260: bbaf 273f edad 23bf 9e30 70c0 d796 31c0
00000270: bff8 0e3f 27bd 803e ed15 df3f 4e92 fe3f
00000280: e43f 0bbe f286 bdbe 8441 87bf 3dcc 26bf
00000290: 06c6 503e 8ae1 123f 5b98 64c0 0e46 a83f
000002a0: dd62 68bf 5065 b4be 8290 8a3f 80cb 46c0
000002b0: 65fe 893f 90d6 3940 92a1 0540 6e44 953f
000002c0: bbb6 b4bf cddd 1040 68c7 1a40 0c97 263f
000002d0: e33d a73f 5b32 1940 b3de 9b40 aed5 dd3f
000002e0: 7866 77bf 9db7 46bf c2fd 4dc0 116e 34bf
000002f0: 6a80 4a3f f8ae 3640 bf9a 623d 5754 1a3e
00000300: e91e 12be 5f03 c6be abbb 24bf 2fea 1cc0
00000310: 6317 fabe 6e00 5340 98b9 0fbf 3606 6140
00000320: 0060 eebf 0538 8f3f b14c 5d3f 64ef 74bf
00000330: cf02 a8bf ba19 6abf a488 363f 51e3 ad3f
00000340: 2a84 0cc0 ff27 3abf f043 51bf b05b 14c0
00000350: 117d f63e 04c4 a540 36c9 89bd 9027 0540
00000360: 3bc2 e03f 9a14 1b40 af84 64bf 3f6c 5540
00000370: cb1f aabd aa78 3ebd 73a1 1940 d379 c83f
00000380: cf3c 913c ec88 0140 aa41 39bf 4fc3 003f
00000390: 0084 19c0 201b 3ebf 2e3c 3abe 00b2 2b3f
000003a0: e2f8 0fc0 89d9 c43f d0f4 8e3f 75f3 8ec0
000003b0: 8e96 44c0 9a6f 53be 95a6 0e40 62fe 10bf
000003c0: c712 24bf 247a 3ebf fe5b 1dc0 e65a 80c0
000003d0: 5677 0c3f 2a60 4240 0c46 c5bf 346c 943e
000003e0: fb37 673f 9d6c edbe e4de 8a3e c94c 97bf
000003f0: f14c e23e 5008 0040 e742 ed3f 8faf f03f

variational_strategy._variational_distribution.variational_mean f4 [64]
-0.6916012 -1.5069233 1.7723962 1.1371692 -0.62453365 -2.656034 1.6129946 2.7499886
1.9655852 3.5251868 1.6304135 -3.7504818 2.2844508 -0.060559765 2.1229217 2.0982199
-6.279983 -1.8613095 -2.3889894 5.323119 -6.0781665 -0.9131654 -3.1880891 3.4164908
6.9692345 2.3706622 0.8236306 -1.4842124 -0.3732529 3.5394998 7.8776894 6.963555
-6.83262 -3.3928444 -0.9949569 3.8870318 8.289418 -2.2459948 4.0098047 -3.9756365
-10.566507 -3.9431217 3.185737 -14.4694395 13.928201 -3.6574318 -8.965721 -2.676114
18.332495 3.3773186 19.150337 -11.283791 13.988187 16.78867 11.482751 21.410988
-16.79832 13.858352 -1.5870144 -9.452454 16.769049 -23.226618 38.14669 23.518694
00000000: c70c 31bf dde2 c0bf e1dd e23f c38e 913f
00000010: 70e1 1fbf 76fc 29c0 9b76 ce3f d0ff 2f40
00000020: 4c98 fb3f a99c 6140 64b1 d03f e507 70c0
00000030: 7134 1240 840d 78bd f3dd 0740 3c49 0640
00000040: 9ff5 c8c0 643f eebf 34e5 18c0 fe56 aa40
00000050: 5780 c2c0 35c5 69bf a709 4cc0 c9a7 5a40
00000060: f803 df40 eeb8 1740 74d9 523f acfa bdbf
00000070: 011b bfbe 2a87 6240 0816 fc40 71d5 de40
00000080: d3a4 dac0 5d24 59c0 7fb5 7ebf 21c5 7840
00000090: 75a1 0441 61be 0fc0 5250 8040 d470 7ec0
000000a0: 6a10 29c1 1b5c 7cc0 1de3 4b40 d382 67c1
000000b0: e9d9 5e41 5d13 6ac0 9873 0fc1 7445 2bc0
000000c0: f3a8 9241 fd25 5840 e433 9941 688a 34c1
000000d0: 9dcf 5f41 324f 8641 59b9 3741 b449 ab41
000000e0: f662 86c1 cfbb 5d41 4a23 cbbf 403d 17c1
000000f0: 0327 8641 1dd0 b9c1 3696 1842 4926 bc41

variational_strategy._variational_distribution.chol_variational_covar f4 [64, 64]
0.0063931863 0.0 0.0 0.0 0.0 0.0 0.0 0.0
0.0 0.0 0.0 0.0 0.0 0.0 0.0 0.0
0.0 0.0 0.0 0.0 0.0 0.0 0.0 0.0
0.0 0.0 0.0 0.0 0.0 0.0 0.0 0.0
0.0 0.0 0.0 0.0 0.0 0.0 0.0 0.0
0.0 0.0 0.0 0.0 0.0 0.0 0.0 0.0
0.0 0.0 0.0 0.0 0.0 0.0 0.0 0.0
0.0 0.0 0.0 0.0 0.0 0.0 0.0 0.0
-0.008528556 -0.00452912 0.0 0.0 0.0 0.0 0.0 0.0
0.0 0.0 0.0 0.0 0.0 0.0 0.0 0.0
0.0 0.0 0.0 0.0 0.0 0.0 0.0 0.0
0.0 0.0 0.0 0.0 0.0 0.0 0.0 0.0
0.0 0.0 0.0 0.0 0.0 0.0 0.0 0.0
0.0 0.0 0.0 0.0 0.0 0.0 0.0 0.0
0.0 0.0 0.0 0.0 0.0 0.0 0.0 0.0
0.0 0.0 0.0 0.0 0.0 0.0 0.0 0.0
-0.0017574358 -0.00011050112 0.007189366 0.0 0.0 0.0 0.0 0.0
0.0 0.0 0.0 0.0 0.0 0.0 0.0 0.0
0.0 0.0 0.0 0.0 0.0 0.0 0.0 0.0
0.0 0.0 0.0 0.0 0.0 0.0 0.0 0.0
0.0 0.0 0.0 0.0 0.0 0.0 0.0 0.0
0.0 0.0 0.0 0.0 0.0 0.0 0.0 0.0
0.0 0.0 0.0 0.0 0.0 0.0 0.0 0.0
0.0 0.0 0.0 0.0 0.0 0.0 0.0 0.0
-0.0054397993 -0.0018323892 -0.0066116787 -0.018344285 0.0 0.0 0.0 0.0
0.0 0.0 0.0 0.0 0.0 0.0 0.0 0.0
0.0 0.0 0.0 0.0 0.0 0.0 0.0 0.0
0.0 0.0 0.0 0.0 0.0 0.0 0.0 0.0
0.0 0.0 0.0 0.0 0.0 0.0 0.0 0.0
0.0 0.0 0.0 0.0 0.0 0.0 0.0 0.0
0.0 0.0 0.0 0.0 0.0 0.0 0.0 0.0
0.0 0.0 0.0 0.0 0.0 0.0 0.0 0.0
00000000: ef7d d13b 0000 0000 0000 0000 0000 0000
00000010: 0000 0000 0000 0000 0000 0000 0000 0000
00000020: 0000 0000 0000 0000 0000 0000 0000 0000
00000030: 0000 0000 0000 0000 0000 0000 0000 0000
00000040: 0000 0000 0000 0000 0000 0000 0000 0000
00000050: 0000 0000 0000 0000 0000 0000 0000 0000
00000060: 0000 0000 0000 0000 0000 0000 0000 0000
00000070: 0000 0000 0000 0000 0000 0000 0000 0000
00000080: 0000 0000 0000 0000 0000 0000 0000 0000
00000090: 0000 0000 0000 0000 0000 0000 0000 0000
000000a0: 0000 0000 0000 0000 0000 0000 0000 0000
000000b0: 0000 0000 0000 0000 0000 0000 0000 0000
000000c0: 0000 0000 0000 0000 0000 0000 0000 0000
000000d0: 0000 0000 0000 0000 0000 0000 0000 0000
000000e0: 0000 0000 0000 0000 0000 0000 0000 0000
000000f0: 0000 0000 0000 0000 0000 0000 0000 0000
00000100: 5bbb 0bbc 0369 94bb 0000 0000 0000 0000
00000110: 0000 0000 0000 0000 0000 0000 0000 0000
00000120: 0000 0000 0000 0000 0000 0000 0000 0000
00000130: 0000 0000 0000 0000 0000 0000 0000 0000
00000140: 0000 0000 0000 0000 0000 0000 0000 0000
00000150: 0000 0000 0000 0000 0000 0000 0000 0000
00000160: 0000 0000 0000 0000 0000 0000 0000 0000
00000170: 0000 0000 0000 0000 0000 0000 0000 0000
00000180: 0000 0000 0000 0000 0000 0000 0000 0000
00000190: 0000 0000 0000 0000 0000 0000 0000 0000
000001a0: 0000 0000 0000 0000 0000 0000 0000 0000
000001b0: 0000 0000 0000 0000 0000 0000 0000 0000
000001c0: 0000 0000 0000 0000 0000 0000 0000 0000
000001d0: 0000 0000 0000 0000 0000 0000 0000 0000
000001e0: 0000 0000 0000 0000 0000 0000 0000 0000
000001f0: 0000 0000 0000 0000 0000 0000 0000 0000
00000200: c359 e6ba d6bc e7b8 c694 eb3b 0000 0000
00000210: 0000 0000 0000 0000 0000 0000 0000 0000
00000220: 0000 0000 0000 0000 0000 0000 0000 0000
00000230: 0000 0000 0000 0000 0000 0000 0000 0000
00000240: 0000 0000 0000 0000 0000 0000 0000 0000
00000250: 0000 0000 0000 0000 0000 0000 0000 0000
00000260: 0000 0000 0000 0000 0000 0000 0000 0000
00000270: 0000 0000 0000 0000 0000 0000 0000 0000
00000280: 0000 0000 0000 0000 0000 0000 0000 0000
00000290: 0000 0000 0000 0000 0000 0000 0000 0000
000002a0: 0000 0000 0000 0000 0000 0000 0000 0000
000002b0: 0000 0000 0000 0000 0000 0000 0000 0000
000002c0: 0000 0000 0000 0000 0000 0000 0000 0000
000002d0: 0000 0000 0000 0000 0000 0000 0000 0000
000002e0: 0000 0000 0000 0000 0000 0000 0000 0000
000002f0: 0000 0000 0000 0000 0000 0000 0000 0000
00000300: 5840 b2bb c72c f0ba c8a6 d8bb c146 96bc
00000310: 0000 0000 0000 0000 0000 0000 0000 0000
00000320: 0000 0000 0000 0000 0000 0000 0000 0000
00000330: 0000 0000 0000 0000 0000 0000 0000 0000
00000340: 0000 0000 0000 0000 0000 0000 0000 0000
00000350: 0000 0000 0000 0000 0000 0000 0000 0000
00000360: 0000 0000 0000 0000 0000 0000 0000 0000
00000370: 0000 0000 0000 0000 0000 0000 0000 0000
00000380: 0000 0000 0000 0000 0000 0000 0000 0000
00000390: 0000 0000 0000 0000 0000 0000 0000 0000
000003a0: 0000 0000 0000 0000 0000 0000 0000 0000
000003b0: 0000 0000 0000 0000 0000 0000 0000 0000
000003c0: 0000 0000 0000 0000 0000 0000 0000 0000
000003d0: 0000 0000 0000 0000 0000 0000 0000 0000
000003e0: 0000 0000 0000 0000 0000 0000 0000 0000
000003f0: 0000 0000 0000 0000 0000 0000 0000 0000

covar_module.base_kernel.raw_lengthscale f4 [1, 8]
2.3594651 1.0974308 5.1403337 5.7413073 2.3272924 4.590858 17.802046 15.304458
00000000: 7a01 1740 9d78 8c3f 9d7d a440 cab8 b740
00000010: 5cf2 1440 4fe8 9240 976a 8e41 0fdf 7441

X_mean f4 [8]
0.3532661 0.6813627 -0.007243944 0.0015959255 1.3563957 -0.15245003 0.49393755 0.49848086
00000000: 4bdf b43e c96d 2e3f 9b5e edbb 602e d13a
00000010: 609e ad3f dc1b 1cbe 62e5 fc3e e238 ff3e

X_std f4 [8]
0.16230595 0.16541126 0.7550072 0.58627725 2.7745235 7.276135 0.41997877 0.44494605
00000000: 8833 263e 9261 293e 2748 413f 4416 163f
00000010: cb91 3140 19d6 e840 7507 d73e f8cf e33e

X f4 [3700, 8]
0.675 1.00125 0.0 0.0 1.5707964 0.0 0.00010524816 0.0005722487
0.6746846 0.99340886 -0.028211929 -0.3918701 1.5710039 0.021697626 8.706235e-05 0.0004230496
0.6702485 0.96158606 -0.15390047 -0.8810045 1.5742296 0.11029292 0.0042161625 0.00040764597
0.657176 0.9053382 -0.38017815 -1.3694904 1.5836899 0.26191506 0.0013580478 0.00035073122
0.6314505 0.82439953 -0.65734076 -1.8676434 1.6006199 0.44816828 0.0057460964 0.0081106825
0.5878397 0.72081155 -1.2603865 -2.1118565 1.6450605 3.0524185 0.007812376 0.0014638123
0.5010333 0.6285513 -2.0141616 -1.6866546 2.0806088 12.271643 0.0053110146 0.007884272
0.3871315 0.55672514 -2.5178075 -1.122413 2.7347026 13.456988 0.012627838 0.013279832
0.25377858 0.52221006 -2.7390573 -0.2472496 3.4213986 13.8433895 0.002029785 0.015990814
0.1191472 0.53396726 -2.55483 0.6990981 3.9963346 8.206914 0.009281374 0.0066034906
0.0051045665 0.5854732 -1.9713644 1.2750732 4.247398 2.6514447 0.004668244 0.0016983981
-0.075470254 0.6544243 -1.2434896 1.4286649 4.3572397 2.2814434 0.02136891 0.022917327
-0.11874499 0.7236931 -0.48744515 1.2976426 4.485321 2.8580031 0.0088232625 0.008292197
-0.12635468 0.7800692 0.14498825 0.92518234 4.644106 3.488772 0.0005486972 0.0010458021
-0.107540935 0.813806 0.5776917 0.40680617 4.8287306 3.8774471 0.014540833 0.02428298
-0.071806535 0.8194716 0.81600285 -0.1920345 5.029482 4.1212435 0.0013534696 0.0034170593
-0.02890514 0.7942532 0.89250433 -0.81423247 5.233446 4.0637393 0.008375867 0.009861649
0.01831113 0.74085385 1.0047674 -1.2782012 5.305259 -3.5658665 0.03164136 0.02859297
0.07132256 0.66618675 1.1373767 -1.6920347 4.92885 -10.837965 0.008420659 0.013148015
0.1350804 0.5759971 1.4536381 -1.8199986 4.2569375 -16.168507 0.021937191 0.026410405
0.21788013 0.51278365 1.7473787 -0.2933941 3.2772071 -20.993652 0.035872217 0.019016432
0.29870063 0.52549475 1.5703944 0.6645211 2.314958 -13.662832 0.008869628 0.023104163
0.37810242 0.5672316 1.5794661 0.7939778 2.0485177 -1.1504332 0.010302142 0.030144056
0.45469597 0.6003805 1.4548825 0.5685921 2.0567162 1.6741196 0.037219472 0.044897426
0.516329 0.6357232 0.97473526 0.8620766 2.263375 5.4471154 0.030085854 0.034760855
0.5571773 0.6768139 0.6558061 0.7507053 2.535056 5.371506 0.019300902 0.044546396
0.5791677 0.70786893 0.25990996 0.47189367 2.7233543 1.8966985 0.051657602 0.034934916
0.58729213 0.72226006 0.08491446 0.10049018 2.7519968 -0.4074699 0.042986732 0.03283315
0.5868541 0.7187474 -0.113363415 -0.2358093 2.691585 -1.9668506 0.03714829 0.04351931
0.57489276 0.6998284 -0.38715753 -0.50061613 2.5589976 -3.156837 0.011632666 0.013735709
0.54677945 0.66967493 -0.73454887 -0.71518606 2.4059134 -2.8940852 0.05757183 0.023707343
0.50258213 0.62848 -1.0493699 -0.9009668 2.2780886 -2.2097435 0.0107107265 0.005744215
00000000: cdcc 2c3f f628 803f 0000 0000 0000 0000
00000010: db0f c93f 0000 0000 adb8 dc38 f602 163a
00000020: 21b8 2c3f 0b50 7e3f b41c e7bc 33a3 c8be
00000030: a816 c93f 38bf b13c 3e95 b638 c2cc dd39
00000040: 6895 2b3f 812a 763f 1698 1dbe 8389 61bf
00000050: 5b80 c93f 41e1 e13d bc27 8a3b 51b9 d539
00000060: b03c 283f 3fc4 673f b6a6 c2be 764b afbf
00000070: 5ab6 ca3f bb19 863e 8600 b23a 59e2 b739
00000080: bda6 213f d90b 533f 7c47 28bf f00e efbf
00000090: 1de1 cc3f 5076 e53e c049 bc3b abe2 043c
000000a0: aa7c 163f 1b87 383f 5854 a1bf a828 07c0
000000b0: 5891 d23f d35a 4340 f6fe ff3b 64dd bf3a
000000c0: b843 003f bde8 203f 06e8 00c0 4ce4 d7bf
000000d0: b228 0540 a658 4441 0508 ae3b 092d 013c
000000e0: 1a36 c63e 8a85 0e3f c223 21c0 3bab 8fbf
000000f0: 5e05 2f40 d34f 5741 fee4 4e3c a793 593c
00000100: 44ef 813e 8faf 053f b74c 2fc0 002f 7dbe
00000110: 32f8 5a40 867e 5d41 2406 053b 2bff 823c
00000120: 7203 f43d 14b2 083f 5682 23c0 18f8 323f
00000130: f2c3 7f40 854f 0341 e710 183c 1862 d83b
00000140: 3544 a73b 92e1 153f ab55 fcbf 9935 a33f
00000150: afea 8740 45b1 2940 12f8 983b c99c de3a
00000160: 2690 9abd 5a88 273f ab2a 9fbf 7ede b63f
00000170: 826e 8b40 2b03 1240 da0d af3c 1ebd bb3c
00000180: 9330 f3bd f343 393f 6992 f9be 2719 a63f
00000190: c087 8f40 86e9 3640 728f 103c ffdb 073c
000001a0: 1f63 01be 9db2 473f cd77 143e c0d8 6c3f
000001b0: 849c 9440 0a48 5f40 72d6 0f3a 4c13 893a
000001c0: 6c3e dcbd 9755 503f 9ae3 133f e648 d03e
000001d0: f684 9a40 1828 7840 ad3c 6e3c 1aed c63c
000001e0: 4e0f 93bd e4c8 513f 90e5 503f b1a4 44be
000001f0: 84f1 a040 3ae1 8340 e766 b13a bef0 5f3b
00000200: 79ca ecbc 2d54 4b3f 2a7b 643f 8a71 50bf
00000210: 6478 a740 270a 8240 ef3a 093c c192 213c
00000220: 3901 963c 99a8 3d3f 389c 803f 199c a3bf
00000230: afc4 a940 2837 64c0 5f9a 013d ce3b ea3c
00000240: 9011 923d 378b 2a3f 8f95 913f 9894 d8bf
00000250: 24b9 9d40 4e68 2dc1 cef6 093c c66a 573c
00000260: 8452 0a3e 8c74 133f d010 ba3f b7f5 e8bf
00000270: d538 8840 1a59 81c1 a0b5 b33c a25a d83c
00000280: f81b 5f3e ca45 033f 1baa df3f c037 96be
00000290: c3bd 5140 00f3 a7c1 bfee 123d 59c8 9b3c
000002a0: 4aef 983e d386 063f af02 c93f 0e1e 2a3f
000002b0: 4628 1440 f69a 5ac1 eb51 113c f144 bd3c
000002c0: a496 c13e 1736 113f f22b ca3f 2142 4b3f
000002d0: ea1a 0340 6541 93bf 51ca 283c abf0 f63c
000002e0: e9cd e83e 89b2 193f 9739 ba3f 408f 113f
000002f0: 3da1 0340 8d49 d63f 7273 183d 5de6 373d
00000300: 232e 043f c1be 223f 4088 793f 0db1 5c3f
00000310: 23db 1040 c54e ae40 9c76 f63c 6661 0e3d
00000320: 2ca3 0e3f ad43 2d3f e9e2 273f 392e 403f
00000330: 5c3e 2240 61e3 ab40 ed1c 9e3c 4876 363d
00000340: 5644 143f e636 353f eb12 853e 0c9c f13e
00000350: 704b 2e40 04c7 f23f ec96 533d ea17 0f3d
00000360: c758 163f 09e6 383f a2e7 ad3d cccd cd3d
00000370: b720 3040 e59f d0be db12 303d 0e7c 063d
00000380: 123c 163f d4ff 373f 142b e8bd fe77 71be
00000390: ee42 2c40 c3c1 fbbf ce28 183d 4e41 323d
000003a0: 2c2c 133f f427 333f 8339 c6be 6128 00bf
000003b0: 9ec6 2340 9e09 4ac0 f096 3e3c bd0b 613c
000003c0: bdf9 0b3f d16f 2b3f 650b 3cbf 6f16 37bf
000003d0: 7cfa 1940 b138 39c0 70d0 6b3d e735 c23c
000003e0: 39a9 003f 11e4 203f c151 86bf c3a5 66bf
000003f0: 34cc 1140 706c 0dc0 0b7c 2f3c f839 bc3b

Y f4 [3700]
0.0 -0.09781957 -0.09770799 -0.09904981 -0.095605254 0.17199719 0.0945822 0.16847885
0.19190232 0.15699196 0.058063388 -0.0044944286 -0.058164716 -0.094688356 -0.11420444 -0.12624712
-0.12227094 -0.08737528 -0.06128943 0.102454185 0.32820794 0.17156708 -0.053381085 0.037468553
-0.0028952956 -0.052450716 -0.071638286 -0.07182627 -0.063575625 -0.038787663 -0.050768018 -0.00067442656
0.03105712 0.026149869 0.092400104 0.06406446 0.032163143 0.030766666 -0.012902081 -0.04691729
-0.06812852 -0.064082846 -0.05423537 -0.022785187 0.037466764 0.107575804 0.06819955 0.04670635
0.013608873 0.009154797 -0.020226657 -0.035991937 -0.047565073 -0.04907828 -0.054893896 -0.043168038
-0.01123631 0.0067493916 0.024726152 0.049201906 0.053018995 0.040728122 0.0211685 -0.0045799017
-0.007254809 -0.017907038 -0.045908242 -0.052312016 -0.03981909 0.005440116 0.07531667 0.07098153
0.03659752 0.014398366 0.0058044195 -0.0034792423 -0.025484174 -0.038791865 -0.04166565 -0.036367044
-0.03825265 -0.014119178 -0.007334769 0.019827992 0.034156114 0.029525995 0.030700091 0.037238434
0.013780355 -0.015256256 -0.03663978 -0.04041803 -0.03111963 -0.013173193 0.014928132 0.03524646
0.04263434 0.035527498 0.01907742 0.00872466 -0.006156504 -0.022066593 -0.031567425 -0.02989225
-0.03651101 -0.024959683 -0.013712376 -0.0099469125 0.013582975 0.03374982 0.029830381 0.016919777
0.03420069 0.020723253 -0.012666658 -0.028600551 -0.022551399 -0.015438423 -9.5933676e-05 0.008507505
0.017851368 0.028960122 0.030088156 0.023618042 0.014859915 0.00076156855 -0.017147064 -0.030389845
-0.028739147 -0.04194509 -0.029271126 -0.022916049 -0.009782821 -0.0002568364 0.016276717 0.02587159
0.027642928 0.022772659 0.014018729 0.0047132373 -0.015259713 -0.021284662 -0.019864991 -0.008505538
0.008572981 0.02231919 0.030349312 0.027675822 0.021425843 0.012866795 0.002537161 -0.015360028
-0.031630814 -0.030206159 -0.021171022 -0.03966026 -0.008334696 -0.02378884 -0.00031030178 0.01626411
0.018502504 0.0172458 0.023068339 0.027915435 0.013237834 -0.020001188 -0.01922544 -0.019037783
0.0015199482 0.009777918 0.014116418 0.010893156 0.021751113 0.026125371 0.017210573 0.002690643
-0.011168897 -0.012818962 -0.030584961 -0.029314348 -0.025527075 -0.02028197 -0.01102075 0.0015552938
0.0035279691 0.014386535 0.017336264 0.017470956 0.012733625 0.0037583746 0.013279837 0.0008464083
-0.019676656 -0.026720367 -0.003505692 0.016122632 0.021697078 0.019875757 0.016338706 0.0100340545
0.0011937022 -0.0005454719 -0.011031836 -0.014757469 -0.014642555 -0.024886828 -0.012121066 -0.0025615543
-0.004077494 -0.014546871 0.012023032 0.023062557 0.0049725845 0.0021847785 0.027864998 0.0050710253
-0.012793981 -0.012355078 0.0064795837 0.009119844 0.0071780663 0.002379503 0.0060098395 0.015334427
0.01759021 0.0067373216 0.0013534129 -0.0068142116 -0.011060208 -0.021660939 -0.010615185 -0.008432113
-0.0037155226 -0.0231691 -0.024649113 -0.010082126 0.018011004 0.011981308 0.00434348 0.014403433
0.01533258 0.00982379 -0.0013304204 -0.009042327 -0.0022786148 0.01081509 0.011228206 0.0061588287
0.007995494 0.017573059 0.010485336 0.01887399 -0.0014094114 -0.0058356225 -0.0113095045 -0.018046498
00000000: 0000 0000 a055 c8bd 201b c8bd a0da cabd
00000010: b0cc c3bd 0820 303e 50b4 c13d b885 2c3e
00000020: 0b82 443e 80c2 203e e0d3 6d3d 0046 93bb
00000030: 203e 6ebd f8eb c1bd 04e4 e9bd ed46 01be
00000040: 3069 fabd d0f1 b2bd a00a 7bbd 80d3 d13d
00000050: df0a a83e 48af 2f3e 20a6 5abd a078 193d
00000060: 00bf 3dbb 90d6 56bd 18b7 92bd a719 93bd
00000070: f033 82bd d0df 1ebd 20f2 4fbd 00cc 30ba
00000080: 806b fe3c 4038 d63c 443c bd3d 3a34 833d
00000090: 80bd 033d 600a fc3c 4063 53bc 582c 40bd
000000a0: f786 8bbd de3d 83bd e825 5ebd 00a8 babc
000000b0: c076 193d b450 dc3d 35ac 8b3d 284f 3f3d
000000c0: c0f7 5e3c 00fe 153c 60b2 a5bc 486c 13bd
000000d0: 98d3 42bd 4e06 49bd 6cd8 60bd f8d0 30bd
000000e0: 8018 38bc 002a dd3b 808e ca3c f087 493d
000000f0: 722a 593d 88d2 263d 9069 ad3c 0013 96bb
00000100: c0b9 edbb c8b1 92bc 480a 3cbd 2045 56bd
00000110: 5819 23bd 0043 b23b a03f 9a3d c45e 913d
00000120: 48e7 153d 20e7 6b3c 0033 be3b 0004 64bb
00000130: 30c4 d0bc 38e4 1ebd 9aa9 2abd 9cf5 14bd
00000140: d0ae 1cbd 2054 67bc 8058 f0bb 506e a23c
00000150: 48e7 0b3d 80e0 f13c c27e fb3c 5487 183d
00000160: 00c7 613c 60f5 79bc 9813 16bd 608d 25bd
00000170: 98ee febc 60d4 57bc 2095 743c 985e 103d
00000180: 58a1 2e3d 4885 113d 4048 9c3c e0f1 0e3c
00000190: 80bc c9bb 00c5 b4bc d84c 01bd 98e0 f4bc
000001a0: 928c 15bd 4078 ccbc e0a9 60bc 60f8 22bc
000001b0: 208b 5e3c 403d 0a3d d85e f43c 589b 8a3c
000001c0: 0616 0c3d d0c3 a93c d087 4fbc b44b eabc
000001d0: b6bd b8bc 70f1 7cbc 0030 c9b8 1063 0b3c
000001e0: 083d 923c c73d ed3c 707b f63c a07a c13c
000001f0: 0077 733c 00a4 473a 0078 8cbc 20f4 f8bc
00000200: 5c6e ebbc 9dce 2bbd 00ca efbc 70ba bbbc
00000210: 2048 20bc 00a8 86b9 c056 853c a8f0 d33c
00000220: 6c73 e23c ba8d ba3c d0ae 653c 8071 9a3b
00000230: e003 7abc 2c5d aebc e8bb a2bc d05a 0bbc
00000240: b075 0c3c bcd6 b63c 1f9f f83c 68b8 e23c
00000250: 4085 af3c 40cf 523c 8046 263b a0a8 7bbc
00000260: 508f 01bd e872 f7bc da6e adbc cc72 22bd
00000270: 408e 08bc d0e0 c2bc 00b0 a2b9 503c 853c
00000280: 9092 973c 1047 8d3c d0f9 bc3c e9ae e43c
00000290: 80e3 583c 88d9 a3bc ac7e 9dbc 20f5 9bbc
000002a0: 0039 c73a 9033 203c 8c48 673c 3579 323c
000002b0: 642f b23c e004 d63c 30fd 8c3c 8055 303b
000002c0: c0fd 36bc a006 52bc 508d fabc a524 f0bc
000002d0: 281e d1bc 6026 a6bc 6090 34bc 00db cb3a
000002e0: 8035 673b 80b5 6b3c c804 8e3c 401f 8f3c
000002f0: b2a0 503c 104f 763b ac93 593c 80e1 5d3a
00000300: f030 a1bc ace4 dabc c0bf 65bb 9c13 843c
00000310: 12be b13c 7cd2 a23c c0d8 853c e065 243c
00000320: 0076 9c3a 00fe 0eba e0be 34bc 50c9 71bc
00000330: 54e7 6fbc 76df cbbc 7097 46bc c0df 27bb
00000340: 809c 85bb 0056 6ebc 40fc 443c b0ed bc3c
00000350: 10f1 a23b 802e 0f3b 2345 e43c d82a a63b
00000360: d89d 51bc f46c 4abc b052 d43b 666b 153c
00000370: fc35 eb3b 70f1 1b3b 30ee c43b 403d 7b3c
00000380: 5819 903c c0c4 dc3b 0065 b13a c049 dfbb
00000390: e035 35bc 4872 b1bc 50eb 2dbc d826 0abc
000003a0: 2080 73bb 20cd bdbc f0ec c9bc 802f 25bc
000003b0: d08b 933c 404d 443c c053 8e3b 60fc 6b3c
000003c0: 8035 7b3c f6f3 203c 8061 aeba 4526 14bc
000003d0: d054 15bb c631 313c 82f6 373c 00d0 c93b
000003e0: 88ff 023c 60f5 8f3c b0ca 2b3c a09d 9a3c
000003f0: 00bc b8ba c038 bfbb 804b 39bc 40d6 93bc
