Simplified/data/svgp_torch_models/svgp_dim2_final.pth (torch, 23292 bytes, 8 tensors)

variational_strategy.inducing_points f4 [25, 8]
0	0xbe6715c4	-0.22566897
1	0xbf5eddea	-0.87057364
2	0x3eecc59a	0.46244508
3	0x3f5949c7	0.848782
4	0x3d6cdf54	0.05783017
5	0xbefcbf87	-0.49364874
6	0xbeda8d72	-0.4268604
7	0x3fa3da00	1.2800903
8	0xbfb9794d	-1.4490143
9	0xbf9ccf24	-1.2250714
10	0x3f6a1f30	0.9145384
11	0x3f0c8659	0.548925
12	0x3ee7bfc1	0.45263484
13	0x3a256ed3	0.00063107646
14	0x3f5f9382	0.87334454
15	0x3f834fb8	1.0258703
16	0xbe2ea344	-0.17054468
17	0xbf21db74	-0.63225484
18	0x3e928734	0.28618777
19	0x3f6bf7bc	0.9217489
20	0x3e12e8a2	0.14346555
21	0x3e8e2814	0.27764952
22	0xbeb592a2	-0.35463434
23	0x3fc7089f	1.5549506
24	0x3fadc334	1.3575196
25	0x3f92fe28	1.1483812
26	0xbf66b3c0	-0.90118027
27	0xbfeb8b49	-1.8401881
28	0xc012eada	-2.2955842
29	0x3fecede6	1.8510101
30	0xbeb7f0bf	-0.35925862
31	0xbfa5f7d5	-1.2966257
32	0xbf8da9b1	-1.1067411
33	0xbf4d2594	-0.80135465
34	0x3f00ddf7	0.5033869
35	0x3fad79de	1.3552816
36	0x3fc0f8d7	1.507594
37	0x3f1aa64f	0.60410017
38	0xbea5e005	-0.32397476
39	0xbf91a910	-1.1379719
40	0x3fc70a44	1.5550008
41	0x3fbc9fa4	1.4736218
42	0xbf37a439	-0.7173496
43	0xbfacf076	-1.3510883
44	0xc004e7ef	-2.076656
45	0xbf02e03c	-0.51123405
46	0xbff6a3ba	-1.9268715
47	0xbf1a0730	-0.6016722
48	0xbee5b8df	-0.44867608
49	0xbf04195e	-0.5160121
50	0xbff014f8	-1.8756399
51	0xbd0a050a	-0.033696212
52	0xbfe25e52	-1.7685034
53	0x3f09c581	0.5381699
54	0xbfe549e9	-1.791318
55	0xc0038712	-2.055119
56	0x3f0f41ca	0.5595976
57	0x3e91beee	0.2846598
58	0x3ebfb399	0.3744171
59	0x3fcbf33c	1.5933604
60	0xbf4a5160	-0.7903042
61	0x3e9b0d3a	0.3028353
62	0xbf90d975	-1.1316363
63	0xbd09fa9d	-0.03368627
64	0x3ec887d9	0.39166144
65	0x3fc650ef	1.5493449
66	0xbefcf72a	-0.4940732
67	0x3ebcefe0	0.3690176
68	0xbfb02ef9	-1.3764335
69	0xbe9136f3	-0.28362235
70	0xbf5c49c9	-0.8605009
71	0xbe01abb5	-0.12663157
72	0x3d5383a0	0.0516392
73	0xbe796670	-0.24355483
74	0xbea85d0b	-0.32883486
75	0x3f833d40	1.0253067
76	0xbf9d7bcd	-1.2303406
77	0x3fabaee8	1.3412752
78	0xbd2bd4d7	-0.041951027
79	0xbfa04c3d	-1.2523266
80	0xbe36e3b0	-0.17860293
81	0x3edbcd54	0.4293009
82	0xbf8ff83e	-1.1247633
83	0x3e2b91c7	0.16754828
84	0xbfa3f91e	-1.28104
85	0x3eb1fe89	0.34764507
86	0xbfedaba8	-1.856801
87	0x3f9f48a4	1.2444043
88	0xbfb3200d	-1.3994156
89	0xbf8a3900	-1.0798645
90	0x3f033f13	0.5126812
91	0x3f40e944	0.75355935
92	0x3e52467e	0.20534703
93	0xbebecb2f	-0.37264392
94	0x3e31bce7	0.17357217
95	0x3fbef312	1.4917929
96	0x3f2d4fe9	0.6770006
97	0x3e501724	0.20321327
98	0x3f362c67	0.711615
99	0x3f8fab18	1.1224089
100	0xbe62d3d7	-0.22151123
101	0xbe5e9481	-0.21736337
102	0x4007832f	2.1173818
103	0xbdfdaa89	-0.123860426
104	0xbe758886	-0.23977861
105	0xbf50aa04	-0.81509423
106	0x3e9fc166	0.3120224
107	0x3f797027	0.97436756
108	0x3dc390ff	0.0954914
109	0x3dcff432	0.101539984
110	0xbf5197e7	-0.8187241
111	0x3fceda44	1.6160359
112	0x3fd32a65	1.6497313
113	0x3fb5c8fe	1.4201963
114	0xbe9a3502	-0.30118567
115	0xbfa69781	-1.3014985
116	0xbfdf9102	-1.7466128
117	0xbf9be4fb	-1.2179254
118	0x3e842099	0.2580612
119	0xbeb9581b	-0.36200032
120	0xbdb90fed	-0.09036241
121	0x3f5dd901	0.86659247
122	0xbe16a718	-0.14712179
123	0x3e4cda19	0.20005073
124	0xbcd99243	-0.026559
125	0xbf8d76a0	-1.1051826
126	0x3fd6f14c	1.6792388
127	0xbeb2cc2d	-0.349214
128	0xbdb9134d	-0.090368845
129	0xbe2c1146	-0.16803464
130	0x3efc8fda	0.493285
131	0x3f84985f	1.0359
132	0x3d408fb9	0.047012065
133	0xbf0f07f7	-0.5587153
134	0x3f2198a1	0.6312352
135	0x3f5eebbb	0.87078446
136	0xbee4c98c	-0.44685018
137	0xbd9be648	-0.07612282
138	0x3e389f8c	0.18029612
139	0x3e8a4007	0.27001974
140	0x3ecd87d9	0.40142706
141	0xbf7de23f	-0.9917335
142	0x3ee336ca	0.44377738
143	0x3e9ed9c6	0.31025523
144	0xbe5a7a6a	-0.2133576
145	0xbe96b21f	-0.2943277
146	0xbf74b21e	-0.95584285
147	0x3eb8bbcf	0.36080787
148	0x3e703fac	0.23461789
149	0xbe863338	-0.26210952
150	0x3f2cbf57	0.6747946
151	0xbeedf808	-0.46478295
152	0xbedc2d17	-0.4300315
153	0xbed1a494	-0.40945876
154	0xbeb81615	-0.35954347
155	0x3f0cb6ec	0.54966617
156	0x3e8936ec	0.26799715
157	0xbe53aa90	-0.20670533
158	0xbcb70421	-0.022340836
159	0x3f1374f7	0.5760035
160	0x3f994f4d	1.1977326
161	0x3dd67fcc	0.10473594
162	0xbf81ba65	-1.0135008
163	0xbfaad8e0	-1.3347435
164	0xbf5ff5ab	-0.87484235
165	0x3f2cfa9e	0.6756991
166	0x3f4e3b51	0.8055926
167	0xbf4e7776	-0.8065103
168	0x3f3475cf	0.7049226
169	0xbf23294f	-0.63734907
170	0x3f583782	0.844597
171	0x3f1c1189	0.60964257
172	0x3e0b331c	0.13593715
173	0xbe95ab5b	-0.29232296
174	0x40492ff7	3.1435525
175	0x3f9f06d8	1.2423964
176	0x3f3ae61b	0.73007363
177	0xbf66d85c	-0.9017389
178	0x3f07ac8d	0.52997667
179	0x3ef4626d	0.47731343
180	0x3db4bbbf	0.08824872
181	0x3f6b5ae5	0.9193557
182	0x3f9c7423	1.2222942
183	0x3fc9f677	1.577834
184	0xbef559c3	-0.47920045
185	0x3d9058a9	0.070481606
186	0x3d82fb8f	0.06395637
187	0x3e990e13	0.2989355
188	0x3eca2baa	0.39486438
189	0xbf983c77	-1.1893452
190	0x3ee99c17	0.456269
191	0x3df06e2f	0.11739766
192	0x3ef539f0	0.47895765
193	0xbefeb094	-0.49744093
194	0x3e622a3a	0.2208642
195	0xbeda96ef	-0.42693278
196	0x3dd58b02	0.10426904
197	0x3f5f32f9	0.87187153
198	0x3f6e8dcd	0.9318512
199	0x3f418e07	0.7560734

variational_strategy._variational_distribution.variational_mean f4 [25]
0	0xbfdcd9cc	-1.7253966
1	0x3fa87b5a	1.3162644
2	0x3d0eb095	0.03483637
3	0xc016cba7	-2.35618
4	0x4049c1c6	3.152452
5	0xbfa49bc8	-1.2860041
6	0xc061a1a7	-3.5254915
7	0x402800b8	2.6250439
8	0xc091cafe	-4.5560293
9	0x3f8ce82e	1.1008356
10	0xbf0d6ef4	-0.55247426
11	0x406c8dff	3.6961668
12	0xc0ce268f	-6.442207
13	0x40bf2747	5.9735446
14	0xc02fac12	-2.7448773
15	0xc08f1c8c	-4.4722347
16	0x411107cc	9.064404
17	0x40829eb4	4.081873
18	0xbfd0360b	-1.6266493
19	0x40f3cf89	7.619084
20	0xc0f0b243	-7.5217605
21	0xc0f15e03	-7.542726
22	0xc01b642d	-2.4279892
23	0x41270229	10.438027
24	0xc0ec3bf8	-7.3823204

variational_strategy._variational_distribution.chol_variational_covar f4 [25, 25]
0	0x3c54d403	0.012990001
1	0x00000000	0.0
2	0x00000000	0.0
3	0x00000000	0.0
4	0x00000000	0.0
5	0x00000000	0.0
6	0x00000000	0.0
7	0x00000000	0.0
8	0x00000000	0.0
9	0x00000000	0.0
10	0x00000000	0.0
11	0x00000000	0.0
12	0x00000000	0.0
13	0x00000000	0.0
14	0x00000000	0.0
15	0x00000000	0.0
16	0x00000000	0.0
17	0x00000000	0.0
18	0x00000000	0.0
19	0x00000000	0.0
20	0x00000000	0.0
21	0x00000000	0.0
22	0x00000000	0.0
23	0x00000000	0.0
24	0x00000000	0.0
25	0x3bab86c7	0.0052345726
26	0x3d826524	0.06366947
27	0x00000000	0.0
28	0x00000000	0.0
29	0x00000000	0.0
30	0x00000000	0.0
31	0x00000000	0.0
32	0x00000000	0.0
33	0x00000000	0.0
34	0x00000000	0.0
35	0x00000000	0.0
36	0x00000000	0.0
37	0x00000000	0.0
38	0x00000000	0.0
39	0x00000000	0.0
40	0x00000000	0.0
41	0x00000000	0.0
42	0x00000000	0.0
43	0x00000000	0.0
44	0x00000000	0.0
45	0x00000000	0.0
46	0x00000000	0.0
47	0x00000000	0.0
48	0x00000000	0.0
49	0x00000000	0.0
50	0xbc11acb8	-0.008891277
51	0xbc07461e	-0.008256463
52	0x3cf42d25	0.029806683
53	0x00000000	0.0
54	0x00000000	0.0
55	0x00000000	0.0
56	0x00000000	0.0
57	0x00000000	0.0
58	0x00000000	0.0
59	0x00000000	0.0
60	0x00000000	0.0
61	0x00000000	0.0
62	0x00000000	0.0
63	0x00000000	0.0
64	0x00000000	0.0
65	0x00000000	0.0
66	0x00000000	0.0
67	0x00000000	0.0
68	0x00000000	0.0
69	0x00000000	0.0
70	0x00000000	0.0
71	0x00000000	0.0
72	0x00000000	0.0
73	0x00000000	0.0
74	0x00000000	0.0
75	0xb9bc7969	-0.00035948612
76	0x3ace2959	0.0015728875
77	0xbc13a067	-0.009010411
78	0x3d2e7238	0.042589396
79	0x00000000	0.0
80	0x00000000	0.0
81	0x00000000	0.0
82	0x00000000	0.0
83	0x00000000	0.0
84	0x00000000	0.0
85	0x00000000	0.0
86	0x00000000	0.0
87	0x00000000	0.0
88	0x00000000	0.0
89	0x00000000	0.0
90	0x00000000	0.0
91	0x00000000	0.0
92	0x00000000	0.0
93	0x00000000	0.0
94	0x00000000	0.0
95	0x00000000	0.0
96	0x00000000	0.0
97	0x00000000	0.0
98	0x00000000	0.0
99	0x00000000	0.0
100	0xbbb3dd7b	-0.005489049
101	0xbcabd727	-0.020976616
102	0xbc41b28c	-0.011822354
103	0xba09b006	-0.0005252365
104	0x3d2b90ee	0.041886263
105	0x00000000	0.0
106	0x00000000	0.0
107	0x00000000	0.0
108	0x00000000	0.0
109	0x00000000	0.0
110	0x00000000	0.0
111	0x00000000	0.0
112	0x00000000	0.0
113	0x00000000	0.0
114	0x00000000	0.0
115	0x00000000	0.0
116	0x00000000	0.0
117	0x00000000	0.0
118	0x00000000	0.0
119	0x00000000	0.0
120	0x00000000	0.0
121	0x00000000	0.0
122	0x00000000	0.0
123	0x00000000	0.0
124	0x00000000	0.0
125	0xbb60e06d	-0.0034313456
126	0xbbd7833b	-0.006576923
127	0x3b8bb8a3	0.004263954
128	0xbc9fd767	-0.019511892
129	0xbbbb6fac	-0.0057200994
130	0x3cea1116	0.0285726
131	0x00000000	0.0
132	0x00000000	0.0
133	0x00000000	0.0
134	0x00000000	0.0
135	0x00000000	0.0
136	0x00000000	0.0
137	0x00000000	0.0
138	0x00000000	0.0
139	0x00000000	0.0
140	0x00000000	0.0
141	0x00000000	0.0
142	0x00000000	0.0
143	0x00000000	0.0
144	0x00000000	0.0
145	0x00000000	0.0
146	0x00000000	0.0
147	0x00000000	0.0
148	0x00000000	0.0
149	0x00000000	0.0
150	0xbc9f724e	-0.019463684
151	0xbbd3b2d5	-0.0064605274
152	0x3a2435dd	0.000626413
153	0xbc33c515	-0.010972281
154	0xbb21605c	-0.0024624085
155	0x3bd1eb4b	0.006406223
156	0x3d2e8b77	0.042613473
157	0x00000000	0.0
158	0x00000000	0.0
159	0x00000000	0.0
160	0x00000000	0.0
161	0x00000000	0.0
162	0x00000000	0.0
163	0x00000000	0.0
164	0x00000000	0.0
165	0x00000000	0.0
166	0x00000000	0.0
167	0x00000000	0.0
168	0x00000000	0.0
169	0x00000000	0.0
170	0x00000000	0.0
171	0x00000000	0.0
172	0x00000000	0.0
173	0x00000000	0.0
174	0x00000000	0.0
175	0xbca403f0	-0.020021409
176	0x3c23a6b5	0.0099884765
177	0xbbf1b0f5	-0.0073758313
178	0xbba9f3b2	-0.0051865214
179	0x3b97e08c	0.0046349224
180	0x3c51fbe7	0.012816406
181	0x3b908cd0	0.0044113174
182	0x3ccb29bb	0.024800172
183	0x00000000	0.0
184	0x00000000	0.0
185	0x00000000	0.0
186	0x00000000	0.0
187	0x00000000	0.0
188	0x00000000	0.0
189	0x00000000	0.0
190	0x00000000	0.0
191	0x00000000	0.0
192	0x00000000	0.0
193	0x00000000	0.0
194	0x00000000	0.0
195	0x00000000	0.0
196	0x00000000	0.0
197	0x00000000	0.0
198	0x00000000	0.0
199	0x00000000	0.0
200	0x3c22cc64	0.009936426
201	0x39f2b500	0.00046292692
202	0x3bc09ade	0.0058778366
203	0x3b912c1a	0.004430306
204	0x3baf20bf	0.00534448
205	0xbc6f17fe	-0.0145931225
206	0xbc984d42	-0.018591527
207	0xbc265dd2	-0.010154204
208	0x3c74099d	0.01489487
209	0x00000000	0.0
210	0x00000000	0.0
211	0x00000000	0.0
212	0x00000000	0.0
213	0x00000000	0.0
214	0x00000000	0.0
215	0x00000000	0.0
216	0x00000000	0.0
217	0x00000000	0.0
218	0x00000000	0.0
219	0x00000000	0.0
220	0x00000000	0.0
221	0x00000000	0.0
222	0x00000000	0.0
223	0x00000000	0.0
224	0x00000000	0.0
225	0x3c835cf7	0.01603554
226	0x3b715ca2	0.0036828895
227	0xbc20246c	-0.009774309
228	0x3c206d20	0.009791642
229	0xbc6a6453	-0.014306146
230	0xbbbf1f6d	-0.0058326037
231	0xbc5f66fd	-0.013635394
232	0xbc1ec4f3	-0.009690511
233	0xbc2a1883	-0.010381821
234	0x3cf04b2c	0.02933272
235	0x00000000	0.0
236	0x00000000	0.0
237	0x00000000	0.0
238	0x00000000	0.0
239	0x00000000	0.0
240	0x00000000	0.0
241	0x00000000	0.0
242	0x00000000	0.0
243	0x00000000	0.0
244	0x00000000	0.0
245	0x00000000	0.0
246	0x00000000	0.0
247	0x00000000	0.0
248	0x00000000	0.0
249	0x00000000	0.0
250	0xbaab3675	-0.0013062494
251	0xbc87b0fe	-0.016563889
252	0x3bee9e72	0.0072820717
253	0x3c02594d	0.007955861
254	0x3c1a4001	0.009414674
255	0xbb536976	-0.0032258905

covar_module.base_kernel.raw_lengthscale f4 [1, 8]
0	0x3f134d5b	0.5753991
1	0x3ffd62df	1.9795798
2	0x40644c72	3.5671659
3	0x3f22caff	0.63591
4	0x4028da49	2.638323
5	0x409f899e	4.985549
6	0x40bc7796	5.889598
7	0x40eac51f	7.3365626

X_mean f4 [8]
0	0x3eaaa084	0.3332559
1	0x3f2b6477	0.6695017
2	0xbe23f2ee	-0.16010639
3	0xbebbe662	-0.36699206
4	0x403c5d99	2.9432127
5	0x3f68eda9	0.9098764
6	0x3ed3bcca	0.41354972
7	0x3f11635e	0.5679225

X_std f4 [8]
0	0x3e842448	0.2580893
1	0x3e2b64cc	0.1673767
2	0x3fc01bf6	1.5008533
3	0x3f6c84e1	0.9239026
4	0x3f8b2483	1.0870517
5	0x40c35239	6.103787
6	0x3ed26211	0.41090444
7	0x3ed6ddf2	0.41966206

X f4 [325, 8]
0	0x3f2ccccd	0.675
1	0x3f8028f6	1.00125
2	0x00000000	0.0
3	0x00000000	0.0
4	0x3fc90fdb	1.5707964
5	0x00000000	0.0
6	0x38757dff	5.8529895e-05
7	0x3820baa0	3.832078e-05
8	0x3f2cc585	0.6748889
9	0x3f7f3227	0.996859
10	0xbc5dc2c9	-0.01353521
11	0xbe9519eb	-0.29121336
12	0x3fc915de	1.5709798
13	0x3d217b90	0.03942448
14	0x3d86f359	0.06589384
15	0x3c13893e	0.009004889
16	0x3f2c3efa	0.67283595
17	0x3f7a4927	0.9776787
18	0xbdd0634a	-0.10175188
19	0xbf29e57c	-0.6636579
20	0x3fca1779	1.5788413
21	0x3eb44fa7	0.3521702
22	0x3d83bf65	0.0643299
23	0x3c7d3d2a	0.015456477
24	0x3f2a9857	0.666387
25	0x3f71a39d	0.9439028
26	0xbe7265ac	-0.23671597
27	0xbf8352ac	-1.0259604
28	0x3fcd84b6	1.6056125
29	0x3f439e77	0.76413673
30	0x3e625589	0.22102942
31	0x3d0b5215	0.034013826
32	0x3f2736ee	0.6531819
33	0x3f6553a0	0.89580727
34	0xbeda642b	-0.42654547
35	0xbfaf9ef8	-1.3720388
36	0x3fd365d9	1.6515456
37	0x3fa13625	1.2594649
38	0x3e26c7da	0.16287175
39	0x3e3fda3d	0.18735595
40	0x3f21e1ef	0.6323537
41	0x3f556530	0.83357525
42	0xbf1dea20	-0.6168537
43	0xbfddc8f8	-1.7326956
44	0x3fdac35a	1.7090867
45	0x3fa5e786	1.296128
46	0x3c392665	0.011300658
47	0x3ec5e07a	0.38647825
48	0x3f1a7e3c	0.6034887
49	0x3f423fd2	0.7587863
50	0xbf58df87	-0.84716076
51	0xbfff0ab2	-1.9925139
52	0x3fdefe41	1.7421342
53	0x3ec085ef	0.37602183
54	0x3e9483aa	0.29006702
55	0x3ee0a431	0.43875268
56	0x3f0ec886	0.55774724
57	0x3f2e2a8a	0.6803366
58	0xbfcb7b5c	-1.5897021
59	0xbfd7f07f	-1.6870269
60	0x3fe5f3a9	1.7964984
61	0x40afec97	5.4976306
62	0x3eeabc10	0.45846605
63	0x3f0c7077	0.5485911
64	0x3ef99da3	0.4875308
65	0x3f1e8147	0.6191601
66	0xbff09adb	-1.8797258
67	0xbfb7228c	-1.4307418
68	0x400705e9	2.1097357
69	0x412150e4	10.082249
70	0x3d9f3df5	0.07775489
71	0x3ea97dcf	0.33103797
72	0x3ed04789	0.40679577
73	0x3f115c12	0.56781113
74	0xc0083d26	-2.1287322
75	0xbf8efc55	-1.1170756
76	0x4022dbe8	2.544672
77	0x41217e85	10.093389
78	0x3da331d7	0.079684906
79	0x3f314a37	0.6925387
80	0x3ea2c9cb	0.3179458
81	0x3f08c0b8	0.53419065
82	0xc0128b49	-2.2897513
83	0xbf0d10b2	-0.551036
84	0x403c3808	2.9409199
85	0x410ffc32	8.999071
86	0x3f366e50	0.71262074
87	0x3f259fc3	0.646969
88	0x3e6bb868	0.23019564
89	0x3f05f1cb	0.5232207
90	0xc004e16a	-2.0762582
91	0xbcd401e7	-0.025879813
92	0x405282cc	3.2892332
93	0x410688aa	8.408365
94	0x3e1b0077	0.15136896
95	0x3e7a1949	0.24423708
96	0x3e1c5c81	0.15269662
97	0x3f07a339	0.52983433
98	0xbfe6ab15	-1.802096
99	0x3eaecb6d	0.34139577
100	0x406981db	3.6485507
101	0x411477bd	9.279233
102	0x3ed18571	0.4092212
103	0x3f67f7f1	0.90612704
104	0x3db504c6	0.08838801
105	0x3f0c6739	0.54845005
106	0xbfb45a80	-1.4090118
107	0x3f135875	0.5755685
108	0x407c8581	3.9456484
109	0x40f28420	7.5786285
110	0x3e822328	0.25417447
111	0x3ee395f5	0.44450346
112	0x3d273acf	0.04082757
113	0x3f12e8c2	0.5738641
114	0xbf76755a	-0.96272814
115	0x3f2a442e	0.66510284
116	0x4086bc1a	4.2104616
117	0x40b1a070	5.5508347
118	0x3dd85307	0.10562711
119	0x3e0d7ca9	0.13817085
120	0x3c2debee	0.010615332
121	0x3f198a1f	0.5997638
122	0xbf09b52e	-0.53792083
123	0x3f0fadf5	0.5612481
124	0x408c2d00	4.380493
125	0x3fe79e79	1.8095237
126	0x3f42092e	0.7579526
127	0x3f08680f	0.5328378
128	0xbb002d62	-0.00195583
129	0x3f1d9410	0.6155405
130	0xbde3ba75	-0.11119548
131	0x3e6e0785	0.23245056
132	0x408ddf9c	4.433546
133	0x3f05fcf7	0.5233912
134	0x3ebcdf6d	0.3688921
135	0x3f165452	0.5872241
136	0x3a0a71e8	0.00052812556
137	0x3f1e9470	0.6194525
138	0x3e6fa347	0.23402129
139	0xbd5f4878	-0.05451247
140	0x408d5d19	4.4176145
141	0xc02fc6ca	-2.7465081
142	0x3f567a7b	0.8378064
143	0x3f893eed	1.0722328
144	0x3c8f427c	0.017487757
145	0x3f1c13f8	0.6096797
146	0x3f23b0db	0.63941735
147	0xbef61a73	-0.48067054
148	0x40889dce	4.2692633
149	0xc08ff26d	-4.498343
150	0x3f1af0d6	0.60523736
151	0x3f891b44	1.0711446
152	0x3d53e0f1	0.051728193
153	0x3f154b2d	0.58317834
154	0x3f8b80de	1.0898702
155	0xbf52d8ae	-0.82361877
156	0x4081392c	4.038229
157	0xc09cebe4	-4.9037952
158	0x3f11aa13	0.5690014
159	0x3f85ef9a	1.0463746
160	0x3dd7354e	0.10508214
161	0x3f0c47df	0.54797167
162	0x3fc9cdc4	1.576592
163	0xbf5e9eba	-0.8696095
164	0x4074b9f6	3.8238502
165	0xc0da2ac8	-6.8177223
166	0x3f461ed0	0.77390766
167	0x3f4fc5e6	0.81161344
168	0x3e37f8f8	0.17966068
169	0x3f051529	0.5198541
170	0x4005aa8b	2.088534
171	0xbecfcae1	-0.40584472
172	0x4067e73e	3.623489
173	0xc0911296	-4.533519
174	0x3e5e11dc	0.216865
175	0x3fc26f98	1.5190306
176	0x3e8a9393	0.27065715
177	0x3f048ec6	0.51780355
178	0x401b1029	2.4228613
179	0x3eaae840	0.33380318
180	0x4050ba7d	3.2613823
181	0xc12fec4a	-10.995188
182	0x3e458a12	0.19290951
183	0x3eb511cc	0.3536514
184	0x3ebc51dd	0.36781207
185	0x3f0b2175	0.54347926
186	0x401ecacc	2.4811277
187	0x3f70d5a6	0.94076
188	0x4036f7ce	2.8588748
189	0xc0f09d38	-7.5191917
190	0x3fca0ef2	1.5785811
191	0x3f801a60	1.0008049
192	0x3ef064b4	0.4695183
193	0x3f189998	0.59609365
194	0x401fa78b	2.494601
195	0x3fd977b0	1.6989651
196	0x4023c478	2.5588665
197	0xc0e4c060	-7.1484833
198	0x3fafc26b	1.3731207
199	0x3f97060d	1.1798722
200	0x3f2ccccd	0.675
201	0x3f8028f6	1.00125
202	0x00000000	0.0
203	0x00000000	0.0
204	0x3fc90fdb	1.5707964
205	0x00000000	0.0
206	0x3e8a02cf	0.26955268
207	0x3e75c6c9	0.24001612
208	0x3f2ccccd	0.675
209	0x3f8028f6	1.00125
210	0x00000000	0.0
211	0x00000000	0.0
212	0x3fc90fdb	1.5707964
213	0x00000000	0.0
214	0x3eeb3df4	0.45945704
215	0x3e9da3da	0.3078907
216	0x3f2cccb5	0.6749986
217	0x3f801d6a	1.0008976
218	0xba25ef6b	-0.00063299265
219	0xbd90724f	-0.07053053
220	0x3fc91ec1	1.571251
221	0x3db93b86	0.09044556
222	0x3e43cf76	0.19122109
223	0x3e049d4f	0.12950633
224	0x3f2ccb46	0.6749767
225	0x3f7ffa32	0.9999114
226	0xbb957e63	-0.0045621856
227	0xbe01df63	-0.12682872
228	0x3fc97af7	1.5740651
229	0x3ef179ca	0.4716323
230	0x3e3a863b	0.18215267
231	0x3db26db2	0.08712329
232	0x3f2cc584	0.67488885
233	0x3f7f8c6c	0.9982364
234	0xbc6492fb	-0.0139510585
235	0xbe552e5e	-0.20818469
236	0x3fca2e49	1.5795375
237	0x3f1f8e80	0.6232681
238	0x3ed673c4	0.41885197
239	0x00000000	0.0
240	0x3f2cb7c4	0.67467904
241	0x3f7ee86e	0.9957341
242	0xbced3719	-0.028956937
243	0xbe95ab44	-0.29232228
244	0x3fcb1fe5	1.5869108
245	0x3f5a0c0c	0.8517463
246	0x3c935020	0.017982543
247	0x00000000	0.0
248	0x3f2c9e86	0.6742939
249	0x3f7e1079	0.99243885
250	0xbd488d49	-0.048962865
251	0xbebbd4b6	-0.36685723
252	0x3fccd822	1.6003458
253	0x3feac607	1.8341683
254	0x3e49e868	0.19717562
255	0x00000000	0.0

Y f4 [325]
0	0x00000000	0.0
1	0xbc6ead83	-0.014567736
2	0xbce4fbb8	-0.02795206
3	0xbd3b0f48	-0.04566887
4	0xbd3b2d58	-0.04569754
5	0xbd455950	-0.04818088
6	0xbdcb15f8	-0.099162996
7	0xbdf4f0a0	-0.11959958
8	0xbd9e0fb0	-0.07717836
9	0xbd4aec00	-0.049541473
10	0x3d007b40	0.03136754
11	0x3d9bec60	0.07613444
12	0x3db75560	0.08951831
13	0x3de63b40	0.1124177
14	0x3dd631a8	0.1045869
15	0x3df96cec	0.12178978
16	0x3db63c23	0.08898189
17	0x3da287fa	0.07936092
18	0x3dc5d108	0.0965901
19	0x3de311b0	0.11087358
20	0x3e2da900	0.16959
21	0x3dd16120	0.10223603
22	0x3c8a0d80	0.01685214
23	0x3d860940	0.06544733
24	0xbe02cdc0	-0.127738
25	0x00000000	0.0
26	0xba25ef6b	-0.00063299265
27	0xbb80c076	-0.003929193
28	0xbc19d3ca	-0.009388873
29	0xbc75db37	-0.015005878
30	0xbca3e379	-0.020005928
31	0xbccd40da	-0.025055338
32	0xbcef98fc	-0.029247753
33	0xbd08f598	-0.03343734
34	0xbcbe9c88	-0.023268
35	0xbd1e7774	-0.038688138
36	0xbd2fc5d8	-0.042913288
37	0xbd2b0abc	-0.041758284
38	0xbd1f46e8	-0.03888598
39	0xbd15d640	-0.036581278
40	0xbcecf8d0	-0.028927237
41	0xbcc34890	-0.023838311
42	0xbd03e2f0	-0.032198846
43	0xbd19ea60	-0.037577033
44	0xbd27d7b0	-0.04097718
45	0xbd30e4b0	-0.043186843
46	0xbd4de1d0	-0.05026418
47	0xbd0eb7b0	-0.034843147
48	0xbd007140	-0.031358004
49	0xbd44e580	-0.04807043
50	0xbdb71d10	-0.0894109
51	0xbd9ea3d8	-0.077460945
52	0xbd938708	-0.072034895
53	0xbd8d5fa0	-0.06903005
54	0xbd8e7c20	-0.06957269
55	0xbd9a8880	-0.075455666
56	0xbdb2e360	-0.087347746
57	0xbdcac790	-0.09901345
58	0xbddb4b10	-0.107076764
59	0xbdc480a0	-0.09594846
60	0xbd8d54a0	-0.069009066
61	0xbc8c3380	-0.0171144
62	0x3c2ff400	0.0107393265
63	0x3a606000	0.0008559227
64	0x3c252980	0.010080695
65	0x3b43c200	0.0029870272
66	0x3c97edc0	0.018545985
67	0x3c807380	0.015680075
68	0x3c137780	0.009000659
69	0x3b68ac00	0.003550291
70	0xbbd36700	-0.0064514875
71	0x3c4b1c80	0.012396932
72	0x3c005c80	0.007834554
73	0x3ce15780	0.027507544
74	0x3cd62900	0.026142597
75	0x3d2bcec0	0.04194522
76	0x3dd22060	0.10260081
77	0x3de727c0	0.112868786
78	0x3e0288c0	0.12747478
79	0x3e14397c	0.14475054
80	0x3e28c9d4	0.16483241
81	0x3e30f968	0.17282641
82	0x3e3784fc	0.17921823
83	0x3e35a1f8	0.17737567
84	0x3e2cda56	0.16880164
85	0x3e29f2a0	0.1659646
86	0x3dfcab58	0.12337369
87	0x3e03e1ba	0.12879077
88	0x3de8bde0	0.11364341
89	0x3dc877c8	0.097884715
90	0x3d870340	0.06592417
91	0x3d817a60	0.06322169
92	0x3d7e0e90	0.062025607
93	0x3d9f71a8	0.0778535
94	0x3dc4f508	0.096170485
95	0x3da40278	0.080082834
96	0x3d9e46e8	0.07728368
97	0x3d5ff1c0	0.05467391
98	0x3cf77100	0.03020525
99	0x3d1578e0	0.03649223
100	0x3cef1b40	0.029187799
101	0x3cd6f380	0.026239157
102	0x3d1cc2c0	0.038271666
103	0x3cb98f40	0.022651315
104	0x3cbcd1c0	0.023049235
105	0x3d08d2a0	0.033403993
106	0x3d01ab20	0.03165734
107	0x3d31b1a0	0.043382287
108	0x3bbd2e00	0.005773306
109	0xbe302f70	-0.17205596
110	0xbe25ef88	-0.16204655
111	0xbe12a984	-0.14322478
112	0xbd61ba90	-0.05510956
113	0xbd399530	-0.045308292
114	0xbcce75c0	-0.025202632
115	0xbce3aaa0	-0.027791321
116	0xb9f60800	-0.00046926737
117	0xbc0bc340	-0.008530438
118	0xbaa2f600	-0.0012432933
119	0xbbe4d700	-0.006983638
120	0xb99b2000	-0.00029587746
121	0xbc2b1380	-0.010441661
122	0xbbb2f380	-0.0054611564
123	0xbc976940	-0.018482804
124	0xbcbc7160	-0.02300328
125	0xbd5768d0	-0.05259019
126	0xbd99c960	-0.07509112
127	0xbdbfb3c0	-0.093604565
128	0xbd933ce8	-0.07189351
129	0xbd80697c	-0.062701195
130	0xbdb1594c	-0.0865961
131	0xbdbbc052	-0.091675416
132	0xbd91406e	-0.07092367
133	0xbd6f48e3	-0.05841912
134	0xbd539a22	-0.051660664
135	0xbd20f2c6	-0.039294027
136	0xbd15b123	-0.036545884
137	0xbcbc800c	-0.023010276
138	0xbb963000	-0.0045833588
139	0xbc4577a0	-0.012052447
140	0xbaf11b80	-0.0018395036
141	0xbbe5d960	-0.0070144385
142	0xbc037a20	-0.008024722
143	0xbba58700	-0.0050514936
144	0xbb690800	-0.0035557747
145	0x3c499da0	0.012305647
146	0x3caf73f8	0.021417603
147	0x3d32c104	0.043641105
148	0x3d67800c	0.0565186
149	0x3d52e9de	0.051492564
150	0x3dac1255	0.08401934
151	0x3d8b2514	0.067941815
152	0x3c9bf2c0	0.01903665
153	0x3b43c780	0.002987355
154	0x3c798a00	0.015230656
155	0x3d4181d8	0.04724297
156	0x3d68d6f0	0.056845605
157	0x3d4a1208	0.049333602
158	0x3d80bfa8	0.062865555
159	0x3ca27d50	0.019835144
160	0xbd12de30	-0.035856426
161	0xbd82cfc4	-0.063872844
162	0xbd8db3f8	-0.06919092
163	0xbd8889a8	-0.06666881
164	0xbd8a0f10	-0.06741154
165	0xbd85cf80	-0.06533718
166	0xbd487fb5	-0.048949916
167	0xbd4eb299	-0.050463293
168	0xbdbb91e2	-0.09158684
169	0xbdfd6ed3	-0.12374654
170	0xbdb22704	-0.08698848
171	0xbd3b39c0	-0.04570937
172	0xbd036de8	-0.032087237
173	0xbcaf3740	-0.02138865
174	0x3ca76ab0	0.020436615
175	0x3ce884d0	0.028383642
176	0x3ce0e310	0.027452022
177	0x3cc50040	0.02404797
178	0x3c165dc0	0.009177625
179	0x3c3b30c0	0.011425197
180	0x3c874e30	0.016516775
181	0x3ca99a20	0.020703375
182	0x3c6781e0	0.014130086
183	0x3c88c9b0	0.016697735
184	0x3c6cf3e0	0.014462441
185	0x3b520fc0	0.0032052845
186	0xbbb2ab80	-0.0054525733
187	0xbc81b068	-0.015831187
188	0xbcd44ca0	-0.025915444
189	0xbd0692d0	-0.032854855
190	0xbd2587e8	-0.040412813
191	0xbd4e73e8	-0.050403506
192	0xbd3dc080	-0.04632616
193	0xbd2a87f8	-0.041633576
194	0xbd3ad1b0	-0.04561013
195	0xbc8962a0	-0.01677066
196	0x3c0aa780	0.008462787
197	0x3d1409d0	0.03614217
198	0x3ccef050	0.025261074
199	0x3cbf87f0	0.02338025
200	0x3cc258f0	0.02372405
201	0x3d6257f8	0.055259675
202	0x3d65c3b0	0.056094825
203	0x3d3091a8	0.04310766
204	0x3d83abac	0.06429228
205	0x3d8c53a2	0.06851889
206	0x3d41b62c	0.047292873
207	0x3d3701ab	0.044679325
208	0x3d1e4e72	0.03864903
209	0x3d6b4002	0.05743409
210	0x3d3e1e1f	0.046415444
211	0x3d2bc7c2	0.04193855
212	0x3be7d1c0	0.0070745647
213	0xbc560380	-0.013062358
214	0xbcf6cb98	-0.030126378
215	0xbc847288	-0.016167894
216	0xbc520820	-0.01281932
217	0xbc1aa4e0	-0.009438723
218	0xbc6c1220	-0.014408618
219	0xbc891af4	-0.016736485
220	0xbcba874e	-0.022769596
221	0xbc90474d	-0.017612124
222	0xbbcfb68f	-0.0063389014
223	0xbcae2fda	-0.021263052
224	0xbd2464f6	-0.040135346
225	0xbd0dec08	-0.034648925
226	0xbd464d20	-0.048413396
227	0xbd66842c	-0.056278393
228	0xbd313158	-0.04325995
229	0xbc86ea20	-0.016469061
230	0xbc3c6d20	-0.011500627
231	0xbb9b7300	-0.0047439337
232	0x3d0146f0	0.031561792
233	0x3d2aebd4	0.04172881
234	0xbc5041f0	-0.012711033
235	0xbc3b6a10	-0.0114388615
236	0x3b9ea5a0	0.0048415214
237	0x3cbee938	0.023304567
238	0x3cb82088	0.02247645
239	0x3ca11a18	0.019665763
240	0x3d2f1b90	0.042750895
241	0x3d04605a	0.03231845
242	0x3cd64428	0.026155546
243	0x3bf689b8	0.0075237416
244	0x3c50442c	0.012711566
245	0x3c83c98c	0.016087316
246	0x3ce361d2	0.027756605
247	0x3bc8ad97	0.006124209
248	0xbc91f83e	-0.017818566
249	0xbc31a504	-0.010842565
250	0xbc13bb4a	-0.009016821
251	0x3bce7ae8	0.0063012727
252	0x3d333a06	0.043756507
253	0x3e178a9d	0.1479897
254	0x3dd62172	0.10455598
255	0x3d9d34d4	0.07676092
