Simplified/data/svgp_torch_models/svgp_dim3_final.pth (torch, 131772 bytes, 8 tensors)

variational_strategy.inducing_points f4 [64, 8]
-1.3335828 1.9672176 -2.84771 -0.6568769 -1.8702564 3.7051353 -0.35642588 -0.36365676
-0.33708608 -1.026921 -1.3373399 0.6423078 1.1454303 0.44742054 -0.90192693 -1.13187
1.174895 -0.10371746 0.61276543 -0.07142137 0.462005 1.738928 -1.514757 0.5820155
-1.2394642 1.599513 -1.7118807 -0.90162355 -1.2604736 1.5398421 1.4635043 1.0840743
1.2624025 -0.026308091 1.1345625 0.67603123 0.37907103 -1.2115777 -0.97570664 -2.2862105
-1.5077957 -0.9038952 1.2681648 -1.3984407 0.9215248 -0.5723265 -1.4664328 -0.9701197
-2.3374104 1.5381479 -1.847765 -1.8501468 -1.160109 3.9463077 -1.1791723 3.6263957
0.71388245 -0.24285762 -1.9423566 -1.0950212 0.26123238 0.706424 -1.1310186 2.5438817
0.56178164 0.16500932 -1.7342756 -0.33306995 -0.64266115 -1.2891927 -0.7824228 0.5292261
-0.47422373 -0.007301123 1.4429381 0.1997794 -0.61210257 1.5437709 0.3731493 0.16333619
0.24564241 -0.89591855 -0.3269783 -0.60281265 0.8007259 -1.7600539 -0.41806853 -0.33408293
-1.926868 -0.33669698 -0.41706848 0.72801214 1.0230159 0.39389887 -0.6617597 -1.1742595
0.9490336 -0.7771727 -0.5834028 0.21265161 -0.05676164 1.2441912 -0.89671755 -0.22305156
1.8071796 1.2966862 0.62665886 3.1350968 0.070069484 0.25734738 0.23925254 0.5035739
-1.1859449 2.0743084 -2.083664 -1.0575565 -2.0784914 1.5937768 1.0840044 3.250786
1.3500142 0.09869573 -0.83890146 -0.9189234 0.60856247 0.5095809 2.6052911 0.37132257
0.96098816 -0.6325629 -0.29122493 1.5213479 0.6529429 -0.1667379 1.6117823 0.900255
-2.2810166 0.9833769 0.27619138 -3.2024758 -1.3203603 -2.2643147 1.746696 1.974165
0.3625648 -0.51858896 1.7795467 1.0916148 0.8830276 0.33504924 0.0049781958 -0.81922245
-2.0081375 2.1580958 -0.92111903 -0.87085134 -1.25781 2.1432004 -0.9838261 1.6551423
0.42716092 -0.6558203 0.8112384 0.37596992 0.19607453 0.1537135 -2.2971406 3.0615869
-1.6656002 0.61217785 2.295835 -0.9283302 -1.4771756 -1.4555349 1.7541829 0.007894409
0.15178755 1.5194278 0.5141309 1.9667139 -1.9249119 -1.2007489 1.2474447 0.63129693
-0.06505894 -0.79292744 0.7005612 0.011685147 0.43787703 -0.7602393 2.4511158 -0.6219444
-0.8399239 -0.70542467 -0.6519062 -0.8796212 -0.04922548 1.2058606 -2.0611305 -1.6753743
0.008536582 -0.6222604 -0.5476864 0.9962514 0.2787654 -0.81772435 -2.0321262 -0.40520823
-0.9388364 0.5436683 2.2603958 -0.55851454 -1.8891858 -1.0593708 -3.0744805 0.9602432
1.5660958 0.6988191 -0.117725894 0.26188523 -0.15469936 0.023786584 1.4184202 0.31785122
-0.3369611 -1.333175 0.9118814 0.38655573 0.64071727 0.32122746 -0.057201583 -0.88222724
0.6350846 -0.88780844 2.6461086 0.62888 0.6109566 -1.1501361 -0.80892617 0.35138634
0.060670026 -0.72811204 1.7153352 0.31338546 -0.023427315 -1.8037224 -0.35310107 -1.2290553
-2.4683912 -0.08024487 -0.502195 -2.0570943 -1.5591809 -0.86608154 0.88948935 -1.4350746
00000000: d7b2 aabf c9cd fb3f e140 36c0 1629 28bf
00000010: 9064 efbf f020 6d40 747d b6be 3831 babe
00000020: 8c96 acbe 2672 83bf f42d abbf 496e 243f
00000030: 769d 923f 4e14 e53e afe4 66bf 1ee1 90bf
00000040: f662 963f d269 d4bd 32de 1c3f 5e45 92bd
00000050: eb8b ec3e 3195 de3f 8fe3 c1bf f8fe 143f
00000060: c3a6 9ebf d8bc cc3f e81e dbbf cdd0 66bf
00000070: 3357 a1bf 8c19 c53f 1c54 bb3f f2c2 8a3f
00000080: 6896 a13f 1184 d7bc 5839 913f 6210 2d3f
00000090: 9915 c23e fa14 9bbf e9c7 79bf 4651 12c0
000000a0: 73ff c0bf ad65 67bf 3953 a23f 1b00 b3bf
000000b0: 0de9 6b3f fd83 12bf 12b4 bbbf c459 78bf
000000c0: 2298 15c0 08e2 c43f 9083 ecbf 9cd1 ecbf
000000d0: 747e 94bf 4e90 7c40 1eef 96bf de16 6840
000000e0: 00c1 363f abaf 78be 249f f8bf a829 8cbf
000000f0: 40c0 853e 34d8 343f 38c5 90bf f5ce 2240
00000100: ecd0 0f3f 34f8 283e befc ddbf 2588 aabe
00000110: 7185 24bf 4404 a5bf dc4c 48bf 5d7b 073f
00000120: 74cd f2be 423e efbb 32b2 b83f f992 4c3e
00000130: c1b2 1cbf 499a c53f 6d0d bf3e 9a41 273e
00000140: af89 7b3e eb5a 65bf b369 a7be ee51 1abf
00000150: 5ffc 4c3f 7249 e1bf 140d d6be eb0c abbe
00000160: 9ca3 f6bf 8c63 acbe 008a d5be 015f 3a3f
00000170: 2ff2 823f 1dad c93e 1569 29bf 234e 96bf
00000180: def3 723f caf4 46bf e359 15bf 58c1 593e
00000190: e57e 68bd a841 9f3f 488f 65bf a167 64be
000001a0: a951 e73f d0f9 a53f b76c 203f 6da5 4840
000001b0: 9780 8f3d 09c3 833e 9efe 743e 38ea 003f
000001c0: 0bcd 97bf 78c1 0440 c05a 05c0 035e 87bf
000001d0: 0106 05c0 e100 cc3f a8c0 8a3f e10c 5040
000001e0: 44cd ac3f fd20 ca3d 3fc2 56bf 903e 6bbf
000001f0: c0ca 1b3f e573 023f 17bd 2640 fe1d be3e
00000200: 5203 763f a4ef 21bf 6f1b 95be 87bb c23f
00000210: 4427 273f 57bd 2abe e24e ce3f 1d77 663f
00000220: 2dfc 11c0 97be 7b3f f568 8d3e 5df5 4cc0
00000230: 9101 a9bf 88ea 10c0 bc93 df3f 70b1 fc3f
00000240: 18a2 b93e 3fc2 04bf 30c8 e33f 09ba 8b3f
00000250: 190e 623f 938b ab3e 2220 a33b 90b8 51bf
00000260: 5385 00c0 3e1e 0a40 75ce 6bbf 1df0 5ebf
00000270: ebff a0bf 322a 0940 07dc 7bbf b4db d33f
00000280: d6b4 da3e d7e3 27bf 52ad 4f3f 217f c03e
00000290: c3c7 483e 1267 1d3e 5a04 13c0 0af1 4340
000002a0: 6332 d5bf b0b7 1c3f f6ee 1240 0ca7 6dbf
000002b0: 1714 bdbf f84e babf 1189 e03f 8d57 013c
000002c0: 326e 1b3e 9c7c c23f 159e 033f 48bd fb3f
000002d0: 8363 f6bf 24b2 99bf 45ac 9f3f ad9c 213f
000002e0: 9f3d 85bd 4bfd 4abf fb57 333f 0f73 3f3c
000002f0: 6b31 e03e 0b9f 42bf 15df 1c40 c037 1fbf
00000300: 4105 57bf b696 34bf 53e3 26bf db2e 61bf
00000310: a8a0 49bd a459 9a3f 90e9 03c0 aa72 d6bf
00000320: 05dd 0b3c 754c 1fbf 2d35 0cbf 550a 7f3f
00000330: 57ba 8e3e 6256 51bf 5b0e 02c0 7477 cfbe
00000340: 9557 70bf d92d 0b3f 53aa 1040 cffa 0ebf
00000350: d7d0 f1bf 7699 87bf 4ac4 44c0 80d2 753f
00000360: d475 c83f cfe5 323f 461a f1bd d215 863e
00000370: 8269 1ebe 15dc c23c cb8e b53f 65bd a23e
00000380: 2a86 acbe 7aa5 aabf 0f71 693f a2ea c53e
00000390: 0c06 243f ed77 a43e 354c 6abd a5d9 61bf
000003a0: e894 223f 6a47 63bf d859 2940 48fe 203f
000003b0: a767 1c3f a937 93bf c915 4fbf e9e8 b33e
000003c0: 2281 783d 8d65 3abf 1b90 db3f 0f74 a03e
000003d0: a4ea bfbc 60e0 e6bf aac9 b4be af51 9dbf
000003e0: 1ffa 1dc0 6c57 a4bd da8f 00bf 6fa7 03c0
000003f0: 3d93 c7bf 85b7 5dbf 93b5 633f 86b0 b7bf

variational_strategy._variational_distribution.variational_mean f4 [64]
1.0422101 0.60878646 -0.90424544 -2.033156 -0.96860003 1.3558627 -3.523303 0.21799237
0.1771306 -0.16184843 2.427713 -5.6999536 0.9657328 -0.5320676 -2.581504 -0.6157417
-2.3120773 2.2928998 -1.330768 -2.2235792 3.136859 2.277285 -2.7557385 0.2074659
-4.5154166 -6.593816 5.3665476 -1.9490222 2.7843907 3.1879942 5.544624 7.6848955
4.7514677 2.934068 1.333586 3.5852327 -5.6652017 7.190994 -5.5009937 0.87507373
-6.0815196 3.488807 -13.460673 6.4892282 -3.5063586 -3.0950236 -5.887805 -6.50287
-3.8794549 -7.2638073 -3.3711045 -4.967616 -1.6812412 -5.4352036 -2.9763849 -2.6184254
7.068776 3.5691905 9.318998 -9.005961 11.530168 8.847461 0.41386747 -8.580554
00000000: 2467 853f 6ed9 1b3f a17c 67bf 3a1f 02c0
00000010: 2cf6 77bf e98c ad3f cc7d 61c0 6439 5f3e
00000020: b961 353e 98bb 25be a65f 1b40 0566 b6c0
00000030: 443a 773f 9535 08bf 5d37 25c0 40a1 1dbf
00000040: 13f9 13c0 dfbe 1240 9b56 aabf 1f4f 0ec0
00000050: 4cc2 4840 0abf 1140 055e 30c0 f171 543e
00000060: 4b7e 90c0 8a00 d3c0 c2ba ab40 8f79 f9bf
00000070: 7533 3240 1908 4c40 8f6d b140 aaea f540
00000080: 060c 9840 c5c7 3b40 f2b2 aa3f 7474 6540
00000090: 5549 b5c0 9f1c e640 2408 b0c0 d504 603f
000000a0: cf9b c2c0 9d48 5f40 eb5e 57c1 c2a7 cf40
000000b0: 2e68 60c0 de14 46c0 e668 bcc0 8317 d0c0
000000c0: fd48 78c0 1c71 e8c0 2dc0 57c0 b6f6 9ec0
000000d0: e932 d7bf 30ed adc0 177d 3ec0 4894 27c0
000000e0: 6a33 e240 9e6d 6440 9e1a 1541 6b18 10c1
000000f0: 917b 3841 338f 0d41 70e6 d33e f349 09c1

variational_strategy._variational_distribution.chol_variational_covar f4 [64, 64]
0.011216534 0.0 0.0 0.0 0.0 0.0 0.0 0.0
0.0 0.0 0.0 0.0 0.0 0.0 0.0 0.0
0.0 0.0 0.0 0.0 0.0 0.0 0.0 0.0
0.0 0.0 0.0 0.0 0.0 0.0 0.0 0.0
0.0 0.0 0.0 0.0 0.0 0.0 0.0 0.0
0.0 0.0 0.0 0.0 0.0 0.0 0.0 0.0
0.0 0.0 0.0 0.0 0.0 0.0 0.0 0.0
0.0 0.0 0.0 0.0 0.0 0.0 0.0 0.0
0.005173171 0.021683892 0.0 0.0 0.0 0.0 0.0 0.0
0.0 0.0 0.0 0.0 0.0 0.0 0.0 0.0
0.0 0.0 0.0 0.0 0.0 0.0 0.0 0.0
0.0 0.0 0.0 0.0 0.0 0.0 0.0 0.0
0.0 0.0 0.0 0.0 0.0 0.0 0.0 0.0
0.0 0.0 0.0 0.0 0.0 0.0 0.0 0.0
0.0 0.0 0.0 0.0 0.0 0.0 0.0 0.0
0.0 0.0 0.0 0.0 0.0 0.0 0.0 0.0
-0.0013909057 -0.011904307 0.012714416 0.0 0.0 0.0 0.0 0.0
0.0 0.0 0.0 0.0 0.0 0.0 0.0 0.0
0.0 0.0 0.0 0.0 0.0 0.0 0.0 0.0
0.0 0.0 0.0 0.0 0.0 0.0 0.0 0.0
0.0 0.0 0.0 0.0 0.0 0.0 0.0 0.0
0.0 0.0 0.0 0.0 0.0 0.0 0.0 0.0
0.0 0.0 0.0 0.0 0.0 0.0 0.0 0.0
0.0 0.0 0.0 0.0 0.0 0.0 0.0 0.0
-0.004316464 0.003313607 -0.0003138997 -0.01674961 0.0 0.0 0.0 0.0
0.0 0.0 0.0 0.0 0.0 0.0 0.0 0.0
0.0 0.0 0.0 0.0 0.0 0.0 0.0 0.0
0.0 0.0 0.0 0.0 0.0 0.0 0.0 0.0
0.0 0.0 0.0 0.0 0.0 0.0 0.0 0.0
0.0 0.0 0.0 0.0 0.0 0.0 0.0 0.0
0.0 0.0 0.0 0.0 0.0 0.0 0.0 0.0
0.0 0.0 0.0 0.0 0.0 0.0 0.0 0.0
00000000: 8ec5 373c 0000 0000 0000 0000 0000 0000
00000010: 0000 0000 0000 0000 0000 0000 0000 0000
00000020: 0000 0000 0000 0000 0000 0000 0000 0000
00000030: 0000 0000 0000 0000 0000 0000 0000 0000
00000040: 0000 0000 0000 0000 0000 0000 0000 0000
00000050: 0000 0000 0000 0000 0000 0000 0000 0000
00000060: 0000 0000 0000 0000 0000 0000 0000 0000
00000070: 0000 0000 0000 0000 0000 0000 0000 0000
00000080: 0000 0000 0000 0000 0000 0000 0000 0000
00000090: 0000 0000 0000 0000 0000 0000 0000 0000
000000a0: 0000 0000 0000 0000 0000 0000 0000 0000
000000b0: 0000 0000 0000 0000 0000 0000 0000 0000
000000c0: 0000 0000 0000 0000 0000 0000 0000 0000
000000d0: 0000 0000 0000 0000 0000 0000 0000 0000
000000e0: 0000 0000 0000 0000 0000 0000 0000 0000
000000f0: 0000 0000 0000 0000 0000 0000 0000 0000
00000100: b483 a93b 6ba2 b13c 0000 0000 0000 0000
00000110: 0000 0000 0000 0000 0000 0000 0000 0000
00000120: 0000 0000 0000 0000 0000 0000 0000 0000
00000130: 0000 0000 0000 0000 0000 0000 0000 0000
00000140: 0000 0000 0000 0000 0000 0000 0000 0000
00000150: 0000 0000 0000 0000 0000 0000 0000 0000
00000160: 0000 0000 0000 0000 0000 0000 0000 0000
00000170: 0000 0000 0000 0000 0000 0000 0000 0000
00000180: 0000 0000 0000 0000 0000 0000 0000 0000
00000190: 0000 0000 0000 0000 0000 0000 0000 0000
000001a0: 0000 0000 0000 0000 0000 0000 0000 0000
000001b0: 0000 0000 0000 0000 0000 0000 0000 0000
000001c0: 0000 0000 0000 0000 0000 0000 0000 0000
000001d0: 0000 0000 0000 0000 0000 0000 0000 0000
000001e0: 0000 0000 0000 0000 0000 0000 0000 0000
000001f0: 0000 0000 0000 0000 0000 0000 0000 0000
00000200: 0d4f b6ba 480a 43bc 2050 503c 0000 0000
00000210: 0000 0000 0000 0000 0000 0000 0000 0000
00000220: 0000 0000 0000 0000 0000 0000 0000 0000
00000230: 0000 0000 0000 0000 0000 0000 0000 0000
00000240: 0000 0000 0000 0000 0000 0000 0000 0000
00000250: 0000 0000 0000 0000 0000 0000 0000 0000
00000260: 0000 0000 0000 0000 0000 0000 0000 0000
00000270: 0000 0000 0000 0000 0000 0000 0000 0000
00000280: 0000 0000 0000 0000 0000 0000 0000 0000
00000290: 0000 0000 0000 0000 0000 0000 0000 0000
000002a0: 0000 0000 0000 0000 0000 0000 0000 0000
000002b0: 0000 0000 0000 0000 0000 0000 0000 0000
000002c0: 0000 0000 0000 0000 0000 0000 0000 0000
000002d0: 0000 0000 0000 0000 0000 0000 0000 0000
000002e0: 0000 0000 0000 0000 0000 0000 0000 0000
000002f0: 0000 0000 0000 0000 0000 0000 0000 0000
00000300: 2071 8dbb 1a29 593b e892 a4b9 7a36 89bc
00000310: 0000 0000 0000 0000 0000 0000 0000 0000
00000320: 0000 0000 0000 0000 0000 0000 0000 0000
00000330: 0000 0000 0000 0000 0000 0000 0000 0000
00000340: 0000 0000 0000 0000 0000 0000 0000 0000
00000350: 0000 0000 0000 0000 0000 0000 0000 0000
00000360: 0000 0000 0000 0000 0000 0000 0000 0000
00000370: 0000 0000 0000 0000 0000 0000 0000 0000
00000380: 0000 0000 0000 0000 0000 0000 0000 0000
00000390: 0000 0000 0000 0000 0000 0000 0000 0000
000003a0: 0000 0000 0000 0000 0000 0000 0000 0000
000003b0: 0000 0000 0000 0000 0000 0000 0000 0000
000003c0: 0000 0000 0000 0000 0000 0000 0000 0000
000003d0: 0000 0000 0000 0000 0000 0000 0000 0000
000003e0: 0000 0000 0000 0000 0000 0000 0000 0000
000003f0: 0000 0000 0000 0000 0000 0000 0000 0000

covar_module.base_kernel.raw_lengthscale f4 [1, 8]
2.5882287 0.76279247 4.443298 7.5770254 0.5376528 3.6584346 8.926725 7.978344
00000000: 8aa5 2540 5e46 433f 7f2f 8e40 fe76 f240
00000010: 9da3 093f cb23 6a40 ded3 0e41 984e ff40

X_mean f4 [8]
0.3464935 0.680924 -0.008154854 -0.000109304194 1.1980828 -0.0121869 0.49334446 0.5003842
00000000: 9967 b13e 0951 2e3f f09b 05bc 3e3a e5b8
00000010: c75a 993f 90ab 47bc a597 fc3e 2e19 003f

X_std f4 [8]
0.1502985 0.17045628 0.67917067 0.53205806 2.8845732 6.964968 0.43836135 0.44416365
00000000: dae7 193e 178c 2e3e 21de 2d3f f534 083f
00000010: d99c 3840 05e1 de40 e670 e03e 6b69 e33e

X f4 [2910, 8]
0.675 1.00125 0.0 0.0 1.5707964 0.0 0.00046126594 0.00011263681
0.67488885 0.99683857 -0.01356568 -0.29403117 1.570915 0.012647456 0.0011492609 0.0013906785
0.67282957 0.97724426 -0.101977505 -0.6855 1.5725324 0.08076054 0.0014891545 0.00063185726
0.66637486 0.9420073 -0.23642452 -1.07604 1.5775876 0.18253028 0.003817405 0.0012822183
0.6531135 0.89113975 -0.43296164 -1.4687195 1.5873177 0.30078456 0.003661311 0.000609995
0.63145196 0.8243832 -0.6573557 -1.8678266 1.6023744 0.47188267 0.0043737073 0.00157607
0.599075 0.7424941 -1.0204107 -2.193974 1.629715 1.0165879 0.00023981194 0.006204751
0.5392432 0.66351813 -1.8275249 -1.7971561 1.8584008 9.951597 0.007059937 0.0028057972
0.4582495 0.59664154 -2.2434425 -1.4955089 2.33805 13.106073 0.005431812 0.007082628
0.36126652 0.54623705 -2.6042519 -0.9533639 2.871529 13.575316 0.0055177836 0.0066438536
0.2533702 0.52216184 -2.743544 -0.24499752 3.4228323 13.846955 0.006044305 0.0046421336
0.14453027 0.527934 -2.6388996 0.5287213 3.9097624 9.759178 0.004194337 0.0037821971
0.046432734 0.5618672 -2.232258 1.1134546 4.184531 4.2675714 0.011742613 0.0069652707
-0.03232468 0.6127344 -1.6884918 1.3835863 4.297059 2.0308485 0.0049182135 0.007117738
-0.0879524 0.66958606 -1.0934404 1.4294593 4.3838887 2.3703153 0.010582643 0.010357813
-0.119489096 0.7248452 -0.4856733 1.3047074 4.488761 2.859882 0.0070727277 0.015595615
-0.12791565 0.7718184 0.040240802 1.0219381 4.612781 3.289854 0.007201564 0.012254604
-0.11813378 0.80519223 0.4298779 0.63250715 4.7520537 3.64855 0.013511693 0.009874508
-0.09511311 0.8216179 0.6999968 0.18150601 4.903766 3.9350739 0.004171202 0.009926544
-0.06373153 0.8191436 0.8383241 -0.31237885 5.0637403 4.0410748 0.015248479 0.011054972
-0.02901851 0.79666054 0.8928367 -0.81056136 5.2248893 3.9772515 0.0019084556 0.0001383165
0.00808727 0.7554459 0.9818218 -1.1992381 5.334238 -1.0147661 0.0131454775 0.004038272
0.048968427 0.70074975 1.0647092 -1.5378915 5.138908 -8.207812 0.013483693 0.014791964
0.09445432 0.6334614 1.2284093 -1.802328 4.711989 -12.808876 0.008460153 0.020162035
0.14907084 0.56038666 1.5347495 -1.7355523 4.1117315 -17.52671 0.009209795 0.013651635
0.21634036 0.5131764 1.7445723 -0.34517682 3.302889 -21.059332 0.0026906682 0.014554741
0.28093714 0.51911545 1.5305191 0.393674 2.4902372 -19.25623 0.02300445 0.01172936
0.3430898 0.549698 1.5836564 0.9400888 2.0384076 -3.9826813 0.018864695 0.00425925
0.40596324 0.58359766 1.5474157 0.7259836 1.9779847 -0.14796449 0.01722257 0.007944399
0.46597987 0.6080519 1.4235294 0.5403314 2.0068953 1.9968281 0.020963896 0.02038851
0.5149907 0.6343811 0.98457444 0.80877024 2.1818025 5.894579 0.0030435936 0.023273734
0.54825175 0.6672282 0.71409184 0.7682836 2.4230025 6.0545425 0.022531567 0.02477602
00000000: cdcc 2c3f f628 803f 0000 0000 0000 0000
00000010: db0f c93f 0000 0000 11d6 f139 6d37 ec38
00000020: 84c5 2c3f d030 7f3f 9642 5ebc 418b 96be
00000030: be13 c93f 4637 4f3c cca2 963a 6d47 b63a
00000040: 8f3e 2c3f ae2c 7a3f 95d9 d0bd ee7c 2fbf
00000050: be48 c93f c865 a53d bc2f c33a 39a3 253a
00000060: 8b97 2a3f 6427 713f 4519 72be aebb 89bf
00000070: 64ee c93f 38e9 3a3e 6e2d 7a3b 1b10 a83a
00000080: 7232 273f bc21 643f 26ad ddbe 00ff bbbf
00000090: 3a2d cb3f 6f00 9a3e 9bf2 6f3b 12e8 1f3a
000000a0: d6a6 213f c70a 533f 7748 28bf f114 efbf
000000b0: 9b1a cd3f 9b9a f13e 5151 8f3b 2294 ce3a
000000c0: fb5c 193f 1814 3e3f d19c 82bf 126a 0cc0
000000d0: 809a d03f 8d1f 823f 0776 7b39 3951 cb3b
000000e0: d80b 0a3f 53dc 293f 56ec e9bf 3609 e6bf
000000f0: 14e0 ed3f be39 1f41 0b57 e73b 77e1 373b
00000100: ae9f ea3e 80bd 183f 9094 0fc0 d66c bfbf
00000110: 9ca2 1540 7ab2 5141 57fd b13b 6415 e83b
00000120: edf7 b83e 31d6 0b3f 10ac 26c0 a80f 74bf
00000130: 22c7 3740 7f34 5941 86ce b43b afb4 d93b
00000140: bdb9 813e 66ac 053f 3a96 2fc0 a1e0 7abe
00000150: af0f 5b40 218d 5d41 4e0f c63b 0a1d 983b
00000160: beff 133e af26 073f bbe3 28c0 475a 073f
00000170: 8c39 7a40 9825 1c41 a670 893b bdde 773b
00000180: 4030 3e3d 87d6 0f3f 51dd 0ec0 ae85 8e3f
00000190: aee7 8540 f28f 8840 1764 403c ed3c e43b
000001a0: e266 04bd 29dc 1c3f 8020 d8bf 5b19 b13f
000001b0: 8281 8940 6cf9 0140 f728 a13b ea3b e93b
000001c0: 6320 b4bd fe69 2b3f dbf5 8bbf 86f8 b63f
000001d0: d148 8c40 3fb3 1740 d262 2d3c d1b3 293c
000001e0: b3b6 f4bd 748f 393f 2caa f8be a700 a73f
000001f0: eea3 8f40 4f08 3740 57c2 e73b c084 7f3c
00000200: 52fc 02be e495 453f 8ad3 243d dece 823f
00000210: e79b 9340 f88c 5240 19fb eb3b 89c7 483c
00000220: 20f0 f1bd 1421 4e3f f518 dc3e fdeb 213f
00000230: d310 9840 d881 6940 2660 5d3c b0c8 213c
00000240: aaca c2bd 8d55 523f fe32 333f b6dc 393e
00000250: a7eb 9c40 40d8 7b40 94ae 883b f1a2 223c
00000260: ad85 82bd 65b3 513f 699c 563f 1ff0 9fbe
00000270: 290a a240 7c50 8140 c2d4 793c ea1f 353c
00000280: 3ab8 edbc f2f1 4b3f f290 643f f380 4fbf
00000290: 4b32 a740 4a8b 7e40 2525 fa3a 0e09 1139
000002a0: 7880 043c e764 413f ac58 7b3f a280 99bf
000002b0: 14b2 aa40 dbe3 81bf 2160 573c 7b53 843b
000002c0: 1e93 483d 5664 333f 6448 883f a1d9 c4bf
000002d0: ef71 a440 3353 03c1 b5ea 5c3c fe59 723c
000002e0: 4471 c13d 872a 223f 843c 9d3f afb2 e6bf
000002f0: 9dc8 9640 28f1 4cc1 749c 0a3c da2a a53c
00000300: 07a6 183e 8075 0f3f ac72 c43f 9426 debf
00000310: 4e93 8340 b436 8cc1 aee4 163c 1bab 5f3c
00000320: 5488 5d3e 875f 033f 254e df3f 04bb b0be
00000330: 8962 5340 8379 a8c1 ec55 303b 0277 6e3c
00000340: fed6 8f3e c0e4 043f 0de8 c33f a38f c93e
00000350: 0c60 1f40 c20c 9ac1 d473 bc3c 802c 403c
00000360: 77a9 af3e 02b9 0c3f 41b5 ca3f a9a9 703f
00000370: 4575 0240 40e4 7ec0 228a 9a3c 2e91 8b3b
00000380: 6ada cf3e a866 153f b811 c63f 10da 393f
00000390: 9a2e fd3f 0184 17be 5916 8d3c 3929 023c
000003a0: ea94 ee3e 4aa9 1b3f 3636 b63f 2953 0a3f
000003b0: f970 0040 1098 ff3f 7abc ab3c ce05 a73c
000003c0: 6ed6 033f cd66 223f 120d 7c3f 910b 4f3f
000003d0: a7a2 0b40 64a0 bc40 0777 473b 8fa8 be3c
000003e0: 3a5a 0c3f 78cf 2a3f b9ce 363f 3cae 443f
000003f0: 7912 1b40 d0be c140 1f94 b83c 14f7 ca3c

Y f4 [2910]
0.0 -0.09796518 -0.09775782 -0.0975467 -0.100091934 -0.09593713 0.08092952 0.038812757
0.08941662 0.1752441 0.19263035 0.17589533 0.095172524 0.028067708 -0.01479876 -0.057653546
-0.08901864 -0.1083675 -0.119399846 -0.1250242 -0.122523546 -0.082128406 -0.07874 -0.037946463
0.1730851 0.35031757 0.20109627 -0.036379993 -0.06416345 0.04512757 0.037783504 -0.037961185
-0.04787755 -0.076677084 -0.07734136 -0.06044641 -0.043732494 -0.03594923 -0.039051056 0.021611571
0.038325906 0.020529747 0.070928276 0.08684695 0.058140963 0.028749466 0.030192018 0.0063441396
-0.031432033 -0.054566354 -0.06980186 -0.07016658 -0.06314865 -0.043637216 -0.011588275 0.04097873
0.10547274 0.08411516 0.06079182 0.039076567 0.01101625 0.0054237843 -0.008815408 -0.030702949
-0.03977266 -0.04542458 -0.04892301 -0.051451713 -0.0462552 -0.03301555 -0.007834792 0.008016348
0.017704189 0.037939876 0.053255156 0.050333187 0.04194565 0.027824968 0.008342773 -0.0085966885
-0.010368377 -0.019466847 -0.03616195 -0.052122697 -0.050084114 -0.04147759 -0.010536671 0.039456278
0.092163995 0.065487616 0.03984669 0.017455965 0.005470693 0.0039753616 -0.00799787 -0.02474907
-0.036985964 -0.043692 -0.044876706 -0.039404646 -0.029116482 -0.018418193 -0.0056090355 0.004300952
0.019845188 0.03200981 0.037764803 0.036457065 0.02975785 0.018509805 0.021051943 0.0016085505
-0.022241026 -0.03960949 -0.046181947 -0.03896658 -0.029974371 0.0010799766 0.027059704 0.047421724
0.046292745 0.033092514 0.02999264 0.020144016 0.0062538087 -0.0049149394 -0.014735699 -0.027093261
-0.033189073 -0.034649942 -0.030878857 -0.029239744 -0.024341106 -0.019987583 0.0052113235 0.015936047
0.022116393 0.02212824 0.024580076 0.029361015 0.028879367 0.021127969 -0.0012501478 -0.019000351
-0.028090306 -0.027765099 -0.02348812 -0.014411002 -0.004714906 0.00907214 0.021214962 0.033185177
0.034075297 0.027713746 0.020374954 0.0067902803 -0.0019948184 -0.011652857 -0.020163983 -0.028430477
-0.030448016 -0.031124685 -0.026275516 -0.021762699 -0.014378369 -0.0017234385 0.0066221952 0.013068736
0.02092351 0.023005858 0.0227893 0.019274876 0.010014772 0.0026031435 -0.005746469 -0.01177296
-0.002905652 -0.005048882 -0.01647454 -0.023966819 -0.014750421 0.009277552 0.029886931 0.03903659
0.029152974 0.010759503 0.000815928 -0.0048395097 -0.003650844 -0.010804623 -0.015627995 -0.018735565
-0.017821083 -0.019615449 -0.022237912 -0.014048502 -0.0044534504 0.0052045584 0.00741075 0.0061413944
0.012523532 0.018171854 0.016728524 0.01060063 0.016031161 0.006810896 -0.0083827 -0.014927268
-0.021905184 -0.009672463 -0.004068926 0.0069650114 0.016188808 0.016762888 0.013388686 0.012291148
0.010325462 0.007348329 0.0026163459 -0.0020324588 -0.009393528 -0.011040255 -0.014232792 -0.018523563
-0.021131815 -0.017389089 -0.011348695 -0.008154184 0.00021508336 0.001738593 0.0057234615 0.013745129
0.009626858 0.012656957 0.01414564 0.0054604746 -0.00095611066 -0.003528837 -0.0039914222 -0.0068202885
0.0021645725 -0.00033015013 -0.00707067 -0.0083156 -5.1442534e-05 0.008214172 0.024690159 0.022132881
0.006873846 -0.00073833764 -0.00051932037 -0.0002848953 -0.0071203858 -0.009161726 -0.010801196 -0.017505698
00000000: 0000 0000 f8a1 c8bd 4035 c8bd 90c6 c7bd
00000010: 00fd ccbd b07a c4bd 60be a53d 20fa 1e3d
00000020: 1020 b73d 3073 333e e440 453e e81d 343e
00000030: d0e9 c23d 40ee e53c 8076 72bc 2026 6cbd
00000040: 684f b6bd c8ef ddbd e887 f4bd 5806 00be
00000050: a0ed fabd f032 a8bd 7042 a1bd c06d 1bbd
00000060: 383d 313e d35c b33e 2eec 4d3e 3003 15bd
00000070: 2068 83bd b0d7 383d e0c2 1a3d 307d 1bbd
00000080: 401b 44bd e008 9dbd 2665 9ebd a896 77bd
00000090: d820 33bd 803f 13bd 00f4 1fbd c00a b13c
000000a0: a0fb 1c3d 002e a83c d842 913d d0dc b13d
000000b0: 3825 6e3d 0084 eb3c 4055 f73c 80e2 cf3b
000000c0: e0be 00bd f880 5fbd 47f4 8ebd 7fb3 8fbd
000000d0: 1454 81bd f0bc 32bd c0dc 3dbc 50d9 273d
000000e0: 1802 d83d 9244 ac3d d800 793d c00e 203d
000000f0: 807d 343c 00ba b13b 806e 10bc c084 fbbc
00000100: a8e8 22bd 200f 3abd 7e63 48bd 08bf 52bd
00000110: 1876 3dbd 503b 07bd 805d 00bc 0057 033c
00000120: 6008 913c d866 1b3d 1422 5a3d 2c2a 4e3d
00000130: 34cf 2b3d 30f1 e33c 20b0 083c 20d9 0cbc
00000140: 20e0 29bc f078 9fbc 8e1e 14bd 9c7e 55bd
00000150: 0025 4dbd 68e4 29bd 00a2 2cbc e89c 213d
00000160: 7ac0 bc3d 5f1e 863d 4836 233d d0ff 8e3c
00000170: 8043 b33b c043 823b 8009 03bc 90be cabc
00000180: 987e 17bd 62f6 32bd a3d0 37bd c466 21bd
00000190: b085 eebc c0e1 96bc 00cc b7bb 00ef 8c3b
000001a0: 6092 a23c b81c 033d 44af 1a3d 0154 153d
000001b0: bcc6 f33c e0a1 973c 2075 ac3c 00d6 d23a
000001c0: d032 b6bc 903d 22bd 4829 3dbd 6c9b 1fbd
000001d0: d08c f5bc 008e 8d3a 50ac dd3c 483d 423d
000001e0: 769d 3d3d 048c 073d 20b3 f53c 1005 a53c
000001f0: c0ec cc3b 800d a1bb 006e 71bc b0f2 ddbc
00000200: 44f1 07bd 19ed 0dbd a8f5 fcbc 3088 efbc
00000210: 0067 c7bc 00bd a3bc c0c3 aa3b 508c 823c
00000220: 702d b53c 4846 b53c 285c c93c 8386 f03c
00000230: 6c94 ec3c 9014 ad3c 00dc a3ba a0a6 9bbc
00000240: a41d e6bc a273 e3bc 286a c0bc 201c 6cbc
00000250: 807f 9abb 50a3 143c 00cb ad3c 2eed 073d
00000260: 8a92 0b3d f007 e33c 60e9 a63c 0081 de3b
00000270: 80bb 02bb a0eb 3ebc f02e a5bc 08e7 e8bc
00000280: 1e6e f9bc 32f9 febc c03f d7bc b047 b2bc
00000290: 4093 6bbc 00e5 e1ba 00ff d83b 401e 563c
000002a0: c867 ab3c c876 bc3c a0b0 ba3c 58e6 9d3c
000002b0: 0015 243c 8099 2a3b e04c bcbb 60e3 40bc
000002c0: c06c 3ebb 1871 a5bb 9df5 86bc 1056 c4bc
000002d0: c0ab 71bc e000 183c 70d5 f43c d5e4 1f3d
000002e0: 38d2 ee3c a048 303c 00e4 553a c094 9ebb
000002f0: 0043 6fbb e005 31bc 4806 80bc 547b 99bc
00000300: 85fd 91bc 94b0 a0bc 482c b6bc b02b 66bc
00000310: 40ee 91bb 008b aa3b e0d5 f23b c03d c93b
00000320: 802f 4d3c 24dd 943c 420a 893c 44ae 2d3c
00000330: c853 833c f02d df3b 9857 09bc 8091 74bc
00000340: 8072 b3bc 4079 1ebc a054 85bb c03a e43b
00000350: 649e 843c 5352 893c 385c 5b3c d060 493c
00000360: 202c 293c 40ca f03b 0077 2b3b 0033 05bb
00000370: 50e7 19bc 30e2 34bc a830 69bc babe 97bc
00000380: a11c adbc 9073 8ebc e0ef 39bc 2099 05bc
00000390: 0088 6139 80e1 e33a e08b bb3b 4033 613c
000003a0: f8b9 1d3c 205f 4f3c 1dc3 673c c8ed b23b
000003b0: 80a3 7aba 1044 67bb 7aca 82bb ba7c dfbb
000003c0: 80db 0d3b 0018 adb9 14b1 e7bb 283e 08bc
000003d0: 00c4 57b8 bc94 063c 0443 ca3c 0450 b53c
000003e0: 003e e13b 008d 41ba 0023 08ba 005e 95b9
000003f0: 2052 e9bb 101b 16bc 80f7 30bc 1c68 8fbc
