Simplified/data/svgp_torch_models/svgp2_dim0.pth (torch, 160053 bytes, 8 tensors)

variational_strategy.inducing_points f4 [64, 8]
00000000: 300f 3fc0 c103 8240 34f9 d6bf 06ac 0540
00000010: 1a2b 92c0 9eb6 9d3f f159 8a3f 2ea9 8f3f
00000020: 1ec6 fe3e 7307 a83f 17a3 d23d 1597 0540
00000030: 10b4 dbbf 235e 0cbf 9195 1240 6a4c 6f3f
00000040: 066b 0940 b5a3 273f 6998 3b3f 61b6 953f
00000050: c02e 413e 4abe 27c0 7681 a6bf 4354 aebf
00000060: 3d66 9ebe 7d9c 133e 3754 cebe 4e5c 17c0
00000070: e1fd 053f 6518 85be 1333 d63f 46b4 2340
00000080: 6a1f 96bf aa44 27c0 649a 4bbf 22df 0d3f
00000090: 6617 283f ab24 b6bf ca57 bebc f55b 303f
000000a0: 1cfe a73f ffe6 053d 653c f13e 282e 813e
000000b0: 6c0d ab3f be69 9d40 f022 03be 7930 1ebc
000000c0: a769 1540 b1d8 7dbf 0199 8cbd ddfb 8abf
000000d0: b117 1bbf 9a88 0ac0 cee5 ce3f 60b8 fc3d
000000e0: 48ae 243e 8b0a 8abe 11f9 593f 858e 063f
000000f0: 0274 433f 7a1b bdbe 7533 6640 9b49 10c0
00000100: dc9a 1dbf cc35 acbe 5f60 0f3f 1e2c 81be
00000110: 47a6 58bf fc35 513f 094e 14c0 73a5 c3be
00000120: e392 303f 20f1 0e40 d98a 4bbf a4cb b9bf
00000130: d670 8ebf e504 b73e 790a 683f 7ab4 8fbf
00000140: 52bc 3ebf ee17 0a40 4dd3 b1bf 9dbc d53e
00000150: 2767 3fc0 ed95 9bbf 200f d3bf d290 7f40
00000160: 09ed 14bf 0641 12c0 d7b0 a73f 56ca aa3f
00000170: 7ebd 9d3f ccdc 93bf e47c 1fc0 2e26 53bf
00000180: 575e edbf 79c6 c4be 8b11 523f 48d6 f4be
00000190: 819e 843f 33bd 5ebf 5554 d5bf bf2c 283f
000001a0: 4d83 723f 9fcf 4440 ce39 84bf 150c 0440
000001b0: d4cc ec3e 7015 783f f120 1d40 9b16 533f
000001c0: 1006 c93f 03c8 1d3d d8a5 ba3e 5195 573f
000001d0: ac17 303f 20bc bfbe 9582 8440 bac4 2f40
000001e0: 9ff0 433f 261d ea3e 5aeb a9bf 8b4b 51be
000001f0: 2dd7 d23e 2b51 803e ac7f 003f 7afc 0cbf
00000200: a6ce 88bf 7778 ff3e fd8f 09c0 d8a0 07bf
00000210: 391d 0ebf a1c2 8340 bb13 0b3f 033f 3d40
00000220: 7012 46c0 7a3d 4240 c1da 0ec0 586e 98c0
00000230: 2c11 7ebf d012 01c0 aace 3240 6fba e23f
00000240: 2e9f 213f ac0b 6abe 5596 c4bf 2db4 92c0
00000250: 5071 8fbe 54c6 aa3f 851d 81bf 3dbe 1740
00000260: 609a 8f3f d25d af3f ebd9 b23f 9e75 cfbf
00000270: 076e dc3e ab9b 5740 bcfe a040 fb73 693f
00000280: a65c b8bf 1578 2640 6afa 1ec0 7b41 a3bf
00000290: af4d 38c0 18aa 7540 312b 0240 5191 75bf
000002a0: bc90 0b3f 5bf2 41bf 4da3 c33f f270 1bbf
000002b0: c758 783e aed1 263e dc2e 09bf 7f84 123f
000002c0: e178 613f 205f c6bf 96c8 20c0 bb38 66be
000002d0: c070 bcbf ec83 a2be 9775 bdbf e944 c7bf
000002e0: 86e3 f1bc a3d1 92bf ad5a 06bd 96b2 0bbf
000002f0: ff81 173f 288e 0c40 8498 9dbf 1719 8e40
00000300: 6ef8 d3bf 06c5 023f 39a0 d13f 6a97 283f
00000310: 471e 34bf 7371 c23f 560f 1a40 befb e63f
00000320: 11d1 35c0 2dcb cb3f b497 853f c605 c7c0
00000330: 9228 2fc0 c2c9 d5bf f972 233f 64d8 bc3f
00000340: 9031 20bf 4e74 3b40 eb9d de3f e198 69bf
00000350: e21d ba3f b5a6 df3f 2418 3140 482c 3240
00000360: e423 14c0 0a43 493e 66f8 2940 714f 47c0
00000370: a848 763b feac 1ec0 54a8 30c0 53dd 7cbf
00000380: b513 2540 67e9 f13f 8ab7 a23e e4f9 9940
00000390: 6352 a3be aedd 6bbc ec8c 693f 088f 64bf
000003a0: f676 78bf af0e a0bf 68fe c83f 2461 463f
000003b0: 0b40 c7be 3031 86c0 1c74 98be fd5b 8840
000003c0: 1ca3 91bf 485a 03bf e92a 0fbf ec6d 0940
000003d0: 7f39 263e b6c9 1ebf 93a7 f13f 0706 5d40
000003e0: e1c3 0bbf f221 6840 c70f 1bc0 9267 4ec0
000003f0: 8228 92bf e99b 8dbf e293 92bf a128 793f
-2.985302 4.0629582 -1.6794801 2.0886245 -4.5677614 1.2321355 1.0808698 1.1223505
0.49760526 1.3127273 0.10285013 2.0873463 -1.7164326 -0.5483114 2.2903788 0.93475974
2.1471572 0.6548417 0.73279434 1.1696283 0.1886549 -2.6209893 -1.3008258 -1.3619465
-0.30937377 0.14415164 -0.40298626 -2.3650088 0.52340513 -0.25995174 1.6734337 2.557878
-1.1728337 -2.613566 -0.79532456 0.554186 0.65660703 -1.422994 -0.02323522 0.68890315
1.3124423 0.032691 0.4711639 0.25230527 1.3363471 4.919158 -0.12806296 -0.0096551115
2.3345735 -0.9915877 -0.06865121 -1.0858113 -0.60583025 -2.1645875 1.6163881 0.12339854
0.16082108 -0.2696117 0.8514567 0.5256122 0.7634889 -0.36935025 3.5968907 -2.2544925
-0.6156442 -0.33634794 0.56006426 -0.2522897 -0.8462872 0.81723 -2.317263 -0.38212165
0.6897413 2.233467 -0.7950874 -1.4515271 -1.1128185 0.35745922 0.9064098 -1.1226952
-0.74506104 2.1577106 -1.3892609 0.41745463 -2.990671 -1.2155129 -1.6488991 3.9932141
-0.58174187 -2.2852187 1.3100842 1.3342998 1.2323453 -1.1551757 -2.4919977 -0.8248013
-1.8544415 -0.38432673 0.8205802 -0.47819734 1.0360872 -0.87007445 -1.6666361 0.6569328
0.947316 3.0751722 -1.033014 2.0632374 0.4625002 0.9690771 2.4551356 0.8245637
1.5704975 0.038520824 0.36454654 0.84212214 0.6878612 -0.37448215 4.14094 2.7463822
0.76539034 0.45725363 -1.3274949 -0.20438974 0.4117979 0.25061926 0.5019481 -0.5507275
-1.0688064 0.49896595 -2.1494133 -0.52979803 -0.5551334 4.1175084 0.5432698 2.956971
-3.0948753 3.0350022 -2.2321017 -4.7634697 -0.9924495 -2.0167732 2.7938638 1.7713145
0.63133514 -0.22856015 -1.5358378 -4.584494 -0.28016138 1.3341775 -1.0087134 2.3709862
1.1218987 1.3700507 1.3972753 -1.6207769 0.43052694 3.3688762 5.0310955 0.911926
-1.4403274 2.6010792 -2.484034 -1.2754358 -2.8797414 3.8385067 2.0338862 -0.9592486
0.5451772 -0.7576043 1.528421 -0.60719216 0.24252616 0.16290924 -0.53587127 0.57233423
0.8807507 -1.549778 -2.5122428 -0.22482578 -1.4721909 -0.31741273 -1.480151 -1.5567905
-0.029527437 -1.1470226 -0.03280132 -0.54569376 0.59182733 2.1961765 -1.2312169 4.4405627
-1.656019 0.51081884 1.6377021 0.6585604 -0.703587 1.5190872 2.407186 1.8045576
-2.8408854 1.5921379 1.0436921 -6.219455 -2.7368512 -1.6702197 0.6384731 1.4753537
-0.62575626 2.9289737 1.7391943 -0.912489 1.454037 1.747275 2.7670984 2.7839527
-2.3146906 0.1965448 2.655786 -3.1142237 0.0037579928 -2.4793086 -2.760274 -0.98775214
2.5793278 1.8899354 0.31780654 4.811754 -0.31898794 -0.014396114 0.91230655 -0.8928075
-0.9705652 -1.2504481 1.5702639 0.77491975 -0.38916048 -4.1935043 -0.29776084 4.261229
-1.1377902 -0.51309633 -0.5592485 2.147334 0.1623287 -0.62026536 1.8879265 3.4534929
-0.5459576 3.6270719 -2.422838 -3.2250714 -1.1418612 -1.1063205 -1.145138 0.9732762

variational_strategy._variational_distribution.variational_mean f4 [64]
00000000: 4fa4 0ec0 34d0 2a40 6cc5 4b3f 6488 07c0
00000010: 7178 c4bf 55f2 bb3f acf3 27c0 dd95 5e40
00000020: 0bb0 4d40 f5e3 14c0 de98 88bf 5a35 883f
00000030: efb4 0d3f f6e7 b4bf f8e3 f73f d084 01c0
00000040: 2dfa b4bf 6d50 d2bf cf13 acbf 8918 c63f
00000050: 322e 34c0 abd5 fb3f b4c6 c7bf 7d4b c5bf
00000060: d8cc bb3f 65ee 5140 9d68 b53f 2b58 2b40
00000070: e6a0 fcbd c63b e73f 6087 e63e 9ae6 27c0
00000080: d1ee 253f fb13 6ac0 771b 2040 4e8b 48c0
00000090: 3e5e 283e d60c 9640 c1d7 2ec0 0091 6ac0
000000a0: 8e6a 69c0 2741 40c0 ab03 32bf 340a 87c0
000000b0: 4ea2 1c3d 3527 e8bf 7462 96c0 1be5 8540
000000c0: 2262 b2c0 1141 12c0 8ced 1fc0 e652 4840
000000d0: fff2 ae3f e1cc 3b40 6f41 a1c0 2445 63c0
000000e0: 2d42 36c0 d98f 8040 cca6 4740 5241 d940
000000f0: f936 72c0 1e3f 9540 fa12 d93f a17a 96c0
-2.2287786 2.6689577 0.79598117 -2.1176996 -1.5349256 1.4683329 -2.6242476 3.477897
3.2138698 -2.3264134 -1.0671651 1.0641282 0.5535421 -1.4133289 1.9366446 -2.0237312
-1.4138848 -1.6430794 -1.3443545 1.5476238 -2.8153195 1.9674581 -1.5607514 -1.5413662
1.4671888 3.2801754 1.417255 2.6772563 -0.123353764 1.8065116 0.45025158 -2.6234498
0.6481753 -3.6574695 2.5016763 -3.1335025 0.164422 4.689067 -2.7319186 -3.6651
-3.6471286 -3.0039766 -0.69536847 -4.2199955 0.038240723 -1.8136965 -4.699518 4.184217
-5.574479 -2.2852213 -2.4988737 3.1300597 1.3667907 2.9343798 -5.0392375 -3.551095
-2.847789 4.0175595 3.1195555 6.7892237 -3.7846053 4.6639547 1.6958916 -4.7024693

variational_strategy._variational_distribution.chol_variational_covar f4 [64, 64]
00000000: 5a84 c33d 0000 0000 0000 0000 0000 0000
00000010: 0000 0000 0000 0000 0000 0000 0000 0000
00000020: 0000 0000 0000 0000 0000 0000 0000 0000
00000030: 0000 0000 0000 0000 0000 0000 0000 0000
00000040: 0000 0000 0000 0000 0000 0000 0000 0000
00000050: 0000 0000 0000 0000 0000 0000 0000 0000
00000060: 0000 0000 0000 0000 0000 0000 0000 0000
00000070: 0000 0000 0000 0000 0000 0000 0000 0000
00000080: 0000 0000 0000 0000 0000 0000 0000 0000
00000090: 0000 0000 0000 0000 0000 0000 0000 0000
000000a0: 0000 0000 0000 0000 0000 0000 0000 0000
000000b0: 0000 0000 0000 0000 0000 0000 0000 0000
000000c0: 0000 0000 0000 0000 0000 0000 0000 0000
000000d0: 0000 0000 0000 0000 0000 0000 0000 0000
000000e0: 0000 0000 0000 0000 0000 0000 0000 0000
000000f0: 0000 0000 0000 0000 0000 0000 0000 0000
00000100: 444b e5bd c73c 5a3c 0000 0000 0000 0000
00000110: 0000 0000 0000 0000 0000 0000 0000 0000
00000120: 0000 0000 0000 0000 0000 0000 0000 0000
00000130: 0000 0000 0000 0000 0000 0000 0000 0000
00000140: 0000 0000 0000 0000 0000 0000 0000 0000
00000150: 0000 0000 0000 0000 0000 0000 0000 0000
00000160: 0000 0000 0000 0000 0000 0000 0000 0000
00000170: 0000 0000 0000 0000 0000 0000 0000 0000
00000180: 0000 0000 0000 0000 0000 0000 0000 0000
00000190: 0000 0000 0000 0000 0000 0000 0000 0000
000001a0: 0000 0000 0000 0000 0000 0000 0000 0000
000001b0: 0000 0000 0000 0000 0000 0000 0000 0000
000001c0: 0000 0000 0000 0000 0000 0000 0000 0000
000001d0: 0000 0000 0000 0000 0000 0000 0000 0000
000001e0: 0000 0000 0000 0000 0000 0000 0000 0000
000001f0: 0000 0000 0000 0000 0000 0000 0000 0000
00000200: 6f43 eb3d 8606 1fbd 031c 433d 0000 0000
00000210: 0000 0000 0000 0000 0000 0000 0000 0000
00000220: 0000 0000 0000 0000 0000 0000 0000 0000
00000230: 0000 0000 0000 0000 0000 0000 0000 0000
00000240: 0000 0000 0000 0000 0000 0000 0000 0000
00000250: 0000 0000 0000 0000 0000 0000 0000 0000
00000260: 0000 0000 0000 0000 0000 0000 0000 0000
00000270: 0000 0000 0000 0000 0000 0000 0000 0000
00000280: 0000 0000 0000 0000 0000 0000 0000 0000
00000290: 0000 0000 0000 0000 0000 0000 0000 0000
000002a0: 0000 0000 0000 0000 0000 0000 0000 0000
000002b0: 0000 0000 0000 0000 0000 0000 0000 0000
000002c0: 0000 0000 0000 0000 0000 0000 0000 0000
000002d0: 0000 0000 0000 0000 0000 0000 0000 0000
000002e0: 0000 0000 0000 0000 0000 0000 0000 0000
000002f0: 0000 0000 0000 0000 0000 0000 0000 0000
00000300: 42a6 813a 6221 5abc 3efd 6ebc 6337 c53c
00000310: 0000 0000 0000 0000 0000 0000 0000 0000
00000320: 0000 0000 0000 0000 0000 0000 0000 0000
00000330: 0000 0000 0000 0000 0000 0000 0000 0000
00000340: 0000 0000 0000 0000 0000 0000 0000 0000
00000350: 0000 0000 0000 0000 0000 0000 0000 0000
00000360: 0000 0000 0000 0000 0000 0000 0000 0000
00000370: 0000 0000 0000 0000 0000 0000 0000 0000
00000380: 0000 0000 0000 0000 0000 0000 0000 0000
00000390: 0000 0000 0000 0000 0000 0000 0000 0000
000003a0: 0000 0000 0000 0000 0000 0000 0000 0000
000003b0: 0000 0000 0000 0000 0000 0000 0000 0000
000003c0: 0000 0000 0000 0000 0000 0000 0000 0000
000003d0: 0000 0000 0000 0000 0000 0000 0000 0000
000003e0: 0000 0000 0000 0000 0000 0000 0000 0000
000003f0: 0000 0000 0000 0000 0000 0000 0000 0000
0.095467284 0.0 0.0 0.0 0.0 0.0 0.0 0.0
0.0 0.0 0.0 0.0 0.0 0.0 0.0 0.0
0.0 0.0 0.0 0.0 0.0 0.0 0.0 0.0
0.0 0.0 0.0 0.0 0.0 0.0 0.0 0.0
0.0 0.0 0.0 0.0 0.0 0.0 0.0 0.0
0.0 0.0 0.0 0.0 0.0 0.0 0.0 0.0
0.0 0.0 0.0 0.0 0.0 0.0 0.0 0.0
0.0 0.0 0.0 0.0 0.0 0.0 0.0 0.0
-0.111959964 0.0133201545 0.0 0.0 0.0 0.0 0.0 0.0
0.0 0.0 0.0 0.0 0.0 0.0 0.0 0.0
0.0 0.0 0.0 0.0 0.0 0.0 0.0 0.0
0.0 0.0 0.0 0.0 0.0 0.0 0.0 0.0
0.0 0.0 0.0 0.0 0.0 0.0 0.0 0.0
0.0 0.0 0.0 0.0 0.0 0.0 0.0 0.0
0.0 0.0 0.0 0.0 0.0 0.0 0.0 0.0
0.0 0.0 0.0 0.0 0.0 0.0 0.0 0.0
0.11487471 -0.03882458 0.047634136 0.0 0.0 0.0 0.0 0.0
0.0 0.0 0.0 0.0 0.0 0.0 0.0 0.0
0.0 0.0 0.0 0.0 0.0 0.0 0.0 0.0
0.0 0.0 0.0 0.0 0.0 0.0 0.0 0.0
0.0 0.0 0.0 0.0 0.0 0.0 0.0 0.0
0.0 0.0 0.0 0.0 0.0 0.0 0.0 0.0
0.0 0.0 0.0 0.0 0.0 0.0 0.0 0.0
0.0 0.0 0.0 0.0 0.0 0.0 0.0 0.0
0.0009891468 -0.013313623 -0.014586745 0.024074262 0.0 0.0 0.0 0.0
0.0 0.0 0.0 0.0 0.0 0.0 0.0 0.0
0.0 0.0 0.0 0.0 0.0 0.0 0.0 0.0
0.0 0.0 0.0 0.0 0.0 0.0 0.0 0.0
0.0 0.0 0.0 0.0 0.0 0.0 0.0 0.0
0.0 0.0 0.0 0.0 0.0 0.0 0.0 0.0
0.0 0.0 0.0 0.0 0.0 0.0 0.0 0.0
0.0 0.0 0.0 0.0 0.0 0.0 0.0 0.0

covar_module.base_kernel.raw_lengthscale f4 [1, 8]
00000000: 6a94 fc40 f986 f740 d616 9b40 e0c9 6e41
00000010: d890 0b41 49ef d741 96fe 0942 fe44 b441
7.893117 7.735226 4.8465376 14.924286 8.722862 26.991838 34.49862 22.533688

X_mean f4 [8]
00000000: 4bdf b43e c96d 2e3f 9b5e edbb 602e d13a
00000010: 609e ad3f dc1b 1cbe 62e5 fc3e e238 ff3e
0.3532661 0.6813627 -0.007243944 0.0015959255 1.3563957 -0.15245003 0.49393755 0.49848086

X_std f4 [8]
00000000: 8833 263e 9261 293e 2748 413f 4416 163f
00000010: cb91 3140 19d6 e840 7507 d73e f8cf e33e
0.16230595 0.16541126 0.7550072 0.58627725 2.7745235 7.276135 0.41997877 0.44494605

X f4 [3700, 8]
00000000: cdcc 2c3f f628 803f 0000 0000 0000 0000
00000010: db0f c93f 0000 0000 adb8 dc38 f602 163a
00000020: 21b8 2c3f 0b50 7e3f b41c e7bc 33a3 c8be
00000030: a816 c93f 38bf b13c 3e95 b638 c2cc dd39
00000040: 6895 2b3f 812a 763f 1698 1dbe 8389 61bf
00000050: 5b80 c93f 41e1 e13d bc27 8a3b 51b9 d539
00000060: b03c 283f 3fc4 673f b6a6 c2be 764b afbf
00000070: 5ab6 ca3f bb19 863e 8600 b23a 59e2 b739
00000080: bda6 213f d90b 533f 7c47 28bf f00e efbf
00000090: 1de1 cc3f 5076 e53e c049 bc3b abe2 043c
000000a0: aa7c 163f 1b87 383f 5854 a1bf a828 07c0
000000b0: 5891 d23f d35a 4340 f6fe ff3b 64dd bf3a
000000c0: b843 003f bde8 203f 06e8 00c0 4ce4 d7bf
000000d0: b228 0540 a658 4441 0508 ae3b 092d 013c
000000e0: 1a36 c63e 8a85 0e3f c223 21c0 3bab 8fbf
000000f0: 5e05 2f40 d34f 5741 fee4 4e3c a793 593c
00000100: 44ef 813e 8faf 053f b74c 2fc0 002f 7dbe
00000110: 32f8 5a40 867e 5d41 2406 053b 2bff 823c
00000120: 7203 f43d 14b2 083f 5682 23c0 18f8 323f
00000130: f2c3 7f40 854f 0341 e710 183c 1862 d83b
00000140: 3544 a73b 92e1 153f ab55 fcbf 9935 a33f
00000150: afea 8740 45b1 2940 12f8 983b c99c de3a
00000160: 2690 9abd 5a88 273f ab2a 9fbf 7ede b63f
00000170: 826e 8b40 2b03 1240 da0d af3c 1ebd bb3c
00000180: 9330 f3bd f343 393f 6992 f9be 2719 a63f
00000190: c087 8f40 86e9 3640 728f 103c ffdb 073c
000001a0: 1f63 01be 9db2 473f cd77 143e c0d8 6c3f
000001b0: 849c 9440 0a48 5f40 72d6 0f3a 4c13 893a
000001c0: 6c3e dcbd 9755 503f 9ae3 133f e648 d03e
000001d0: f684 9a40 1828 7840 ad3c 6e3c 1aed c63c
000001e0: 4e0f 93bd e4c8 513f 90e5 503f b1a4 44be
000001f0: 84f1 a040 3ae1 8340 e766 b13a bef0 5f3b
00000200: 79ca ecbc 2d54 4b3f 2a7b 643f 8a71 50bf
00000210: 6478 a740 270a 8240 ef3a 093c c192 213c
00000220: 3901 963c 99a8 3d3f 389c 803f 199c a3bf
00000230: afc4 a940 2837 64c0 5f9a 013d ce3b ea3c
00000240: 9011 923d 378b 2a3f 8f95 913f 9894 d8bf
00000250: 24b9 9d40 4e68 2dc1 cef6 093c c66a 573c
00000260: 8452 0a3e 8c74 133f d010 ba3f b7f5 e8bf
00000270: d538 8840 1a59 81c1 a0b5 b33c a25a d83c
00000280: f81b 5f3e ca45 033f 1baa df3f c037 96be
00000290: c3bd 5140 00f3 a7c1 bfee 123d 59c8 9b3c
000002a0: 4aef 983e d386 063f af02 c93f 0e1e 2a3f
000002b0: 4628 1440 f69a 5ac1 eb51 113c f144 bd3c
000002c0: a496 c13e 1736 113f f22b ca3f 2142 4b3f
000002d0: ea1a 0340 6541 93bf 51ca 283c abf0 f63c
000002e0: e9cd e83e 89b2 193f 9739 ba3f 408f 113f
000002f0: 3da1 0340 8d49 d63f 7273 183d 5de6 373d
00000300: 232e 043f c1be 223f 4088 793f 0db1 5c3f
00000310: 23db 1040 c54e ae40 9c76 f63c 6661 0e3d
00000320: 2ca3 0e3f ad43 2d3f e9e2 273f 392e 403f
00000330: 5c3e 2240 61e3 ab40 ed1c 9e3c 4876 363d
00000340: 5644 143f e636 353f eb12 853e 0c9c f13e
00000350: 704b 2e40 04c7 f23f ec96 533d ea17 0f3d
00000360: c758 163f 09e6 383f a2e7 ad3d cccd cd3d
00000370: b720 3040 e59f d0be db12 303d 0e7c 063d
00000380: 123c 163f d4ff 373f 142b e8bd fe77 71be
00000390: ee42 2c40 c3c1 fbbf ce28 183d 4e41 323d
000003a0: 2c2c 133f f427 333f 8339 c6be 6128 00bf
000003b0: 9ec6 2340 9e09 4ac0 f096 3e3c bd0b 613c
000003c0: bdf9 0b3f d16f 2b3f 650b 3cbf 6f16 37bf
000003d0: 7cfa 1940 b138 39c0 70d0 6b3d e735 c23c
000003e0: 39a9 003f 11e4 203f c151 86bf c3a5 66bf
000003f0: 34cc 1140 706c 0dc0 0b7c 2f3c f839 bc3b
0.675 1.00125 0.0 0.0 1.5707964 0.0 0.00010524816 0.0005722487
0.6746846 0.99340886 -0.028211929 -0.3918701 1.5710039 0.021697626 8.706235e-05 0.0004230496
0.6702485 0.96158606 -0.15390047 -0.8810045 1.5742296 0.11029292 0.0042161625 0.00040764597
0.657176 0.9053382 -0.38017815 -1.3694904 1.5836899 0.26191506 0.0013580478 0.00035073122
0.6314505 0.82439953 -0.65734076 -1.8676434 1.6006199 0.44816828 0.0057460964 0.0081106825
0.5878397 0.72081155 -1.2603865 -2.1118565 1.6450605 3.0524185 0.007812376 0.0014638123
0.5010333 0.6285513 -2.0141616 -1.6866546 2.0806088 12.271643 0.0053110146 0.007884272
0.3871315 0.55672514 -2.5178075 -1.122413 2.7347026 13.456988 0.012627838 0.013279832
0.25377858 0.52221006 -2.7390573 -0.2472496 3.4213986 13.8433895 0.002029785 0.015990814
0.1191472 0.53396726 -2.55483 0.6990981 3.9963346 8.206914 0.009281374 0.0066034906
0.0051045665 0.5854732 -1.9713644 1.2750732 4.247398 2.6514447 0.004668244 0.0016983981
-0.075470254 0.6544243 -1.2434896 1.4286649 4.3572397 2.2814434 0.02136891 0.022917327
-0.11874499 0.7236931 -0.48744515 1.2976426 4.485321 2.8580031 0.0088232625 0.008292197
-0.12635468 0.7800692 0.14498825 0.92518234 4.644106 3.488772 0.0005486972 0.0010458021
-0.107540935 0.813806 0.5776917 0.40680617 4.8287306 3.8774471 0.014540833 0.02428298
-0.071806535 0.8194716 0.81600285 -0.1920345 5.029482 4.1212435 0.0013534696 0.0034170593
-0.02890514 0.7942532 0.89250433 -0.81423247 5.233446 4.0637393 0.008375867 0.009861649
0.01831113 0.74085385 1.0047674 -1.2782012 5.305259 -3.5658665 0.03164136 0.02859297
0.07132256 0.66618675 1.1373767 -1.6920347 4.92885 -10.837965 0.008420659 0.013148015
0.1350804 0.5759971 1.4536381 -1.8199986 4.2569375 -16.168507 0.021937191 0.026410405
0.21788013 0.51278365 1.7473787 -0.2933941 3.2772071 -20.993652 0.035872217 0.019016432
0.29870063 0.52549475 1.5703944 0.6645211 2.314958 -13.662832 0.008869628 0.023104163
0.37810242 0.5672316 1.5794661 0.7939778 2.0485177 -1.1504332 0.010302142 0.030144056
0.45469597 0.6003805 1.4548825 0.5685921 2.0567162 1.6741196 0.037219472 0.044897426
0.516329 0.6357232 0.97473526 0.8620766 2.263375 5.4471154 0.030085854 0.034760855
0.5571773 0.6768139 0.6558061 0.7507053 2.535056 5.371506 0.019300902 0.044546396
0.5791677 0.70786893 0.25990996 0.47189367 2.7233543 1.8966985 0.051657602 0.034934916
0.58729213 0.72226006 0.08491446 0.10049018 2.7519968 -0.4074699 0.042986732 0.03283315
0.5868541 0.7187474 -0.113363415 -0.2358093 2.691585 -1.9668506 0.03714829 0.04351931
0.57489276 0.6998284 -0.38715753 -0.50061613 2.5589976 -3.156837 0.011632666 0.013735709
0.54677945 0.66967493 -0.73454887 -0.71518606 2.4059134 -2.8940852 0.05757183 0.023707343
0.50258213 0.62848 -1.0493699 -0.9009668 2.2780886 -2.2097435 0.0107107265 0.005744215

Y f4 [3700]
00000000: 0000 0000 0068 c6b9 00a2 e2ba 8029 85bb
00000010: 00c4 e1bb 80f2 67bc 60cd a9bc 20cd d1bc
00000020: 68da e0bc 2067 cdbc 7edd 9bbc 4890 3fbc
00000030: d009 88bb e065 003b c089 c73b c849 073c
00000040: 7037 133c 681f 263c 400b 3e3c f0fd 753c
00000050: b051 8c3c 80f2 803c a0ca 803c 40ca 683c
00000060: c024 1a3c 8008 c93b 0091 193b 00dc 333a
00000070: 0042 b1ba 80d6 89bb 8065 fabb c080 32bc
00000080: 207f 65bc d0b5 80bc 4016 87bc 3075 7abc
00000090: c0cf 55bc c002 22bc 6cbe c6bb e2de 28bb
000000a0: 2067 fb39 e89b 543b 509f c33b 08cb 0f3c
000000b0: b02f 403c 4089 683c 6092 6d3c c0b5 613c
000000c0: 8053 563c e0e9 303c 00e0 f93b 8060 9a3b
000000d0: 00c8 113b 0040 3eb8 0024 24bb 80a7 a4bb
000000e0: 60cd 00bc 407a 2bbc e009 4dbc 80bf 64bc
000000f0: 60ee 66bc 0031 52bc 002f 2cbc 5039 f4bb
00000100: 3015 89bb c01d 79ba 9072 043b 2043 943b
00000110: 4099 e33b 50e3 1b3c b01b 3f3c 10e4 4d3c
00000120: 0018 473c 4000 3c3c 60f4 243c 4066 fc3b
00000130: 0044 a83b 005d 303b 00ec 013a 00e8 d6ba
00000140: 803c 80bb 80cd ccbb a004 0abc 4012 28bc
00000150: 8049 3ebc c046 42bc 004b 38bc e02e 21bc
00000160: a085 fbbb f0b3 a8bb e022 20bb 006e ba39
00000170: 8052 4f3b e090 c33b a084 0c3c 4039 2c3c
00000180: a0fa 3e3c 8004 3d3c 4014 313c c0e3 183c
00000190: 8005 f33b 0080 aa3b 00ff 3b3b 00a0 613a
000001a0: 0080 a3ba 00f2 5ebb c0e6 b4bb 407d f2bb
000001b0: e0d0 11bc 2067 29bc e0b9 2dbc c0f5 21bc
000001c0: 1002 11bc 60ce edbb 4087 adbb 40ed 40bb
000001d0: 0001 e8b9 6080 0d3b 4006 9e3b e046 eb3b
000001e0: 00c7 133c 10b1 273c 0041 2d3c e0c3 233c
000001f0: c08e 103c 0019 f13b c06b b73b 0064 653b
00000200: 00d8 be3a 00d8 f5b9 0001 25bb c032 91bb
00000210: 8008 d0bb 20c0 04bc 00dc 19bc 407c 25bc
00000220: a084 24bc 809b 16bc c045 fdbb 8081 b7bb
00000230: 40dc 53bb 00ef 22ba 0023 f93a 80e9 8e3b
00000240: e0ba d63b b0ba 093c 8037 1d3c 40b0 233c
00000250: c079 1c3c 0085 0f3c c007 ee3b 80d3 b23b
00000260: 8058 633b 0056 d03a 0080 d1b8 00ca f8ba
00000270: 0036 6fbb c0b4 b0bb 4099 e5bb 60ca 0cbc
00000280: e08f 17bc 2014 1abc 202a 0dbc 4028 f1bb
00000290: e029 bbbb 40b8 84bb 000b faba 0025 033a
000002a0: c073 413b a0dc a83b c08d e43b 70e3 0a3c
000002b0: e040 1a3c 00f1 1b3c 6014 103c 80b8 f53b
000002c0: 004a bf3b 007e 813b 800c 123b 00f8 ae39
000002d0: 00d0 aaba 8035 44bb c082 97bb 00e7 c6bb
000002e0: 804b ecbb 80cb 00bc 00a7 06bc 8053 febb
000002f0: 80ce dbbb e0c4 adbb c07b 74bb 00c7 0bbb
00000300: 0084 bbb9 8034 cb3a 40d5 653b 00bc ac3b
00000310: a0b4 d93b 801b 043c 800f 073c 00b2 f83b
00000320: 4042 d63b 40f2 ab3b 808a 793b 00dc 153b
00000330: 0052 593a 00a8 fab9 0050 0bbb 80ae 5abb
00000340: 4016 8cbb 80a2 aabb 40f4 bdbb 006a c3bb
00000350: 00f7 b5bb 0041 abbb 406d acbb c0a3 97bb
00000360: c060 5bbb 00bb dfba 00ce 9139 009c ec3a
00000370: 80dd 703b c073 b43b 80b3 da3b c07b ed3b
00000380: 40b4 f03b 004f ec3b 00b9 c23b 80cf 953b
00000390: 005c 6e3b 000b 043b 0066 043a 0034 33ba
000003a0: 002a eaba 00ce 4dbb c0cd 8ebb c09c b3bb
000003b0: 40ab d2bb 8007 d6bb 8052 c6bb 40e9 b2bb
000003c0: 4069 9fbb 003d 75bb 009f 25bb 8064 93ba
000003d0: 004a d139 00d6 e13a 8098 633b 803d a53b
000003e0: c0c0 c73b 40c1 db3b c0d4 dd3b 40df d13b
000003f0: 005e b83b 4001 a13b 00cb 6e3b 00a4 113b
0.0 -0.0003784299 -0.0017290711 -0.004063785 -0.00688982 -0.014156938 -0.020727813 -0.025610507
-0.027447894 -0.025073588 -0.019026514 -0.011692114 -0.0041515604 0.0019591972 0.006089419 0.008257337
0.008985385 0.010139324 0.011599362 0.015014157 0.017128795 0.015740633 0.01572162 0.014208376
0.009408176 0.0061350465 0.0023432374 0.00068610907 -0.0013523698 -0.0042064786 -0.0076414943 -0.010894954
-0.01400736 -0.015711695 -0.016490102 -0.015286729 -0.01305002 -0.009888351 -0.0060651805 -0.0025767614
0.00047951285 0.003244156 0.0059699193 0.008776434 0.01173012 0.014192879 0.014500231 0.013776243
0.013081431 0.010797948 0.00762558 0.0047112107 0.0022244453 -4.5359135e-05 -0.0025045872 -0.0050248504
-0.007861465 -0.010466158 -0.012514561 -0.013961673 -0.014094919 -0.012829065 -0.010509253 -0.0074531212
-0.004183434 -0.0009503029 0.0020209886 0.0045246035 0.006945759 0.009514645 0.011664316 0.012566581
0.012151718 0.011474669 0.010068029 0.007702619 0.0051350594 0.00269109 0.0004956126 -0.0016396046
-0.003913462 -0.0062500834 -0.008423954 -0.010258257 -0.011614203 -0.011857688 -0.01124835 -0.009837836
-0.0076758415 -0.0051484033 -0.002443485 0.0003555864 0.0031634867 0.005968198 0.008576542 0.010511696
0.011656433 0.011536717 0.010808051 0.009331644 0.007416427 0.005203247 0.0028685927 0.00086069107
-0.001247406 -0.0034018755 -0.0055206716 -0.007400185 -0.008899897 -0.010339528 -0.010603398 -0.0098852515
-0.008850589 -0.007257268 -0.005295664 -0.0029438287 -0.00044251233 0.002159141 0.0048225224 0.00718008
0.009019613 0.010235086 0.010574579 0.009995431 0.008823097 0.0073577166 0.0055975616 0.0035002232
0.0014560223 -0.00046890974 -0.0025177598 -0.0044310987 -0.0063486695 -0.008102447 -0.009390831 -0.010100424
-0.010041386 -0.0091923475 -0.007729262 -0.0056001544 -0.0032327324 -0.00062154233 0.0019007623 0.0043613315
0.006553039 0.008406326 0.009595752 0.009990752 0.009550512 0.008759737 0.0072641075 0.0054573417
0.0034690201 0.0015894771 -9.9897385e-05 -0.0018981099 -0.0036500692 -0.005392641 -0.007006794 -0.008593172
-0.009250611 -0.009404212 -0.008616 -0.0073595345 -0.005711779 -0.0040502846 -0.0019076765 0.0005002767
0.0029518455 0.0051532537 0.0069749057 0.008477077 0.0094148815 0.009517908 0.00879392 0.0074988008
0.005837679 0.003951788 0.0022285283 0.0003337264 -0.001303196 -0.0029939115 -0.004623741 -0.006070018
-0.0072111487 -0.007861018 -0.008218527 -0.007761419 -0.0067079663 -0.0053030103 -0.0037305206 -0.002132833
-0.00035765767 0.0015503317 0.0035069734 0.005271435 0.0066438466 0.008063197 0.008243442 0.0075895786
0.0065386593 0.0052473843 0.0038076937 0.0022866726 0.0008290112 -0.00047808886 -0.00212574 -0.003336817
-0.0042751133 -0.00520736 -0.005796939 -0.005963564 -0.0055531263 -0.0052262545 -0.005262047 -0.004627675
-0.0033474416 -0.001706928 0.00027810037 0.0018051863 0.0036753118 0.0055069625 0.00667423 0.007247418
0.007345706 0.007211566 0.005942464 0.004571855 0.0036370754 0.0020148158 0.00050505996 -0.0006836057
-0.00178653 -0.0031403303 -0.0043580234 -0.0054813325 -0.006429106 -0.006531656 -0.0060523152 -0.0054599345
-0.0048648417 -0.0037420392 -0.0025271773 -0.0011245161 0.0003991872 0.0017229915 0.0034728348 0.0050427318
0.0060959756 0.006706387 0.0067697465 0.0064047873 0.00562644 0.004913479 0.0036436915 0.0022222996
