Simplified/data/svgp_torch_models/svgp_dim3.pth (torch, 12314 bytes, 8 tensors)

variational_strategy.inducing_points f4 [25, 8]
000000 59 75 2e bf 5c cf 35 bf 80 88 7e bf 92 bf 67 3f
       -0.6814781 -0.7101953 -0.9942703 0.9052669
000010 90 7d 1f 3f b9 ca 89 3f 78 1b 28 bf 08 64 3e bf
       0.6230097 1.0764991 -0.65666914 -0.74371386
000020 80 51 e1 3f 61 37 25 40 da b0 95 3e 19 0e 02 3f
       1.7602997 2.581505 0.2923649 0.5080276
000030 ab 88 d7 bf 3d c6 fa be de 9e 84 be dd 0e 10 c0
       -1.6838583 -0.4897937 -0.25902456 -2.2509072
000040 8c 3e 79 be f7 5a 68 bf a7 6c dc 3f 10 cb 40 3f
       -0.24340266 -0.907638 1.7220658 0.7530985
000050 6b fa 95 3e 80 67 f9 bf 7c 87 08 bf 98 1a 01 bf
       0.29292616 -1.9484711 -0.5333173 -0.50431204
000060 cc fe da 3f 17 96 1b 40 d1 36 56 3e 55 5e 1a be
       1.7109008 2.4310358 0.20919348 -0.15075047
000070 e6 aa cf bf 6f ad bb be 0a ec a6 3e c2 b7 1a c0
       -1.6224029 -0.36655757 0.3260196 -2.4174657
000080 eb 60 c8 be 42 3d 5f bf f2 73 a3 bf 6f 41 b5 3e
       -0.39136443 -0.87202847 -1.2769759 0.35401484
000090 d9 2e 9e 3e 63 3f 9f 3f 0e 6a 28 bf eb b0 47 bf
       0.30895117 1.2441219 -0.65786827 -0.7800433
0000a0 df 6b a9 3f d8 74 fb 3f dc 82 ca 3d c1 52 85 3e
       1.3236045 1.9645033 0.09888241 0.260397
0000b0 15 7e a1 bf 89 29 11 be c4 8f 76 bf 7a 24 ae bf
       -1.2616602 -0.14176 -0.9631312 -1.3604882
0000c0 4a fd a6 bf 62 35 a0 be 0f 0a 17 3d 09 97 2d 3f
       -1.3046048 -0.31290728 0.036874827 0.67808586
0000d0 0e bd b0 3f b2 97 8d bc 67 ce ae be bd df 59 bd
       1.3807695 -0.017284248 -0.34141847 -0.05319189
0000e0 fa f6 9a 3f 60 ad 95 3f 09 db 75 be 63 6f a8 bf
       1.2106621 1.1693535 -0.24009337 -1.3158993
0000f0 23 06 97 bf 08 88 92 3c 3c 1e 01 bf 90 63 66 bf
       -1.1798748 0.01788713 -0.5043676 -0.8999567
000100 7d 09 90 bf 56 02 1f bf b2 d8 18 bf 96 22 8e 3f
       -1.1252896 -0.6211294 -0.5970565 1.1104305
000110 2b ce 92 3f 04 9e 56 3f 44 96 1f bf d3 01 60 bf
       1.1469167 0.8383486 -0.6233866 -0.87502784
000120 d8 2e 6b bf 84 46 31 bf 9d 74 8d 3f 62 ce 0c bf
       -0.9186835 -0.69248223 1.1051213 -0.55002415
000130 94 33 57 3f 6f 75 9c bf 2c 00 4f 3f ec 7d 27 3f
       0.84063077 -1.2223338 0.8085964 0.65426517
000140 89 73 3c bf 87 56 53 bf 95 20 88 bf 42 58 4c 3f
       -0.7361379 -0.82553905 -1.0634943 0.7982217
000150 48 ec 2f 3f c9 6b ac 3f e3 cf 74 bd 43 ea 2e 3f
       0.6871991 1.3470393 -0.05976857 0.68326205
000160 74 d4 5d 3f 00 a9 42 3d 75 47 75 bf ac 5f b8 bf
       0.866523 0.047524452 -0.9581216 -1.4404197
000170 fb 45 87 bf 9f b5 3f 3f ce e0 da 3d 73 1e 27 bd
       -1.0568231 0.74886507 0.10687409 -0.040800523
000180 d4 10 a6 bf a7 0b 9d be e9 f9 86 3e 81 19 ad 3e
       -1.2973886 -0.30672953 0.2636254 0.3380852
000190 08 99 ae 3f ba 28 1a bf bf 08 86 3f 9f ed 9a 3f
       1.3640451 -0.60218394 1.0471419 1.2103766
0001a0 7d 42 f7 3d 9f 92 43 bf 9d 55 e1 3f 41 97 b1 3f
       0.120732285 -0.763956 1.7604252 1.3874284
0001b0 a5 7a 8c bd 8f 19 b1 bf 77 99 36 40 bb 06 82 3f
       -0.0685933 -1.3835925 2.8531168 1.0158304
0001c0 de e9 8d 3f 4a 83 3c 3f 0e d5 c8 be 49 87 d3 bf
       1.1086996 0.7363783 -0.39225048 -1.6525661
0001d0 5a e6 90 bf f6 5a 44 bd 24 7b a3 be da 7f 03 bf
       -1.1320298 -0.04793831 -0.31929886 -0.5136696
0001e0 74 05 07 3f 66 6e e0 be 26 5f e2 3f d7 17 0f 40
       0.52742696 -0.43834227 1.7685287 2.23583
0001f0 18 b4 b4 be 7c e3 a8 bf 79 64 15 40 7f d6 ba 3f
       -0.3529365 -1.3194423 2.3342574 1.4596709
000200 68 a9 7a 3e e3 35 25 bf 4f 72 aa bf 55 06 45 bf
       0.24478686 -0.6453535 -1.3316134 -0.76962787
000210 35 61 a0 be 21 df bd 3f e7 69 49 bf 55 61 ec 3e
       -0.31324163 1.4833719 -0.7867722 0.46168008
000220 7c e2 9f bf 93 39 d7 be 20 1a 83 be c1 c6 7e 3f
       -1.2490993 -0.42036113 -0.2560587 0.99522024
000230 85 d6 a8 3f 06 36 2b 3e 11 d3 49 3f 06 f9 c2 bd
       1.3190466 0.16719827 0.78837687 -0.09520154
000240 2b 67 8e bf e0 63 fb be 62 9f 4a 3f 5a 58 ee be
       -1.1125234 -0.49099636 0.7914945 -0.46551782
000250 0d 95 84 3f 59 b7 74 bf c9 f8 c9 3e 13 c7 90 3f
       1.0357987 -0.95592266 0.3944762 1.1310753
000260 3b 70 9b bf 10 91 a4 be 0e 45 f6 3e 00 01 e0 bc
       -1.2143625 -0.32141924 0.4809956 -0.027344227
000270 d3 52 9d 3f a3 db 56 bf c5 25 fb 3e 6b 12 98 3f
       1.2290901 -0.8392889 0.49052253 1.1880621
000280 21 da 78 bd 29 21 4f bf 7f c0 b5 bf b5 ca 46 be
       -0.0607549 -0.80909973 -1.419937 -0.19413264
000290 ec 9f 82 ba 35 b6 a9 3f 39 63 3b 3f ba 42 47 3e
       -0.0009965873 1.325873 0.73198277 0.19459048
0002a0 c7 76 9b 3f 2f 8b a2 3f da 6c 49 be 5e 66 96 bf
       1.2145623 1.2698725 -0.1967043 -1.174999
0002b0 d1 1a 96 bf 78 ce 43 3d 36 66 45 bf b1 27 51 bf
       -1.1726934 0.047804326 -0.77109087 -0.8170119
0002c0 be ed 18 bf 07 ef 64 bf 54 a5 bf 3f 7e a2 30 bd
       -0.59737766 -0.89427227 1.4972329 -0.043123715
0002d0 b8 b9 20 3f 85 2f 64 bf 0d 83 f4 be 7e fd 10 40
       0.62783384 -0.8913501 -0.47756234 2.265472
0002e0 b5 88 a6 3f 7f 6d ed 3f fc e7 55 3d 7f df 4c be
       1.301047 1.854904 0.05222319 -0.20007132
0002f0 d0 81 9e bf c3 d6 bb bd c0 56 4d bf 63 d6 9c bf
       -1.2383366 -0.09171822 -0.80210495 -1.2252926
000300 82 4c 18 3f a6 d4 97 be 31 a9 92 bf 5e c7 91 bf
       0.5949174 -0.29654425 -1.1457883 -1.1388967
000310 ea dc 42 bf 7b d5 c0 3f 96 ed 4e bf ef 70 0e bf
       -0.7611834 1.5065149 -0.8083128 -0.55641073

variational_strategy._variational_distribution.variational_mean f4 [25]
000000 8c 25 3d 3e 4c fb 4c bf ef 2e 91 3f 83 87 58 bf
       0.18471354 -0.8007095 1.1342448 -0.84581774
000010 53 0d c3 3e 9f 60 89 bf 1c 87 a8 bf 23 66 81 bf
       0.38096103 -1.0732611 -1.3166232 -1.0109295
000020 03 67 85 bf ea 34 32 bf 57 83 eb be 01 90 c1 3f
       -1.0422062 -0.6961199 -0.45998642 1.5122072
000030 30 25 80 bf d1 bf a3 3f 74 5c ac bf da e6 1c 3e
       -1.0011349 1.2792913 -1.3465714 0.15322438
000040 b2 dd 0f 3f 22 67 65 bf 10 48 b1 bf fd 34 b1 bf
       0.56197655 -0.89610493 -1.3850117 -1.3844296
000050 e5 68 57 3f 6b 3e 8f bf ee 61 b5 3f 4a 10 e4 bf
       0.8414443 -1.1190923 1.4170511 -1.7817471
000060 7f 84 bc bf
       -1.4727935

variational_strategy._variational_distribution.chol_variational_covar f4 [25, 25]
000000 6c 9a 93 3d 00 00 00 00 00 00 00 00 00 00 00 00
       0.07207188 0.0 0.0 0.0
000010 00 00 00 00 00 00 00 00 00 00 00 00 00 00 00 00
       0.0 0.0 0.0 0.0
000020 00 00 00 00 00 00 00 00 00 00 00 00 00 00 00 00
       0.0 0.0 0.0 0.0
000030 00 00 00 00 00 00 00 00 00 00 00 00 00 00 00 00
       0.0 0.0 0.0 0.0
000040 00 00 00 00 00 00 00 00 00 00 00 00 00 00 00 00
       0.0 0.0 0.0 0.0
000050 00 00 00 00 00 00 00 00 00 00 00 00 00 00 00 00
       0.0 0.0 0.0 0.0
000060 00 00 00 00 ce de af bd 5b 9d 1b 3f 00 00 00 00
       0.0 -0.085874185 0.6078698 0.0
000070 00 00 00 00 00 00 00 00 00 00 00 00 00 00 00 00
       0.0 0.0 0.0 0.0
000080 00 00 00 00 00 00 00 00 00 00 00 00 00 00 00 00
       0.0 0.0 0.0 0.0
000090 00 00 00 00 00 00 00 00 00 00 00 00 00 00 00 00
       0.0 0.0 0.0 0.0
0000a0 00 00 00 00 00 00 00 00 00 00 00 00 00 00 00 00
       0.0 0.0 0.0 0.0
0000b0 00 00 00 00 00 00 00 00 00 00 00 00 00 00 00 00
       0.0 0.0 0.0 0.0
0000c0 00 00 00 00 00 00 00 00 ca ed 43 3b 6c b5 8a bc
       0.0 0.0 0.0029896372 -0.016932212
0000d0 c5 d3 14 3d 00 00 00 00 00 00 00 00 00 00 00 00
       0.03633477 0.0 0.0 0.0
0000e0 00 00 00 00 00 00 00 00 00 00 00 00 00 00 00 00
       0.0 0.0 0.0 0.0
0000f0 00 00 00 00 00 00 00 00 00 00 00 00 00 00 00 00
       0.0 0.0 0.0 0.0
000100 00 00 00 00 00 00 00 00 00 00 00 00 00 00 00 00
       0.0 0.0 0.0 0.0
000110 00 00 00 00 00 00 00 00 00 00 00 00 00 00 00 00
       0.0 0.0 0.0 0.0
000120 00 00 00 00 00 00 00 00 00 00 00 00 d2 64 95 3d
       0.0 0.0 0.0 0.072946206
000130 6d 7a 80 bd c6 74 1e 39 fc 6b 26 3f 00 00 00 00
       -0.06273351 0.00015111556 0.6500852 0.0
000140 00 00 00 00 00 00 00 00 00 00 00 00 00 00 00 00
       0.0 0.0 0.0 0.0
000150 00 00 00 00 00 00 00 00 00 00 00 00 00 00 00 00
       0.0 0.0 0.0 0.0
000160 00 00 00 00 00 00 00 00 00 00 00 00 00 00 00 00
       0.0 0.0 0.0 0.0
000170 00 00 00 00 00 00 00 00 00 00 00 00 00 00 00 00
       0.0 0.0 0.0 0.0
000180 00 00 00 00 00 00 00 00 00 00 00 00 00 00 00 00
       0.0 0.0 0.0 0.0
000190 a2 02 e0 bd c7 c5 3c 3c 24 ea 15 38 ff ca 47 bc
       -0.10938002 0.011521763 3.574243e-05 -0.012194394
0001a0 92 63 8e 3d 00 00 00 00 00 00 00 00 00 00 00 00
       0.06952585 0.0 0.0 0.0
0001b0 00 00 00 00 00 00 00 00 00 00 00 00 00 00 00 00
       0.0 0.0 0.0 0.0
0001c0 00 00 00 00 00 00 00 00 00 00 00 00 00 00 00 00
       0.0 0.0 0.0 0.0
0001d0 00 00 00 00 00 00 00 00 00 00 00 00 00 00 00 00
       0.0 0.0 0.0 0.0
0001e0 00 00 00 00 00 00 00 00 00 00 00 00 00 00 00 00
       0.0 0.0 0.0 0.0
0001f0 00 00 00 00 5c a1 bc 3d 11 9c 31 bf 9f 5c 33 ba
       0.0 0.09210464 -0.69378763 -0.000684211
000200 c5 de 1a 3d 12 96 6b 3a 9c 20 1e 3d 00 00 00 00
       0.037810106 0.0008986901 0.038605317 0.0
000210 00 00 00 00 00 00 00 00 00 00 00 00 00 00 00 00
       0.0 0.0 0.0 0.0
000220 00 00 00 00 00 00 00 00 00 00 00 00 00 00 00 00
       0.0 0.0 0.0 0.0
000230 00 00 00 00 00 00 00 00 00 00 00 00 00 00 00 00
       0.0 0.0 0.0 0.0
000240 00 00 00 00 00 00 00 00 00 00 00 00 00 00 00 00
       0.0 0.0 0.0 0.0
000250 00 00 00 00 00 00 00 00 4b 3b 81 bd b3 5c 7d 3d
       0.0 0.0 -0.06310137 0.061855983
000260 ce a8 2b bb 35 03 ae bb 39 4a 83 3c 76 2a a9 bb
       -0.0026193145 -0.005310441 0.016026603 -0.0051625324
000270 fa 01 40 3d 00 00 00 00 00 00 00 00 00 00 00 00
       0.046876885 0.0 0.0 0.0
000280 00 00 00 00 00 00 00 00 00 00 00 00 00 00 00 00
       0.0 0.0 0.0 0.0
000290 00 00 00 00 00 00 00 00 00 00 00 00 00 00 00 00
       0.0 0.0 0.0 0.0
0002a0 00 00 00 00 00 00 00 00 00 00 00 00 00 00 00 00
       0.0 0.0 0.0 0.0
0002b0 00 00 00 00 00 00 00 00 00 00 00 00 60 bf 34 bd
       0.0 0.0 0.0 -0.044127822
0002c0 12 52 48 3e a7 18 84 39 26 66 89 be c9 27 cf bb
       0.19562557 0.0002519537 -0.26835746 -0.0063218814
0002d0 6a 27 96 bc d9 9a 65 ba 37 c7 44 3d 00 00 00 00
       -0.018329341 -0.0008758731 0.04804155 0.0
0002e0 00 00 00 00 00 00 00 00 00 00 00 00 00 00 00 00
       0.0 0.0 0.0 0.0
0002f0 00 00 00 00 00 00 00 00 00 00 00 00 00 00 00 00
       0.0 0.0 0.0 0.0
000300 00 00 00 00 00 00 00 00 00 00 00 00 00 00 00 00
       0.0 0.0 0.0 0.0
000310 00 00 00 00 00 00 00 00 00 00 00 00 00 00 00 00
       0.0 0.0 0.0 0.0
000320 19 35 7a be 2d 39 1d bb e4 96 bc 3a e1 08 13 bb
       -0.24434318 -0.0023990378 0.0014388231 -0.0022435712
000330 5b 40 68 3d ad 56 35 ba 56 26 0a bd de 85 e8 ba
       0.056702 -0.0006917518 -0.033727966 -0.0017740091
000340 00 84 ba 3d 00 00 00 00 00 00 00 00 00 00 00 00
       0.09107208 0.0 0.0 0.0
000350 00 00 00 00 00 00 00 00 00 00 00 00 00 00 00 00
       0.0 0.0 0.0 0.0
000360 00 00 00 00 00 00 00 00 00 00 00 00 00 00 00 00
       0.0 0.0 0.0 0.0
000370 00 00 00 00 00 00 00 00 00 00 00 00 00 00 00 00
       0.0 0.0 0.0 0.0
000380 00 00 00 00 0f 5d 88 bc 67 23 a0 bb c1 7a 14 bc
       0.0 -0.016645936 -0.004887033 -0.00906247
000390 83 f7 44 bc ee 45 60 3b 36 e2 f0 38 b7 ac 36 bc
       -0.012021902 0.003422137 0.00011486227 -0.011149577
0003a0 e8 ad a5 ba f1 94 15 3c 1e a4 0a 3d 00 00 00 00
       -0.0012640329 0.009129749 0.03384792 0.0
0003b0 00 00 00 00 00 00 00 00 00 00 00 00 00 00 00 00
       0.0 0.0 0.0 0.0
0003c0 00 00 00 00 00 00 00 00 00 00 00 00 00 00 00 00
       0.0 0.0 0.0 0.0
0003d0 00 00 00 00 00 00 00 00 00 00 00 00 00 00 00 00
       0.0 0.0 0.0 0.0
0003e0 00 00 00 00 00 00 00 00 5e cc f8 bd bd c0 e6 bc
       0.0 0.0 -0.12148355 -0.028168077
0003f0 97 9d 81 39 c0 1b 21 3b da a3 69 3b 32 de 12 3b
       0.0002472221 0.002458319 0.0035650642 0.002241027

covar_module.base_kernel.raw_lengthscale f4 [1, 8]
000000 19 a0 21 40 d1 58 1b 40 74 90 87 3e 49 76 7b 3f
       2.5253966 2.427296 0.26477396 0.98227364
000010 82 f1 19 40 76 0e 0e 40 71 47 ae 3f 0b 23 0b 40
       2.4053655 2.2196326 1.3615552 2.1740139

X_mean f4 [8]
000000 84 a0 aa 3e 77 64 2b 3f ee f2 23 be 62 e6 bb be
       0.3332559 0.6695017 -0.16010639 -0.36699206
000010 99 5d 3c 40 a9 ed 68 3f ca bc d3 3e 5e 63 11 3f
       2.9432127 0.9098764 0.41354972 0.5679225

X_std f4 [8]
000000 48 24 84 3e cc 64 2b 3e f6 1b c0 3f e1 84 6c 3f
       0.2580893 0.1673767 1.5008533 0.9239026
000010 83 24 8b 3f 39 52 c3 40 11 62 d2 3e f2 dd d6 3e
       1.0870517 6.103787 0.41090444 0.41966206

X f4 [25, 8]
000000 cd cc 2c 3f f6 28 80 3f 00 00 00 00 00 00 00 00
       0.675 1.00125 0.0 0.0
000010 db 0f c9 3f 00 00 00 00 ff 7d 75 38 a0 ba 20 38
       1.5707964 0.0 5.8529895e-05 3.832078e-05
000020 85 c5 2c 3f 27 32 7f 3f c9 c2 5d bc eb 19 95 be
       0.6748889 0.996859 -0.01353521 -0.29121336
000030 de 15 c9 3f 90 7b 21 3d 59 f3 86 3d 3e 89 13 3c
       1.5709798 0.03942448 0.06589384 0.009004889
000040 fa 3e 2c 3f 27 49 7a 3f 4a 63 d0 bd 7c e5 29 bf
       0.67283595 0.9776787 -0.10175188 -0.6636579
000050 79 17 ca 3f a7 4f b4 3e 65 bf 83 3d 2a 3d 7d 3c
       1.5788413 0.3521702 0.0643299 0.015456477
000060 57 98 2a 3f 9d a3 71 3f ac 65 72 be ac 52 83 bf
       0.666387 0.9439028 -0.23671597 -1.0259604
000070 b6 84 cd 3f 77 9e 43 3f 89 55 62 3e 15 52 0b 3d
       1.6056125 0.76413673 0.22102942 0.034013826
000080 ee 36 27 3f a0 53 65 3f 2b 64 da be f8 9e af bf
       0.6531819 0.89580727 -0.42654547 -1.3720388
000090 d9 65 d3 3f 25 36 a1 3f da c7 26 3e 3d da 3f 3e
       1.6515456 1.2594649 0.16287175 0.18735595
0000a0 ef e1 21 3f 30 65 55 3f 20 ea 1d bf f8 c8 dd bf
       0.6323537 0.83357525 -0.6168537 -1.7326956
0000b0 5a c3 da 3f 86 e7 a5 3f 65 26 39 3c 7a e0 c5 3e
       1.7090867 1.296128 0.011300658 0.38647825
0000c0 3c 7e 1a 3f d2 3f 42 3f 87 df 58 bf b2 0a ff bf
       0.6034887 0.7587863 -0.84716076 -1.9925139
0000d0 41 fe de 3f ef 85 c0 3e aa 83 94 3e 31 a4 e0 3e
       1.7421342 0.37602183 0.29006702 0.43875268
0000e0 86 c8 0e 3f 8a 2a 2e 3f 5c 7b cb bf 7f f0 d7 bf
       0.55774724 0.6803366 -1.5897021 -1.6870269
0000f0 a9 f3 e5 3f 97 ec af 40 10 bc ea 3e 77 70 0c 3f
       1.7964984 5.4976306 0.45846605 0.5485911
000100 a3 9d f9 3e 47 81 1e 3f db 9a f0 bf 8c 22 b7 bf
       0.4875308 0.6191601 -1.8797258 -1.4307418
000110 e9 05 07 40 e4 50 21 41 f5 3d 9f 3d cf 7d a9 3e
       2.1097357 10.082249 0.07775489 0.33103797
000120 89 47 d0 3e 12 5c 11 3f 26 3d 08 c0 55 fc 8e bf
       0.40679577 0.56781113 -2.1287322 -1.1170756
000130 e8 db 22 40 85 7e 21 41 d7 31 a3 3d 37 4a 31 3f
       2.544672 10.093389 0.079684906 0.6925387
000140 cb c9 a2 3e b8 c0 08 3f 49 8b 12 c0 b2 10 0d bf
       0.3179458 0.53419065 -2.2897513 -0.551036
000150 08 38 3c 40 32 fc 0f 41 50 6e 36 3f c3 9f 25 3f
       2.9409199 8.999071 0.71262074 0.646969
000160 68 b8 6b 3e cb f1 05 3f 6a e1 04 c0 e7 01 d4 bc
       0.23019564 0.5232207 -2.0762582 -0.025879813
000170 cc 82 52 40 aa 88 06 41 77 00 1b 3e 49 19 7a 3e
       3.2892332 8.408365 0.15136896 0.24423708
000180 81 5c 1c 3e 39 a3 07 3f 15 ab e6 bf 6d cb ae 3e
       0.15269662 0.52983433 -1.802096 0.34139577
000190 db 81 69 40 bd 77 14 41 71 85 d1 3e f1 f7 67 3f
       3.6485507 9.279233 0.4092212 0.90612704
0001a0 c6 04 b5 3d 39 67 0c 3f 80 5a b4 bf 75 58 13 3f
       0.08838801 0.54845005 -1.4090118 0.5755685
0001b0 81 85 7c 40 20 84 f2 40 28 23 82 3e f5 95 e3 3e
       3.9456484 7.5786285 0.25417447 0.44450346
0001c0 cf 3a 27 3d c2 e8 12 3f 5a 75 76 bf 2e 44 2a 3f
       0.04082757 0.5738641 -0.96272814 0.66510284
0001d0 1a bc 86 40 70 a0 b1 40 07 53 d8 3d a9 7c 0d 3e
       4.2104616 5.5508347 0.10562711 0.13817085
0001e0 ee eb 2d 3c 1f 8a 19 3f 2e b5 09 bf f5 ad 0f 3f
       0.010615332 0.5997638 -0.53792083 0.5612481
0001f0 00 2d 8c 40 79 9e e7 3f 2e 09 42 3f 0f 68 08 3f
       4.380493 1.8095237 0.7579526 0.5328378
000200 62 2d 00 bb 10 94 1d 3f 75 ba e3 bd 85 07 6e 3e
       -0.00195583 0.6155405 -0.11119548 0.23245056
000210 9c df 8d 40 f7 fc 05 3f 6d df bc 3e 52 54 16 3f
       4.433546 0.5233912 0.3688921 0.5872241
000220 e8 71 0a 3a 70 94 1e 3f 47 a3 6f 3e 78 48 5f bd
       0.00052812556 0.6194525 0.23402129 -0.05451247
000230 19 5d 8d 40 ca c6 2f c0 7b 7a 56 3f ed 3e 89 3f
       4.4176145 -2.7465081 0.8378064 1.0722328
000240 7c 42 8f 3c f8 13 1c 3f db b0 23 3f 73 1a f6 be
       0.017487757 0.6096797 0.63941735 -0.48067054
000250 ce 9d 88 40 6d f2 8f c0 d6 f0 1a 3f 44 1b 89 3f
       4.2692633 -4.498343 0.60523736 1.0711446
000260 f1 e0 53 3d 2d 4b 15 3f de 80 8b 3f ae d8 52 bf
       0.051728193 0.58317834 1.0898702 -0.82361877
000270 2c 39 81 40 e4 eb 9c c0 13 aa 11 3f 9a ef 85 3f
       4.038229 -4.9037952 0.5690014 1.0463746
000280 4e 35 d7 3d df 47 0c 3f c4 cd c9 3f ba 9e 5e bf
       0.10508214 0.54797167 1.576592 -0.8696095
000290 f6 b9 74 40 c8 2a da c0 d0 1e 46 3f e6 c5 4f 3f
       3.8238502 -6.8177223 0.77390766 0.81161344
0002a0 f8 f8 37 3e 29 15 05 3f 8b aa 05 40 e1 ca cf be
       0.17966068 0.5198541 2.088534 -0.40584472
0002b0 3e e7 67 40 96 12 91 c0 dc 11 5e 3e 98 6f c2 3f
       3.623489 -4.533519 0.216865 1.5190306
0002c0 93 93 8a 3e c6 8e 04 3f 29 10 1b 40 40 e8 aa 3e
       0.27065715 0.51780355 2.4228613 0.33380318
0002d0 7d ba 50 40 4a ec 2f c1 12 8a 45 3e cc 11 b5 3e
       3.2613823 -10.995188 0.19290951 0.3536514
0002e0 dd 51 bc 3e 75 21 0b 3f cc ca 1e 40 a6 d5 70 3f
       0.36781207 0.54347926 2.4811277 0.94076
0002f0 ce f7 36 40 38 9d f0 c0 f2 0e ca 3f 60 1a 80 3f
       2.8588748 -7.5191917 1.5785811 1.0008049
000300 b4 64 f0 3e 98 99 18 3f 8b a7 1f 40 b0 77 d9 3f
       0.4695183 0.59609365 2.494601 1.6989651
000310 78 c4 23 40 60 c0 e4 c0 6b c2 af 3f 0d 06 97 3f
       2.5588665 -7.1484833 1.3731207 1.1798722

Y f4 [25]
000000 00 00 00 00 ec fa c3 bd e0 f8 b4 bd f0 df ba bd
       0.0 -0.09569344 -0.08836532 -0.09124744
000010 50 fb cb bd 10 a4 8e bd 80 b7 54 bd 30 5a e6 3d
       -0.099600434 -0.06964886 -0.05193281 0.11247671
000020 f0 f3 87 3d c0 02 07 3e fe 7a 15 3e 74 30 cf 3d
       0.06638324 0.13184643 0.14597699 0.101166636
000030 f8 cc 8f 3d b0 2c 19 3d 80 86 26 3c 6c 19 ba bd
       0.070215166 0.037396133 0.010163903 -0.0908688
000040 d4 62 7d bd ac 6d 6b bd 1c d4 af bd e0 09 28 bd
       -0.061861828 -0.057477638 -0.085853785 -0.041025043
000050 60 1e 02 3d 1d d8 27 3e a6 fe 29 3e d8 51 39 3e
       0.03176725 0.16391034 0.16601047 0.18097627
000060 f0 c7 25 3e
       0.16189551
