Simplified/data/svgp_torch_models/svgp2_dim2.pth (torch, 160053 bytes, 8 tensors)

variational_strategy.inducing_points f4 [64, 8]
00000000: 8a3f 15c0 7e07 ca3f 4087 113f 8580 13c0
00000010: f604 34bf 17b9 7bbf 45b2 0dbf ec37 8d3f
00000020: 6054 bc3f 92dc 1c40 9133 edbd b445 a03f
00000030: 932a 54bf 8a3b 1bc0 fa38 1d3f a3b4 00be
00000040: 2784 d13e 061b b7bb a63a 173e b87e d6bf
00000050: f35c 013f 044d e73e 7c19 db3d da9c 5dbf
00000060: 506e 83bf 0a68 bb3f d6d9 17c0 1ccc 04bf
00000070: d084 debf 0b27 2940 d2fd a53e 61c1 0cc0
00000080: ae47 043f 8abd 5f3f 838c 1340 0c4c 8a40
00000090: 94d8 3dbf 7700 023f b95e 0a40 e941 b53d
000000a0: a617 c33d ef5f 65bf eed0 24c0 267c bfbe
000000b0: 73bd 293f 1ce1 803f b24b 0ec0 591f e43f
000000c0: 578b cd3f c6e0 563f 8bac 583f e99b 6e40
000000d0: 6ea4 b33e 50fb 61c0 8d24 e43f 7c6d 42bf
000000e0: e3fa f33f 06e1 7a3e 1516 313f a75b a83e
000000f0: e99f 443f bd09 35bf a1b0 2540 3f0e 1740
00000100: 320b 193f 1ebc f53d 35aa 41bf 9a92 84bf
00000110: 1f89 643e ee26 de3f 1316 963e 579b 5640
00000120: ca6f 043f 0b8f e7be c037 3140 40f3 0d40
00000130: b5a2 513f fcb6 e23f 44b4 3c40 f336 903f
00000140: e2eb 573f f7eb 42bf 9620 7dbe daf3 a13e
00000150: b151 a93d 2b30 e13e a5d4 3940 37c7 763e
00000160: d642 103f 572e 1bbf c816 b43e 971e 463f
00000170: 1c63 863e 8ea6 433f 11b5 25c0 23b2 6cbe
00000180: 023f 2fc0 32cf 5740 3223 28c0 ad91 a2c0
00000190: 8b64 a8bf c9e5 08c0 2320 da3f 2d5e a13f
000001a0: 5a7a 903f 8764 d53e bdeb 1ebf 65c2 a9be
000001b0: fb92 21be 6659 40bf 5eac bf3e 333b 963f
000001c0: 6091 d43e bf8e 7740 15d8 02c0 7a41 b53f
000001d0: fdca ccbe f102 e93d 93e1 2440 6f40 bcbc
000001e0: 66a3 7ebe 7755 2dbf 3e63 2840 3b5a 66bf
000001f0: 2177 8e3e 1623 50c0 f0b0 dcbe 0390 2fbe
00000200: 3987 66bf af84 5a40 e53e 16c0 7129 f9be
00000210: 5441 b6bf 6978 083e f235 fe3e 62c4 9e3f
00000220: 28ed e6be 7fda 693e b180 a53f 8958 b8bf
00000230: 2d3c 65bf 991b 94bf baed 8340 57e2 6d40
00000240: 8eba a1bf 6187 ce3f db86 d5bf d106 62bf
00000250: 3bf1 0ac0 38b2 e3bf af9e 6240 424f 103f
00000260: 104d e9bf 09c7 1e40 09bf 1e3d 404b 36be
00000270: 44ef a93c adad 6d40 5b82 b4be 55df a83f
00000280: b6e5 4dbf b361 59bf 9500 75bf e325 81be
00000290: 7e77 f33e 6ec6 12bf 0608 5ebf cc4d 92bf
000002a0: 0d4f f03f 7339 8c3f 2955 09bf e38f 753f
000002b0: 70ed 463c a299 883d 9b6b a740 bb30 8ebf
000002c0: 40de f8bf 40df 3d3f 6d4f 2040 248e bdbf
000002d0: 755b 38c0 9421 93bf e8ac 2040 3f16 113f
000002e0: 4b19 d13e f8ae f93f 1477 4a3f 1a0b ebbf
000002f0: f0a8 c93f 8ab8 353e fe7f 3240 ca7e 0340
00000300: 9ef2 dbbf 30da 143f e73f 903e 395b 24c0
00000310: 00dd c63e 84b3 6cbe b04f 1140 125c 983f
00000320: 8822 85bf bbce 8c3f 52b5 7dbf c008 31c0
00000330: 4f84 a4bf db08 1ebf 95fe a9bf fd27 3840
00000340: 3aa2 36c0 7fc8 f9be d673 12c0 b6e9 0a40
00000350: 8056 963f 1394 6f3f f31f eebe a99a 97bf
00000360: 5b25 f73f 2a2a 0440 e273 a53e a2bd 77bf
00000370: 5312 d33d 1a92 5e3f 9ac9 8bbe 2628 0abf
00000380: 4f1b bebf 848d 09bf 6431 7d3f 709f a63d
00000390: b987 893f 9a15 27bf 4def 0dc0 cee8 0cbf
000003a0: a8c6 8e3f 9766 783d 5010 4bc0 0c04 10c0
000003b0: 6a21 fa3e 36a1 4f3f 7007 c13f b20d c33d
000003c0: 5fea 8bbf 4143 dc3f 015d 82bf c097 91c0
000003d0: 4006 f0bf fff8 493f 7357 61be f43b 133f
000003e0: 28ba d73e e6b5 36bf af60 5a3f 121a 333e
000003f0: 1822 133f e3e1 85bf 98d7 abbe e9cb e93f
-2.332003 1.5783536 0.56847 -2.3047192 -0.7032007 -0.983293 -0.5535014 1.1032691
1.4713249 2.4509625 -0.11582101 1.2521272 -0.82877463 -2.425509 0.61415064 -0.12568907
0.40921137 -0.0055879382 0.14768466 -1.6757421 0.50532454 0.45175946 0.1069822 -0.8656746
-1.026804 1.4641125 -2.3726707 -0.51873946 -1.7384281 2.643008 0.32420212 -2.199303
0.51671875 0.8739859 2.3054512 4.321783 -0.74158597 0.5078196 2.1620314 0.08850462
0.09525995 -0.8959951 -2.575252 -0.37399405 0.663047 1.0068698 -2.22337 1.7822067
1.6058148 0.8393673 0.8463828 3.728266 0.35086387 -3.530964 1.7823654 -0.7594831
1.906094 0.24499902 0.6917432 0.32882425 0.76806504 -0.70717984 2.5889056 2.3602445
0.5978271 0.11998771 -0.7565034 -1.0357239 0.22317933 1.735563 0.29313716 3.3532312
0.51733077 -0.4522632 2.7690277 2.2179718 0.81888896 1.7712092 2.9485025 1.1266769
0.84344304 -0.76141304 -0.24719462 0.31631356 0.082675345 0.43982062 2.9036038 0.24099432
0.56351984 -0.60617584 0.3517363 0.77390426 0.2624749 0.7642602 -2.5891764 -0.23114829
-2.7382207 3.3720212 -2.6271482 -5.0802827 -1.3155683 -2.139025 1.7041057 1.2606865
1.1287339 0.4167826 -0.6207846 -0.33156124 -0.15778725 -0.7513641 0.37436193 1.1736816
0.41517162 3.8680875 -2.0444386 1.4160607 -0.39998618 0.11377514 2.576268 -0.022979943
-0.24867019 -0.67708534 2.6310573 -0.8998143 0.27825263 -3.2521415 -0.43103743 -0.1714478
-0.90050083 3.4143484 -2.3475888 -0.4866443 -1.4238687 0.13327183 0.49650532 1.2403681
-0.4510281 0.22837256 1.2929899 -1.4402019 -0.89544946 -1.1570922 4.1227694 3.7169397
-1.2635057 1.6135064 -1.668178 -0.8829165 -2.1709735 -1.7788763 3.5409353 0.5637094
-1.8226643 2.4808981 0.038756404 -0.17802143 0.020743974 3.7137253 -0.35255703 1.3193156
-0.80428636 -0.849147 -0.95704013 -0.25224218 0.47552103 -0.5733403 -0.8673099 -1.1429992
1.8774124 1.0955032 -0.5364557 0.9592268 0.01214157 0.06669928 5.2318854 -1.1108621
-1.9442825 0.7416878 2.5048478 -1.4809003 -2.880582 -1.1494622 2.5105534 0.5667457
0.4083961 1.9506521 0.7908795 -1.8362763 1.5754681 0.17746177 2.789062 2.0546136
-1.7183416 0.5814543 0.28173754 -2.5680678 0.38840485 -0.23115355 2.2704887 1.1903098
-1.0401163 1.1000589 -0.991048 -2.766159 -1.2852877 -0.6173226 -1.3280817 2.8774407
-2.8536515 -0.4878578 -2.28832 2.1705146 1.1745148 0.9358532 -0.4650875 -1.1844074
1.9308275 2.0650735 0.32314974 -0.9677373 0.103062294 0.86941683 -0.27302247 -0.5396751
-1.4852084 -0.5373156 0.9890349 0.08135879 1.0744544 -0.65267336 -2.2177308 -0.5504273
1.1154375 0.060644712 -3.1728706 -2.250247 0.48853618 0.81105363 1.5080395 0.095240965
-1.0930899 1.7208024 -1.0184633 -4.549774 -1.8751907 0.7889556 -0.22006015 0.57513356
0.42134213 -0.71371305 0.8530378 0.17490414 0.574739 -1.045956 -0.33562922 1.8265353

variational_strategy._variational_distribution.variational_mean f4 [64]
00000000: 41ad d83f ee6e d7bf a293 b63f 7651 af3f
00000010: d925 06c0 70e1 d03e 7d92 2dc0 9310 0240
00000020: 1eb3 52bf 2685 9abf 5a55 263f 62d9 fbbe
00000030: d508 9940 e1ff 413e 7f3f 81be 397d 453e
00000040: 2e70 16c0 4b25 693f 8ce3 a93f 7cc9 363d
00000050: 21db f13f bc82 4ebe 6c44 ca3f 5a2f 5a3f
00000060: 13b7 6d3e c4b6 4640 4c84 9d40 a59a 69bf
00000070: b07c d33d 7760 52c0 f2d4 8640 fa5e 8440
00000080: 9e17 a7c0 c8df b13f 7b3e 9740 f8de d340
00000090: ca8e 2341 be02 14c0 976e f03f a799 0e40
000000a0: 47d6 06c1 10af edbf 9e33 f8bf e544 3541
000000b0: 41a7 afc0 b264 2fc0 3dd2 0ebf 39af 2841
000000c0: ad3f 97c0 01e1 8541 fe2a 3fc1 07d3 8141
000000d0: ae9f 2fc0 e375 94c0 11f2 a9bf 1124 87c1
000000e0: e57d 5341 d140 7141 98c2 aac1 94d6 9cbf
000000f0: e878 4241 00a1 88c1 fd35 e441 1917 a2c1
1.6927873 -1.6830728 1.4263804 1.3696735 -2.09606 0.40796995 -2.712066 2.0322616
-0.8230456 -1.2071884 0.64973986 -0.49189287 4.782328 0.18945266 -0.25243756 0.1928605
-2.350597 0.9107253 1.3272567 0.044625744 1.8894998 -0.20167059 1.5802131 0.852285
0.23214369 3.1049051 4.9223995 -0.91251594 0.10326517 -3.2871377 4.2134943 4.136594
-5.221633 1.3896418 4.726377 6.620968 10.222361 -2.3126674 1.8783749 2.2281282
-8.427314 -1.856905 -1.9390752 11.32932 -5.4891667 -2.740521 -0.5578955 10.542779
-4.726523 16.734865 -11.947996 16.22804 -2.744121 -4.6393905 -1.3276998 -16.89261
13.218236 15.078324 -21.345016 -1.2252984 12.154518 -17.078613 28.526361 -20.261278

variational_strategy._variational_distribution.chol_variational_covar f4 [64, 64]
00000000: 0f93 22bc 0000 0000 0000 0000 0000 0000
00000010: 0000 0000 0000 0000 0000 0000 0000 0000
00000020: 0000 0000 0000 0000 0000 0000 0000 0000
00000030: 0000 0000 0000 0000 0000 0000 0000 0000
00000040: 0000 0000 0000 0000 0000 0000 0000 0000
00000050: 0000 0000 0000 0000 0000 0000 0000 0000
00000060: 0000 0000 0000 0000 0000 0000 0000 0000
00000070: 0000 0000 0000 0000 0000 0000 0000 0000
00000080: 0000 0000 0000 0000 0000 0000 0000 0000
00000090: 0000 0000 0000 0000 0000 0000 0000 0000
000000a0: 0000 0000 0000 0000 0000 0000 0000 0000
000000b0: 0000 0000 0000 0000 0000 0000 0000 0000
000000c0: 0000 0000 0000 0000 0000 0000 0000 0000
000000d0: 0000 0000 0000 0000 0000 0000 0000 0000
000000e0: 0000 0000 0000 0000 0000 0000 0000 0000
000000f0: 0000 0000 0000 0000 0000 0000 0000 0000
00000100: 4a05 1e3b a8cb 0bbc 0000 0000 0000 0000
00000110: 0000 0000 0000 0000 0000 0000 0000 0000
00000120: 0000 0000 0000 0000 0000 0000 0000 0000
00000130: 0000 0000 0000 0000 0000 0000 0000 0000
00000140: 0000 0000 0000 0000 0000 0000 0000 0000
00000150: 0000 0000 0000 0000 0000 0000 0000 0000
00000160: 0000 0000 0000 0000 0000 0000 0000 0000
00000170: 0000 0000 0000 0000 0000 0000 0000 0000
00000180: 0000 0000 0000 0000 0000 0000 0000 0000
00000190: 0000 0000 0000 0000 0000 0000 0000 0000
000001a0: 0000 0000 0000 0000 0000 0000 0000 0000
000001b0: 0000 0000 0000 0000 0000 0000 0000 0000
000001c0: 0000 0000 0000 0000 0000 0000 0000 0000
000001d0: 0000 0000 0000 0000 0000 0000 0000 0000
000001e0: 0000 0000 0000 0000 0000 0000 0000 0000
000001f0: 0000 0000 0000 0000 0000 0000 0000 0000
00000200: 92c9 883b 5f4f 733b 867c debb 0000 0000
00000210: 0000 0000 0000 0000 0000 0000 0000 0000
00000220: 0000 0000 0000 0000 0000 0000 0000 0000
00000230: 0000 0000 0000 0000 0000 0000 0000 0000
00000240: 0000 0000 0000 0000 0000 0000 0000 0000
00000250: 0000 0000 0000 0000 0000 0000 0000 0000
00000260: 0000 0000 0000 0000 0000 0000 0000 0000
00000270: 0000 0000 0000 0000 0000 0000 0000 0000
00000280: 0000 0000 0000 0000 0000 0000 0000 0000
00000290: 0000 0000 0000 0000 0000 0000 0000 0000
000002a0: 0000 0000 0000 0000 0000 0000 0000 0000
000002b0: 0000 0000 0000 0000 0000 0000 0000 0000
000002c0: 0000 0000 0000 0000 0000 0000 0000 0000
000002d0: 0000 0000 0000 0000 0000 0000 0000 0000
000002e0: 0000 0000 0000 0000 0000 0000 0000 0000
000002f0: 0000 0000 0000 0000 0000 0000 0000 0000
00000300: 47c9 223c 020b 5a3a ad38 373b bfbc 82bc
00000310: 0000 0000 0000 0000 0000 0000 0000 0000
00000320: 0000 0000 0000 0000 0000 0000 0000 0000
00000330: 0000 0000 0000 0000 0000 0000 0000 0000
00000340: 0000 0000 0000 0000 0000 0000 0000 0000
00000350: 0000 0000 0000 0000 0000 0000 0000 0000
00000360: 0000 0000 0000 0000 0000 0000 0000 0000
00000370: 0000 0000 0000 0000 0000 0000 0000 0000
00000380: 0000 0000 0000 0000 0000 0000 0000 0000
00000390: 0000 0000 0000 0000 0000 0000 0000 0000
000003a0: 0000 0000 0000 0000 0000 0000 0000 0000
000003b0: 0000 0000 0000 0000 0000 0000 0000 0000
000003c0: 0000 0000 0000 0000 0000 0000 0000 0000
000003d0: 0000 0000 0000 0000 0000 0000 0000 0000
000003e0: 0000 0000 0000 0000 0000 0000 0000 0000
000003f0: 0000 0000 0000 0000 0000 0000 0000 0000
-0.009922757 0.0 0.0 0.0 0.0 0.0 0.0 0.0
0.0 0.0 0.0 0.0 0.0 0.0 0.0 0.0
0.0 0.0 0.0 0.0 0.0 0.0 0.0 0.0
0.0 0.0 0.0 0.0 0.0 0.0 0.0 0.0
0.0 0.0 0.0 0.0 0.0 0.0 0.0 0.0
0.0 0.0 0.0 0.0 0.0 0.0 0.0 0.0
0.0 0.0 0.0 0.0 0.0 0.0 0.0 0.0
0.0 0.0 0.0 0.0 0.0 0.0 0.0 0.0
0.002411204 -0.008532442 0.0 0.0 0.0 0.0 0.0 0.0
0.0 0.0 0.0 0.0 0.0 0.0 0.0 0.0
0.0 0.0 0.0 0.0 0.0 0.0 0.0 0.0
0.0 0.0 0.0 0.0 0.0 0.0 0.0 0.0
0.0 0.0 0.0 0.0 0.0 0.0 0.0 0.0
0.0 0.0 0.0 0.0 0.0 0.0 0.0 0.0
0.0 0.0 0.0 0.0 0.0 0.0 0.0 0.0
0.0 0.0 0.0 0.0 0.0 0.0 0.0 0.0
0.0041744197 0.0037126166 -0.0067897467 0.0 0.0 0.0 0.0 0.0
0.0 0.0 0.0 0.0 0.0 0.0 0.0 0.0
0.0 0.0 0.0 0.0 0.0 0.0 0.0 0.0
0.0 0.0 0.0 0.0 0.0 0.0 0.0 0.0
0.0 0.0 0.0 0.0 0.0 0.0 0.0 0.0
0.0 0.0 0.0 0.0 0.0 0.0 0.0 0.0
0.0 0.0 0.0 0.0 0.0 0.0 0.0 0.0
0.0 0.0 0.0 0.0 0.0 0.0 0.0 0.0
0.009935684 0.00083176803 0.0027957365 -0.015959142 0.0 0.0 0.0 0.0
0.0 0.0 0.0 0.0 0.0 0.0 0.0 0.0
0.0 0.0 0.0 0.0 0.0 0.0 0.0 0.0
0.0 0.0 0.0 0.0 0.0 0.0 0.0 0.0
0.0 0.0 0.0 0.0 0.0 0.0 0.0 0.0
0.0 0.0 0.0 0.0 0.0 0.0 0.0 0.0
0.0 0.0 0.0 0.0 0.0 0.0 0.0 0.0
0.0 0.0 0.0 0.0 0.0 0.0 0.0 0.0

covar_module.base_kernel.raw_lengthscale f4 [1, 8]
00000000: 36d7 0f40 dbf0 1c40 38e5 b740 8dbd 9c40
00000010: f489 2f40 72f6 9b40 4fb7 6641 cd9b 0541
2.2475104 2.4522007 5.746731 4.8981385 2.742795 4.8738337 14.419753 8.350537

X_mean f4 [8]
00000000: 4bdf b43e c96d 2e3f 9b5e edbb 602e d13a
00000010: 609e ad3f dc1b 1cbe 62e5 fc3e e238 ff3e
0.3532661 0.6813627 -0.007243944 0.0015959255 1.3563957 -0.15245003 0.49393755 0.49848086

X_std f4 [8]
00000000: 8833 263e 9261 293e 2748 413f 4416 163f
00000010: cb91 3140 19d6 e840 7507 d73e f8cf e33e
0.16230595 0.16541126 0.7550072 0.58627725 2.7745235 7.276135 0.41997877 0.44494605

X f4 [3700, 8]
00000000: cdcc 2c3f f628 803f 0000 0000 0000 0000
00000010: db0f c93f 0000 0000 adb8 dc38 f602 163a
00000020: 21b8 2c3f 0b50 7e3f b41c e7bc 33a3 c8be
00000030: a816 c93f 38bf b13c 3e95 b638 c2cc dd39
00000040: 6895 2b3f 812a 763f 1698 1dbe 8389 61bf
00000050: 5b80 c93f 41e1 e13d bc27 8a3b 51b9 d539
00000060: b03c 283f 3fc4 673f b6a6 c2be 764b afbf
00000070: 5ab6 ca3f bb19 863e 8600 b23a 59e2 b739
00000080: bda6 213f d90b 533f 7c47 28bf f00e efbf
00000090: 1de1 cc3f 5076 e53e c049 bc3b abe2 043c
000000a0: aa7c 163f 1b87 383f 5854 a1bf a828 07c0
000000b0: 5891 d23f d35a 4340 f6fe ff3b 64dd bf3a
000000c0: b843 003f bde8 203f 06e8 00c0 4ce4 d7bf
000000d0: b228 0540 a658 4441 0508 ae3b 092d 013c
000000e0: 1a36 c63e 8a85 0e3f c223 21c0 3bab 8fbf
000000f0: 5e05 2f40 d34f 5741 fee4 4e3c a793 593c
00000100: 44ef 813e 8faf 053f b74c 2fc0 002f 7dbe
00000110: 32f8 5a40 867e 5d41 2406 053b 2bff 823c
00000120: 7203 f43d 14b2 083f 5682 23c0 18f8 323f
00000130: f2c3 7f40 854f 0341 e710 183c 1862 d83b
00000140: 3544 a73b 92e1 153f ab55 fcbf 9935 a33f
00000150: afea 8740 45b1 2940 12f8 983b c99c de3a
00000160: 2690 9abd 5a88 273f ab2a 9fbf 7ede b63f
00000170: 826e 8b40 2b03 1240 da0d af3c 1ebd bb3c
00000180: 9330 f3bd f343 393f 6992 f9be 2719 a63f
00000190: c087 8f40 86e9 3640 728f 103c ffdb 073c
000001a0: 1f63 01be 9db2 473f cd77 143e c0d8 6c3f
000001b0: 849c 9440 0a48 5f40 72d6 0f3a 4c13 893a
000001c0: 6c3e dcbd 9755 503f 9ae3 133f e648 d03e
000001d0: f684 9a40 1828 7840 ad3c 6e3c 1aed c63c
000001e0: 4e0f 93bd e4c8 513f 90e5 503f b1a4 44be
000001f0: 84f1 a040 3ae1 8340 e766 b13a bef0 5f3b
00000200: 79ca ecbc 2d54 4b3f 2a7b 643f 8a71 50bf
00000210: 6478 a740 270a 8240 ef3a 093c c192 213c
00000220: 3901 963c 99a8 3d3f 389c 803f 199c a3bf
00000230: afc4 a940 2837 64c0 5f9a 013d ce3b ea3c
00000240: 9011 923d 378b 2a3f 8f95 913f 9894 d8bf
00000250: 24b9 9d40 4e68 2dc1 cef6 093c c66a 573c
00000260: 8452 0a3e 8c74 133f d010 ba3f b7f5 e8bf
00000270: d538 8840 1a59 81c1 a0b5 b33c a25a d83c
00000280: f81b 5f3e ca45 033f 1baa df3f c037 96be
00000290: c3bd 5140 00f3 a7c1 bfee 123d 59c8 9b3c
000002a0: 4aef 983e d386 063f af02 c93f 0e1e 2a3f
000002b0: 4628 1440 f69a 5ac1 eb51 113c f144 bd3c
000002c0: a496 c13e 1736 113f f22b ca3f 2142 4b3f
000002d0: ea1a 0340 6541 93bf 51ca 283c abf0 f63c
000002e0: e9cd e83e 89b2 193f 9739 ba3f 408f 113f
000002f0: 3da1 0340 8d49 d63f 7273 183d 5de6 373d
00000300: 232e 043f c1be 223f 4088 793f 0db1 5c3f
00000310: 23db 1040 c54e ae40 9c76 f63c 6661 0e3d
00000320: 2ca3 0e3f ad43 2d3f e9e2 273f 392e 403f
00000330: 5c3e 2240 61e3 ab40 ed1c 9e3c 4876 363d
00000340: 5644 143f e636 353f eb12 853e 0c9c f13e
00000350: 704b 2e40 04c7 f23f ec96 533d ea17 0f3d
00000360: c758 163f 09e6 383f a2e7 ad3d cccd cd3d
00000370: b720 3040 e59f d0be db12 303d 0e7c 063d
00000380: 123c 163f d4ff 373f 142b e8bd fe77 71be
00000390: ee42 2c40 c3c1 fbbf ce28 183d 4e41 323d
000003a0: 2c2c 133f f427 333f 8339 c6be 6128 00bf
000003b0: 9ec6 2340 9e09 4ac0 f096 3e3c bd0b 613c
000003c0: bdf9 0b3f d16f 2b3f 650b 3cbf 6f16 37bf
000003d0: 7cfa 1940 b138 39c0 70d0 6b3d e735 c23c
000003e0: 39a9 003f 11e4 203f c151 86bf c3a5 66bf
000003f0: 34cc 1140 706c 0dc0 0b7c 2f3c f839 bc3b
0.675 1.00125 0.0 0.0 1.5707964 0.0 0.00010524816 0.0005722487
0.6746846 0.99340886 -0.028211929 -0.3918701 1.5710039 0.021697626 8.706235e-05 0.0004230496
0.6702485 0.96158606 -0.15390047 -0.8810045 1.5742296 0.11029292 0.0042161625 0.00040764597
0.657176 0.9053382 -0.38017815 -1.3694904 1.5836899 0.26191506 0.0013580478 0.00035073122
0.6314505 0.82439953 -0.65734076 -1.8676434 1.6006199 0.44816828 0.0057460964 0.0081106825
0.5878397 0.72081155 -1.2603865 -2.1118565 1.6450605 3.0524185 0.007812376 0.0014638123
0.5010333 0.6285513 -2.0141616 -1.6866546 2.0806088 12.271643 0.0053110146 0.007884272
0.3871315 0.55672514 -2.5178075 -1.122413 2.7347026 13.456988 0.012627838 0.013279832
0.25377858 0.52221006 -2.7390573 -0.2472496 3.4213986 13.8433895 0.002029785 0.015990814
0.1191472 0.53396726 -2.55483 0.6990981 3.9963346 8.206914 0.009281374 0.0066034906
0.0051045665 0.5854732 -1.9713644 1.2750732 4.247398 2.6514447 0.004668244 0.0016983981
-0.075470254 0.6544243 -1.2434896 1.4286649 4.3572397 2.2814434 0.02136891 0.022917327
-0.11874499 0.7236931 -0.48744515 1.2976426 4.485321 2.8580031 0.0088232625 0.008292197
-0.12635468 0.7800692 0.14498825 0.92518234 4.644106 3.488772 0.0005486972 0.0010458021
-0.107540935 0.813806 0.5776917 0.40680617 4.8287306 3.8774471 0.014540833 0.02428298
-0.071806535 0.8194716 0.81600285 -0.1920345 5.029482 4.1212435 0.0013534696 0.0034170593
-0.02890514 0.7942532 0.89250433 -0.81423247 5.233446 4.0637393 0.008375867 0.009861649
0.01831113 0.74085385 1.0047674 -1.2782012 5.305259 -3.5658665 0.03164136 0.02859297
0.07132256 0.66618675 1.1373767 -1.6920347 4.92885 -10.837965 0.008420659 0.013148015
0.1350804 0.5759971 1.4536381 -1.8199986 4.2569375 -16.168507 0.021937191 0.026410405
0.21788013 0.51278365 1.7473787 -0.2933941 3.2772071 -20.993652 0.035872217 0.019016432
0.29870063 0.52549475 1.5703944 0.6645211 2.314958 -13.662832 0.008869628 0.023104163
0.37810242 0.5672316 1.5794661 0.7939778 2.0485177 -1.1504332 0.010302142 0.030144056
0.45469597 0.6003805 1.4548825 0.5685921 2.0567162 1.6741196 0.037219472 0.044897426
0.516329 0.6357232 0.97473526 0.8620766 2.263375 5.4471154 0.030085854 0.034760855
0.5571773 0.6768139 0.6558061 0.7507053 2.535056 5.371506 0.019300902 0.044546396
0.5791677 0.70786893 0.25990996 0.47189367 2.7233543 1.8966985 0.051657602 0.034934916
0.58729213 0.72226006 0.08491446 0.10049018 2.7519968 -0.4074699 0.042986732 0.03283315
0.5868541 0.7187474 -0.113363415 -0.2358093 2.691585 -1.9668506 0.03714829 0.04351931
0.57489276 0.6998284 -0.38715753 -0.50061613 2.5589976 -3.156837 0.011632666 0.013735709
0.54677945 0.66967493 -0.73454887 -0.71518606 2.4059134 -2.8940852 0.05757183 0.023707343
0.50258213 0.62848 -1.0493699 -0.9009668 2.2780886 -2.2097435 0.0107107265 0.005744215

Y f4 [3700]
00000000: 0000 0000 dac7 a4bc 0cd2 1fbd f843 58bd
00000010: 10cf 83bd ec74 9abe c0c6 f0bd e036 abbd
00000020: 002a debb c051 c73d c808 0e3e 5090 183e
00000030: 94f1 123e f030 ce3d c0bd 7c3d 80d0 9c3c
00000040: 0057 463c 00b7 963c e007 3d3d 20ee c43d
00000050: 30ed 90bd 00e4 173c 001b 73bc b0e6 95bd
00000060: c85c 87bd 0026 b9bd 8c46 49bd af49 08bd
00000070: b0f9 35bd 981c 8abd c058 6ebd 30d4 a6bd
00000080: e09e 29bd 40b4 eabc 0098 67ba 4037 1b3d
00000090: e0c1 5e3d 1022 9c3d 8845 9b3d 9c55 863d
000000a0: 8893 6e3d a85d 583d 2008 663d 302b 6e3d
000000b0: 2033 533d 6079 203d 00dc 39bc 004d 25bc
000000c0: 0037 f4bc e095 73bd 00c9 7dbd b09e 59bd
000000d0: a8aa 38bd d0a4 3cbd 408a 54bd 50ab 60bd
000000e0: 4016 72bd 608b 47bd 8073 04bd 8066 9fbc
000000f0: 80ac 1e3c 6037 1d3d e003 603d d0ed 8e3d
00000100: 800a 723d 224a 7e3d dc67 603d c09d 453d
00000110: 809e 423d f0c0 5b3d 0087 033d 0080 bab9
00000120: 80c4 11bc 4074 89bc b0d0 25bd 60f1 4ebd
00000130: 98ca 3bbd bcea 40bd 54cd 35bd 481a 2bbd
00000140: e096 4cbd 20b7 3ebd 8044 19bd 80bf 09bd
00000150: 4097 a6bc 00a4 173c 403d a73c 6092 f63c
00000160: e01e 5e3d 8839 5d3d cc62 733d a608 753d
00000170: b827 693d c0a0 613d 60b8 3a3d a04c 193d
00000180: 806b 4d3c 0065 22bc 00f4 f0bc 601c 09bd
00000190: b065 3cbd 5850 3ebd 4011 28bd e037 0dbd
000001a0: 580d 29bd 38f1 1ebd 508a 20bd 60e4 efbc
000001b0: 0032 f1bc 000a a2bc 80a5 4c3c 60e3 c43c
000001c0: a069 973c 20e4 273d a081 2d3d 48f8 4c3d
000001d0: 2294 3f3d 2023 503d 8030 403d 6078 363d
000001e0: 50d7 143d 00e7 d83b 0018 4cba a0ac a3bc
000001f0: e0f6 aabc 804e d8bc a046 30bd a05a 43bd
00000200: 3017 13bd bdca 41bd 18f2 21bd 98dd 30bd
00000210: 2008 1dbd 90f2 25bd 2043 acbc 0058 3bba
00000220: 800d 5c3c 6028 d73c 10c9 033d 70f1 453d
00000230: d875 653d 2625 483d 0423 403d 5807 2c3d
00000240: f0dc 113d c0d6 0b3d 4010 4d3c 8046 c6bb
00000250: 8040 6fbc a01c 8abc e01b d4bc c04f 2abd
00000260: 3077 46bd 601a 1bbd 1bb2 d0bc ac8c 42bd
00000270: 8002 0fbd e0c0 0fbd c09c fdbc c0fb 01bd
00000280: 0095 9cbb 00dc c73b 601d 9c3c 00e9 cb3c
00000290: b08e 213d 20a6 423d ac7b 1a3d e0e4 333d
000002a0: 0842 333d f809 343d c03c f53c 40bd 113d
000002b0: 20e6 8f3c 0044 c43b e07c f6bc 60ab fcbc
000002c0: 7092 0abd a0c7 ccbc 107a 2fbd f89e 16bd
000002d0: 982a 08bd 3050 ffbc e0da edbc 0094 9cbc
000002e0: 0093 c3bc 40c5 1fbc 004c e7bb 4054 413c
000002f0: a05b c13c 5070 1c3d f06a b23c 50b7 183d
00000300: bb97 2f3d 44ac 573d e890 183d 60f2 9f3c
00000310: a0ec f43c 6071 af3c 8018 d8bb 40fe 2abc
00000320: a0ac c2bc a0c0 97bc 8095 e8bc c8db c7bc
00000330: 0c68 a5bc ee37 10bd 10b1 c0bc 70cd a4bc
00000340: c040 62bc 6053 bfbc 0044 54bb 005b b63c
00000350: c085 4b3c 8039 043c c048 783c b033 b13c
00000360: 80b5 733c d02b 403d 349c f33c f8ad 393d
00000370: c0da 3b3d 109e 1e3d c00c 133c 8051 aebb
00000380: 0024 03bb 6058 dfbc 408c ffbc 00aa 4bbc
00000390: 401d b5bc 50fd 05bd 50d4 7fbc 30e9 64bc
000003a0: 706f 92bc 0003 f5bc a067 e7bc f0dd 09bd
000003b0: e018 8bbc 000f 2c3c 6090 823c c02f 7b3c
000003c0: c0e6 653c 40d7 053d b87a 883c 3425 e23c
000003d0: 4da0 953c 3094 ab3c b042 b93c 80cc 903c
000003e0: c07a 433c 00a5 623c 00cd 6c3b c002 05bc
000003f0: a0fd 9cbc 3084 a2bc c0a2 bfbc 7096 d7bc
0.0 -0.020114828 -0.039018676 -0.052799195 -0.064359784 -0.3016733 -0.117566586 -0.08360076
-0.006779909 0.097323895 0.13870537 0.14898801 0.14349967 0.10067928 0.061704397 0.01914239
0.012105703 0.018397808 0.04615009 0.09615731 -0.0707649 0.009270668 -0.01483798 -0.07319391
-0.066094935 -0.09040451 -0.049139544 -0.033273395 -0.044427574 -0.06743735 -0.058190107 -0.0814594
-0.04141128 -0.028650403 -0.00088346004 0.037894487 0.054384112 0.076236844 0.075816214 0.065592974
0.058246166 0.052823693 0.056160092 0.058146656 0.05156243 0.039178252 -0.011343956 -0.010089159
-0.029811382 -0.059469104 -0.061959267 -0.05312985 -0.045084625 -0.046055615 -0.051889658 -0.054850876
-0.05910325 -0.048716903 -0.032336712 -0.019458055 0.009684682 0.038382888 0.054691195 0.06978953
0.059092045 0.062082417 0.054786548 0.048246145 0.04751444 0.053650796 0.032111168 -0.00035572052
-0.008896947 -0.016779065 -0.040482223 -0.050523162 -0.045847505 -0.04709886 -0.04438527 -0.04177311
-0.049948573 -0.04656136 -0.037418842 -0.033629894 -0.020335793 0.009255409 0.020414948 0.030099094
0.054228663 0.054009944 0.059420392 0.0598227 0.056922644 0.055084944 0.04558599 0.03742659
0.012537837 -0.009911776 -0.029413223 -0.033474326 -0.045995414 -0.04646334 -0.041032076 -0.034477115
-0.04127249 -0.038804263 -0.039194405 -0.029283702 -0.029442787 -0.019780159 0.01249063 0.024034202
0.018482983 0.04098904 0.04235995 0.050041467 0.04677213 0.050814748 0.046921253 0.044548392
0.03633815 0.006619334 -0.00077855587 -0.019979775 -0.020869672 -0.02640462 -0.043036103 -0.04769385
-0.035910785 -0.047312487 -0.03953752 -0.04318008 -0.038337827 -0.04051453 -0.021028101 -0.0007146597
0.013430953 0.02626437 0.03217417 0.048325956 0.056020588 0.048863553 0.046908394 0.04199919
0.035611093 0.03414035 0.012516081 -0.0060508847 -0.01460278 -0.016859353 -0.025892198 -0.04157996
-0.04845351 -0.03786695 -0.025475552 -0.047497436 -0.034914494 -0.03509605 -0.030958533 -0.031734228
-0.0047785044 0.006099224 0.019056976 0.024891376 0.039442718 0.04752171 0.0377156 0.043919444
0.043764144 0.04395482 0.029936194 0.035580873 0.017565787 0.0059895515 -0.030088842 -0.030843437
-0.03383106 -0.024997532 -0.042841017 -0.0367727 -0.033243746 -0.031166166 -0.029035032 -0.01911354
-0.023873806 -0.009751618 -0.0070586205 0.011799872 0.02360326 0.038193047 0.021779507 0.037284195
0.04286931 0.05265452 0.03724757 0.019524753 0.029897988 0.021416366 -0.0065947175 -0.0104365945
-0.023763955 -0.018524468 -0.0283916 -0.024396792 -0.020191215 -0.03520959 -0.02352193 -0.020117491
-0.013809383 -0.023355186 -0.0032389164 0.022260189 0.012422025 0.00807035 0.015154064 0.021631092
0.014874816 0.046916783 0.02973757 0.045331925 0.045862913 0.03872496 0.008975208 -0.005319774
-0.0020010471 -0.02726382 -0.031194806 -0.012430668 -0.022108674 -0.03271228 -0.015614584 -0.013971612
-0.017875403 -0.029908657 -0.028247654 -0.03365892 -0.016979635 0.010501623 0.015937984 0.015331209
0.014032066 0.03267598 0.01666008 0.02760563 0.018264914 0.020944685 0.022614807 0.017675638
0.011931121 0.013833284 0.0036132932 -0.008118331 -0.019163907 -0.019838423 -0.023393035 -0.026316851
