Simplified/data/svgp_torch_models/svgp_dim5_final.pth (torch, 23292 bytes, 8 tensors)

variational_strategy.inducing_points f4 [25, 8]
00000000: cc69 ccbe 5ff8 06bf 3447 013f 18c7 91bd
00000010: d06a 4d3f 9823 38bf 2a88 043f 9490 5e3f
00000020: 6a97 17bf 6250 03bf 7b32 0fbf c276 203f
00000030: 418e 923f 5710 633f 2772 84bf 44a9 4c3f
00000040: 00ca 893f 18d9 d03f 9ec4 69bd 5116 033e
00000050: a64c 89bf 5fb1 1dbe 25ff 05bf 7b4d 71bf
00000060: 8a6f 12bf 918c b0be 176e 893f 83e6 9d3e
00000070: 2115 9d3f 226a 3a3f 7fe5 953f 092e 893f
00000080: 1ffb afbf 4737 39bf 89d3 363f 29ae 34bf
00000090: 032a 423f abd3 073e 00db 853f 99b6 943f
000000a0: 0cac 223f 682a 3dbe 73ef 683e 9b54 8f3e
000000b0: 7887 ffbe a03e 743f 6627 ca3f ae58 3d3e
000000c0: 36f5 babe 5c77 3dbf 48b0 c33e d17c 893f
000000d0: 9f1f 0a3f 0637 683f 1b01 bbbf 3656 29bf
000000e0: 54c1 423f aa86 863f 8144 39bd 8a23 2e3f
000000f0: b26d fcbf 6c89 e4be d1ef 79be 4d35 ba3e
00000100: d9d5 963f 964c 643f f57d 61be 5dbf 80bf
00000110: c80b b8bf a217 adbf 211c fa3e a6bb b5be
00000120: 1c19 9bbf 8ddc 18bf 6845 463f 46f3 333e
00000130: 91aa 6d3f 5802 adbf 3761 c63e d6fb 2abd
00000140: 27ba bf3e 210f d53c d3eb 34be e5f9 37bf
00000150: d250 a9bf c16b b7bb 4b86 6dbf e8a0 eebf
00000160: a24e 29bf 5076 45bf e43d a23d 1536 483f
00000170: 58d8 85bd d5a8 54bf 736e c33f 4357 ee3f
00000180: 30cf ef3e 3b18 99be e5db 9e3e 4904 423f
00000190: b8ac 82be 0d87 c0bf ba9e 2ebf b247 97be
000001a0: d5f9 9bbd 8e80 00bf 1e32 bb3e 8dc3 063f
000001b0: 11ff e0bd 53cc 90bf cd81 8a3e 5cf2 3240
000001c0: b65b dd3e 096d 8dbe 74e9 a6bf 2c2a 193d
000001d0: b90a f53b 2ad3 283f 092b 43be 8f86 ef3f
000001e0: c2a8 983e 9fb0 f2bd e572 f53d 9773 b73f
000001f0: 5f60 70bf 3379 0cbf bed3 0140 745c fa3f
00000200: d34d 48bf 25e6 4dbf 2e9d 713d 4c12 f33e
00000210: cfdc e5be d717 7bbe 44dd 53bf 2239 e13e
00000220: ec48 afbe e58e efbe b074 3b3e e9f4 493e
00000230: 82b6 163f 08f8 0cbf 6608 bbbd e96f c63f
00000240: 23af 4f3f 5402 cabe 3a62 10be b5b7 34bf
00000250: d577 a7bf 030c 963f b2d1 0abf 3344 1340
00000260: 2b23 523f 28d8 973f 0ca1 cbbe 832f 92bf
00000270: 6681 cabe b959 c1be 9aad ddbe 2e8f c03f
00000280: aa4b 193f c8b4 f13d 329f eabe 131b adbf
00000290: 308f aabf fb33 4a3f 5a92 a6be a99b 8dbf
000002a0: f6c1 34be c309 ed3d ecd9 743e a7cd 9c3f
000002b0: 7341 83be 1365 593f 459b 53bf 7599 ea3f
000002c0: 2aca 2e3f 175c 243e a64d b9be 5745 a5bf
000002d0: 8267 b9bf c395 46bd 67b5 46bf cdc2 84bf
000002e0: 206d 973f 102b ae3f aff5 993e 7cd5 25bf
000002f0: 3091 bebf 36e3 f93e de18 38bf 78a8 063f
00000300: 1112 7fbf 66d3 15bf e2b9 9ebe 2c39 233f
00000310: 1d4f f33e 3345 2ebf 47a6 53bf abef 923f
-0.39924467 -0.52722734 0.5049927 -0.07118052 0.8024111 -0.7192931 0.5177027 0.8693936
-0.59215415 -0.5129453 -0.559364 0.6268121 1.1449662 0.8869681 -1.0347337 0.7994578
1.076477 1.6316252 -0.057072274 0.12801482 -1.0726516 -0.15399693 -0.52342445 -0.9425885
-0.57201445 -0.34482244 1.0736722 0.3083993 1.2272073 0.72818196 1.1710662 1.0717174
-1.3748511 -0.7234997 0.7141653 -0.7057825 0.75845355 0.13264339 1.0457458 1.1618224
0.6354377 -0.18473208 0.22747593 0.27994236 -0.49908042 0.9540806 1.5793273 0.1849086
-0.36515206 -0.7401025 0.3822043 1.0741216 0.539545 0.9070896 -1.4609712 -0.6614717
0.76076245 1.0509846 -0.045231346 0.6802298 -1.9720976 -0.44636095 -0.24407889 0.3636879
1.1784011 0.8917936 -0.22020705 -1.00584 -1.4378595 -1.3522837 0.48849586 -0.35494727
-1.2117038 -0.59711534 0.77449656 0.1757327 0.9283839 -1.351634 0.38746044 -0.041744076
0.3744671 0.02600819 -0.17668085 -0.71865684 -1.3227789 -0.005597562 -0.9278304 -1.8642855
-0.6613561 -0.77133656 0.07921961 0.7820752 -0.06535405 -0.8307012 1.5268081 1.862038
0.4683776 -0.299013 0.3102714 0.7578779 -0.255224 -1.5041214 -0.6821095 -0.29546887
-0.07616011 -0.5019616 0.36561674 0.52642137 -0.1098615 -1.1312355 0.27052155 2.7960424
0.43234032 -0.2762225 -1.3039994 0.037393734 0.007478085 0.6594721 -0.19059385 1.8712939
0.29816252 -0.11850094 0.11984805 1.433215 -0.9389705 -0.54872435 2.0285487 1.9559464
-0.7824375 -0.804293 0.05898779 0.47474897 -0.44895026 -0.24520813 -0.827595 0.439889
-0.34235322 -0.46788707 0.18306231 0.19722332 0.58872235 -0.55065966 -0.09132461 1.5502902
0.8112661 -0.394549 -0.1409997 -0.70592815 -1.3083445 1.1722416 -0.5422622 2.3010375
0.8208491 1.1862841 -0.39771307 -1.142075 -0.39551848 -0.37763765 -0.4329651 1.5043695
0.5988108 0.118020594 -0.4582458 -1.3523887 -1.3324947 0.78985566 -0.32533532 -1.1063129
-0.17652115 0.115741275 0.23911256 1.225026 -0.2563587 0.8491985 -0.826588 1.8328081
0.6827723 0.16050754 -0.36192054 -1.2911786 -1.4484713 -0.048482668 -0.7762055 -1.0371948
1.1830177 1.3606892 0.30070254 -0.64778876 -1.4888058 0.4880616 -0.71912944 0.5260081
-0.9963694 -0.58525693 -0.31001192 0.6375911 0.47521296 -0.6807434 -0.82675594 1.1479391

variational_strategy._variational_distribution.variational_mean f4 [25]
00000000: cbb7 a83f eb1e 23bf dfde 8c3f 8f78 1740
00000010: 47cb a040 6f49 2d40 c4ef 5dbd 7660 323f
00000020: 82c0 693f 3eb8 4d40 a628 bb3f 0939 683e
00000030: bbc7 0f40 47fc 5ac0 c202 9cc0 f0d9 d7bf
00000040: 399f c040 7be7 02c1 a8ae a43f e49f edc0
00000050: af10 ab40 89ee f8c0 e76b 0441 feda 9840
00000060: 76a5 2541
1.3181089 -0.6371905 1.1005515 2.3667333 5.024814 2.707607 -0.054183736 0.6967844
0.9130937 3.2143703 1.462178 0.22678007 2.2465656 -3.4216478 -4.8753366 -1.6863384
6.0194364 -8.181514 1.2865801 -7.425768 5.3457866 -7.779118 8.276343 4.7767324
10.352896

variational_strategy._variational_distribution.chol_variational_covar f4 [25, 25]
00000000: 649d 3d3c 0000 0000 0000 0000 0000 0000
00000010: 0000 0000 0000 0000 0000 0000 0000 0000
00000020: 0000 0000 0000 0000 0000 0000 0000 0000
00000030: 0000 0000 0000 0000 0000 0000 0000 0000
00000040: 0000 0000 0000 0000 0000 0000 0000 0000
00000050: 0000 0000 0000 0000 0000 0000 0000 0000
00000060: 0000 0000 fd80 8cbb ef80 953c 0000 0000
00000070: 0000 0000 0000 0000 0000 0000 0000 0000
00000080: 0000 0000 0000 0000 0000 0000 0000 0000
00000090: 0000 0000 0000 0000 0000 0000 0000 0000
000000a0: 0000 0000 0000 0000 0000 0000 0000 0000
000000b0: 0000 0000 0000 0000 0000 0000 0000 0000
000000c0: 0000 0000 0000 0000 133d bcbb 8bdb 1ebb
000000d0: 0dc2 c93b 0000 0000 0000 0000 0000 0000
000000e0: 0000 0000 0000 0000 0000 0000 0000 0000
000000f0: 0000 0000 0000 0000 0000 0000 0000 0000
00000100: 0000 0000 0000 0000 0000 0000 0000 0000
00000110: 0000 0000 0000 0000 0000 0000 0000 0000
00000120: 0000 0000 0000 0000 0000 0000 c990 973b
00000130: 7b07 18bc 6560 af3b 9e79 1a3d 0000 0000
00000140: 0000 0000 0000 0000 0000 0000 0000 0000
00000150: 0000 0000 0000 0000 0000 0000 0000 0000
00000160: 0000 0000 0000 0000 0000 0000 0000 0000
00000170: 0000 0000 0000 0000 0000 0000 0000 0000
00000180: 0000 0000 0000 0000 0000 0000 0000 0000
00000190: 20b8 93bc 9e8c 9939 a89b 843a 95a7 153a
000001a0: f26e 163d 0000 0000 0000 0000 0000 0000
000001b0: 0000 0000 0000 0000 0000 0000 0000 0000
000001c0: 0000 0000 0000 0000 0000 0000 0000 0000
000001d0: 0000 0000 0000 0000 0000 0000 0000 0000
000001e0: 0000 0000 0000 0000 0000 0000 0000 0000
000001f0: 0000 0000 23f2 3abc a9ca bfb9 9653 efbb
00000200: c40a 69bc 0b3c 003b 15ca 383c 0000 0000
00000210: 0000 0000 0000 0000 0000 0000 0000 0000
00000220: 0000 0000 0000 0000 0000 0000 0000 0000
00000230: 0000 0000 0000 0000 0000 0000 0000 0000
00000240: 0000 0000 0000 0000 0000 0000 0000 0000
00000250: 0000 0000 0000 0000 d202 a33b 052f bcbc
00000260: a18a 143a 6a32 f03b a9f0 b0bb d570 65bb
00000270: d264 993c 0000 0000 0000 0000 0000 0000
00000280: 0000 0000 0000 0000 0000 0000 0000 0000
00000290: 0000 0000 0000 0000 0000 0000 0000 0000
000002a0: 0000 0000 0000 0000 0000 0000 0000 0000
000002b0: 0000 0000 0000 0000 0000 0000 d75d b73b
000002c0: 8e58 4138 3783 75bb 5d6a 4b3b 5cab c339
000002d0: 6937 3abb ad07 57bb 01e3 2f3c 0000 0000
000002e0: 0000 0000 0000 0000 0000 0000 0000 0000
000002f0: 0000 0000 0000 0000 0000 0000 0000 0000
00000300: 0000 0000 0000 0000 0000 0000 0000 0000
00000310: 0000 0000 0000 0000 0000 0000 0000 0000
00000320: 1429 2e3b b707 853b d74e 0dbb 2b8d 0a3c
00000330: 4e42 3abc d779 73bb 2036 b7ba 3e44 443b
00000340: daab 373c 0000 0000 0000 0000 0000 0000
00000350: 0000 0000 0000 0000 0000 0000 0000 0000
00000360: 0000 0000 0000 0000 0000 0000 0000 0000
00000370: 0000 0000 0000 0000 0000 0000 0000 0000
00000380: 0000 0000 d235 6fbc 6c60 77bc 7cff bd3a
00000390: ef5f 43bc db80 2e3c c3ae 7cbc 96f0 e5bb
000003a0: 7cea 11bb 86e5 563b 9a2d 343d 0000 0000
000003b0: 0000 0000 0000 0000 0000 0000 0000 0000
000003c0: 0000 0000 0000 0000 0000 0000 0000 0000
000003d0: 0000 0000 0000 0000 0000 0000 0000 0000
000003e0: 0000 0000 0000 0000 03cd 153b bc0a 1cba
000003f0: 4e00 703a 4487 633c d809 95bb b76b 20bb
0.011573169 0.0 0.0 0.0 0.0 0.0 0.0 0.0
0.0 0.0 0.0 0.0 0.0 0.0 0.0 0.0
0.0 0.0 0.0 0.0 0.0 0.0 0.0 0.0
0.0 -0.0042878375 0.018249957 0.0 0.0 0.0 0.0 0.0
0.0 0.0 0.0 0.0 0.0 0.0 0.0 0.0
0.0 0.0 0.0 0.0 0.0 0.0 0.0 0.0
0.0 0.0 -0.0057445853 -0.0024239745 0.006157166 0.0 0.0 0.0
0.0 0.0 0.0 0.0 0.0 0.0 0.0 0.0
0.0 0.0 0.0 0.0 0.0 0.0 0.0 0.0
0.0 0.0 0.0 0.004625414 -0.009279127 0.0053520673 0.03771364 0.0
0.0 0.0 0.0 0.0 0.0 0.0 0.0 0.0
0.0 0.0 0.0 0.0 0.0 0.0 0.0 0.0
0.0 0.0 0.0 0.0 -0.018032134 0.00029287202 0.001011719 0.00057088706
0.0367269 0.0 0.0 0.0 0.0 0.0 0.0 0.0
0.0 0.0 0.0 0.0 0.0 0.0 0.0 0.0
0.0 0.0 0.0 0.0 0.0 -0.011410269 -0.00036581352 -0.0073036654
-0.014223758 0.0019567038 0.011278649 0.0 0.0 0.0 0.0 0.0
0.0 0.0 0.0 0.0 0.0 0.0 0.0 0.0
0.0 0.0 0.0 0.0 0.0 0.0 0.0049747014 -0.02297164
0.0005666409 0.0073302286 -0.0053997827 -0.003500988 0.018724833 0.0 0.0 0.0
0.0 0.0 0.0 0.0 0.0 0.0 0.0 0.0
0.0 0.0 0.0 0.0 0.0 0.0 0.0 0.0055959034
4.609726e-05 -0.0037462243 0.003103874 0.0003732097 -0.0028414375 -0.0032810972 0.010735274 0.0
0.0 0.0 0.0 0.0 0.0 0.0 0.0 0.0
0.0 0.0 0.0 0.0 0.0 0.0 0.0 0.0
0.0026574777 0.0040597576 -0.0021561885 0.008456509 -0.011368347 -0.003715148 -0.0013977922 0.0029947902
0.011210406 0.0 0.0 0.0 0.0 0.0 0.0 0.0
0.0 0.0 0.0 0.0 0.0 0.0 0.0 0.0
0.0 -0.014600234 -0.015098672 0.0014495696 -0.011924728 0.010650839 -0.015422526 -0.0070172055
-0.0022265008 0.0032790615 0.0439888 0.0 0.0 0.0 0.0 0.0
0.0 0.0 0.0 0.0 0.0 0.0 0.0 0.0
0.0 0.0 0.0022857792 -0.0005952527 0.0009155319 0.01388723 -0.0045482926 -0.0024478266

covar_module.base_kernel.raw_lengthscale f4 [1, 8]
00000000: dbc6 5f40 bb7e 1d40 7dbe d240 18d7 663e
00000010: 1110 3a40 9a31 7f40 fc8e 9340 c149 a340
3.4965122 2.46086 6.585753 0.22542989 2.9072306 3.9874024 4.611204 5.102753

X_mean f4 [8]
00000000: 84a0 aa3e 7764 2b3f eef2 23be 62e6 bbbe
00000010: 995d 3c40 a9ed 683f cabc d33e 5e63 113f
0.3332559 0.6695017 -0.16010639 -0.36699206 2.9432127 0.9098764 0.41354972 0.5679225

X_std f4 [8]
00000000: 4824 843e cc64 2b3e f61b c03f e184 6c3f
00000010: 8324 8b3f 3952 c340 1162 d23e f2dd d63e
0.2580893 0.1673767 1.5008533 0.9239026 1.0870517 6.103787 0.41090444 0.41966206

X f4 [325, 8]
00000000: cdcc 2c3f f628 803f 0000 0000 0000 0000
00000010: db0f c93f 0000 0000 ff7d 7538 a0ba 2038
00000020: 85c5 2c3f 2732 7f3f c9c2 5dbc eb19 95be
00000030: de15 c93f 907b 213d 59f3 863d 3e89 133c
00000040: fa3e 2c3f 2749 7a3f 4a63 d0bd 7ce5 29bf
00000050: 7917 ca3f a74f b43e 65bf 833d 2a3d 7d3c
00000060: 5798 2a3f 9da3 713f ac65 72be ac52 83bf
00000070: b684 cd3f 779e 433f 8955 623e 1552 0b3d
00000080: ee36 273f a053 653f 2b64 dabe f89e afbf
00000090: d965 d33f 2536 a13f dac7 263e 3dda 3f3e
000000a0: efe1 213f 3065 553f 20ea 1dbf f8c8 ddbf
000000b0: 5ac3 da3f 86e7 a53f 6526 393c 7ae0 c53e
000000c0: 3c7e 1a3f d23f 423f 87df 58bf b20a ffbf
000000d0: 41fe de3f ef85 c03e aa83 943e 31a4 e03e
000000e0: 86c8 0e3f 8a2a 2e3f 5c7b cbbf 7ff0 d7bf
000000f0: a9f3 e53f 97ec af40 10bc ea3e 7770 0c3f
00000100: a39d f93e 4781 1e3f db9a f0bf 8c22 b7bf
00000110: e905 0740 e450 2141 f53d 9f3d cf7d a93e
00000120: 8947 d03e 125c 113f 263d 08c0 55fc 8ebf
00000130: e8db 2240 857e 2141 d731 a33d 374a 313f
00000140: cbc9 a23e b8c0 083f 498b 12c0 b210 0dbf
00000150: 0838 3c40 32fc 0f41 506e 363f c39f 253f
00000160: 68b8 6b3e cbf1 053f 6ae1 04c0 e701 d4bc
00000170: cc82 5240 aa88 0641 7700 1b3e 4919 7a3e
00000180: 815c 1c3e 39a3 073f 15ab e6bf 6dcb ae3e
00000190: db81 6940 bd77 1441 7185 d13e f1f7 673f
000001a0: c604 b53d 3967 0c3f 805a b4bf 7558 133f
000001b0: 8185 7c40 2084 f240 2823 823e f595 e33e
000001c0: cf3a 273d c2e8 123f 5a75 76bf 2e44 2a3f
000001d0: 1abc 8640 70a0 b140 0753 d83d a97c 0d3e
000001e0: eeeb 2d3c 1f8a 193f 2eb5 09bf f5ad 0f3f
000001f0: 002d 8c40 799e e73f 2e09 423f 0f68 083f
00000200: 622d 00bb 1094 1d3f 75ba e3bd 8507 6e3e
00000210: 9cdf 8d40 f7fc 053f 6ddf bc3e 5254 163f
00000220: e871 0a3a 7094 1e3f 47a3 6f3e 7848 5fbd
00000230: 195d 8d40 cac6 2fc0 7b7a 563f ed3e 893f
00000240: 7c42 8f3c f813 1c3f dbb0 233f 731a f6be
00000250: ce9d 8840 6df2 8fc0 d6f0 1a3f 441b 893f
00000260: f1e0 533d 2d4b 153f de80 8b3f aed8 52bf
00000270: 2c39 8140 e4eb 9cc0 13aa 113f 9aef 853f
00000280: 4e35 d73d df47 0c3f c4cd c93f ba9e 5ebf
00000290: f6b9 7440 c82a dac0 d01e 463f e6c5 4f3f
000002a0: f8f8 373e 2915 053f 8baa 0540 e1ca cfbe
000002b0: 3ee7 6740 9612 91c0 dc11 5e3e 986f c23f
000002c0: 9393 8a3e c68e 043f 2910 1b40 40e8 aa3e
000002d0: 7dba 5040 4aec 2fc1 128a 453e cc11 b53e
000002e0: dd51 bc3e 7521 0b3f ccca 1e40 a6d5 703f
000002f0: cef7 3640 389d f0c0 f20e ca3f 601a 803f
00000300: b464 f03e 9899 183f 8ba7 1f40 b077 d93f
00000310: 78c4 2340 60c0 e4c0 6bc2 af3f 0d06 973f
00000320: cdcc 2c3f f628 803f 0000 0000 0000 0000
00000330: db0f c93f 0000 0000 cf02 8a3e c9c6 753e
00000340: cdcc 2c3f f628 803f 0000 0000 0000 0000
00000350: db0f c93f 0000 0000 f43d eb3e daa3 9d3e
00000360: b5cc 2c3f 6a1d 803f 6bef 25ba 4f72 90bd
00000370: c11e c93f 863b b93d 76cf 433e 4f9d 043e
00000380: 46cb 2c3f 32fa 7f3f 637e 95bb 63df 01be
00000390: f77a c93f ca79 f13e 3b86 3a3e b26d b23d
000003a0: 84c5 2c3f 6c8c 7f3f fb92 64bc 5e2e 55be
000003b0: 492e ca3f 808e 1f3f c473 d63e 0000 0000
000003c0: c4b7 2c3f 6ee8 7e3f 1937 edbc 44ab 95be
000003d0: e51f cb3f 0c0c 5a3f 2050 933c 0000 0000
000003e0: 869e 2c3f 7910 7e3f 498d 48bd b6d4 bbbe
000003f0: 22d8 cc3f 07c6 ea3f 68e8 493e 0000 0000
0.675 1.00125 0.0 0.0 1.5707964 0.0 5.8529895e-05 3.832078e-05
0.6748889 0.996859 -0.01353521 -0.29121336 1.5709798 0.03942448 0.06589384 0.009004889
0.67283595 0.9776787 -0.10175188 -0.6636579 1.5788413 0.3521702 0.0643299 0.015456477
0.666387 0.9439028 -0.23671597 -1.0259604 1.6056125 0.76413673 0.22102942 0.034013826
0.6531819 0.89580727 -0.42654547 -1.3720388 1.6515456 1.2594649 0.16287175 0.18735595
0.6323537 0.83357525 -0.6168537 -1.7326956 1.7090867 1.296128 0.011300658 0.38647825
0.6034887 0.7587863 -0.84716076 -1.9925139 1.7421342 0.37602183 0.29006702 0.43875268
0.55774724 0.6803366 -1.5897021 -1.6870269 1.7964984 5.4976306 0.45846605 0.5485911
0.4875308 0.6191601 -1.8797258 -1.4307418 2.1097357 10.082249 0.07775489 0.33103797
0.40679577 0.56781113 -2.1287322 -1.1170756 2.544672 10.093389 0.079684906 0.6925387
0.3179458 0.53419065 -2.2897513 -0.551036 2.9409199 8.999071 0.71262074 0.646969
0.23019564 0.5232207 -2.0762582 -0.025879813 3.2892332 8.408365 0.15136896 0.24423708
0.15269662 0.52983433 -1.802096 0.34139577 3.6485507 9.279233 0.4092212 0.90612704
0.08838801 0.54845005 -1.4090118 0.5755685 3.9456484 7.5786285 0.25417447 0.44450346
0.04082757 0.5738641 -0.96272814 0.66510284 4.2104616 5.5508347 0.10562711 0.13817085
0.010615332 0.5997638 -0.53792083 0.5612481 4.380493 1.8095237 0.7579526 0.5328378
-0.00195583 0.6155405 -0.11119548 0.23245056 4.433546 0.5233912 0.3688921 0.5872241
0.00052812556 0.6194525 0.23402129 -0.05451247 4.4176145 -2.7465081 0.8378064 1.0722328
0.017487757 0.6096797 0.63941735 -0.48067054 4.2692633 -4.498343 0.60523736 1.0711446
0.051728193 0.58317834 1.0898702 -0.82361877 4.038229 -4.9037952 0.5690014 1.0463746
0.10508214 0.54797167 1.576592 -0.8696095 3.8238502 -6.8177223 0.77390766 0.81161344
0.17966068 0.5198541 2.088534 -0.40584472 3.623489 -4.533519 0.216865 1.5190306
0.27065715 0.51780355 2.4228613 0.33380318 3.2613823 -10.995188 0.19290951 0.3536514
0.36781207 0.54347926 2.4811277 0.94076 2.8588748 -7.5191917 1.5785811 1.0008049
0.4695183 0.59609365 2.494601 1.6989651 2.5588665 -7.1484833 1.3731207 1.1798722
0.675 1.00125 0.0 0.0 1.5707964 0.0 0.26955268 0.24001612
0.675 1.00125 0.0 0.0 1.5707964 0.0 0.45945704 0.3078907
0.6749986 1.0008976 -0.00063299265 -0.07053053 1.571251 0.09044556 0.19122109 0.12950633
0.6749767 0.9999114 -0.0045621856 -0.12682872 1.5740651 0.4716323 0.18215267 0.08712329
0.67488885 0.9982364 -0.0139510585 -0.20818469 1.5795375 0.6232681 0.41885197 0.0
0.67467904 0.9957341 -0.028956937 -0.29232228 1.5869108 0.8517463 0.017982543 0.0
0.6742939 0.99243885 -0.048962865 -0.36685723 1.6003458 1.8341683 0.19717562 0.0

Y f4 [325]
00000000: 0000 0000 e829 a83d 661c 773e 00e5 7f3c
00000010: f07a b23d 00cb 8b3c 2b79 a5be 18bf 9d3f
00000020: 7034 933f 50e2 1b3f c080 16bf 302f 0f3f
00000030: 14cf a3bf 8020 ba3e 40b0 1d3e c827 76be
00000040: 0490 a23e a014 ec3d 9026 0fbf 8c1d 8d3f
00000050: 60aa ae3f 7630 3cc0 e073 b73e 1002 4dbf
00000060: c84d a7bf 0000 0000 863b b93d e82a c33e
00000070: 6c46 1b3e 30f6 693e 0280 7b3f 403a 0f3d
00000080: 7499 eb3e 8049 69bd c00d 0bbe 009c 58bb
00000090: a413 d9be 4088 953c dc1d 1d3f 7038 b1be
000000a0: 1ab6 28c0 3c81 30c0 3fe8 16c0 98eb 8cbf
000000b0: acb3 acbf b80f 96bf 3833 ae3f 1cd0 b13f
000000c0: 28e9 703f 948b dd3f 0203 8340 6d55 3e40
000000d0: 31ab 1c40 5c12 1240 a051 c23f d856 8d3f
000000e0: 5097 063f 6060 903e 007e 1b3e 90c6 46bf
000000f0: 683f a2bf c0f5 d1be 480a 08c0 ccae 29c0
00000100: 7a67 27c0 2bd2 cebf c6c5 3dbf 405d adbc
00000110: 4262 173f c41c 7c3f 1603 f93f e117 2240
00000120: bc6c fd3f d488 1240 800d 6cbe 0007 80be
00000130: 44a8 b7bf 2075 aabf 440f 01c0 82cb 27c0
00000140: c8b6 24c0 5547 04c0 12cd 9abf 6877 31bf
00000150: a80e 1dbf c095 b8be 406f 583f f0f9 38bf
00000160: 3880 783f 3822 c13f 3280 a63f 6804 a63e
00000170: a47a d53e 80d4 23bc 729a f33e 3400 31be
00000180: 0085 30bb 9eae 223f 4eb3 823f e6bf 0c3f
00000190: 4230 5b3f 8abb 0a40 7adf 4740 d05a 2040
000001a0: 2825 b93f 8037 723f a04a 4a3f 8c20 0140
000001b0: f8bc ca3f 5423 0fc0 f420 acc0 66f7 8bc0
000001c0: 5b7f 83c0 6874 ffbf eddc a4bf 3836 8ebf
000001d0: 5c23 82bf 8013 2fbe 8079 b4be 008c 40bc
000001e0: 108d b53e 40cb cbbd 8009 5abd 0064 503c
000001f0: 2c00 82bf 588d 02bf 707c 48bf 100d 58bf
00000200: a8c8 bbbf e0d7 da3e 2037 263f 40a0 693e
00000210: 0060 beba 8038 083e 8019 b33d 00c0 c43d
00000220: 808d da3d 68d1 823f c8de 753f 70e4 c83f
00000230: 620f 893f ae8b 1140 afc0 2640 e859 2440
00000240: 0478 2e40 1833 923f c084 863f c080 933f
00000250: 00ff c93f b0da 5e3f d04c 243f 80b0 50bf
00000260: 3851 a3bf 446b 4dc0 aaae 54c0 d664 4ec0
00000270: 767c 60c0 3cfa 53c0 26b8 49c0 948d 1ac0
00000280: e8d5 e5bf 8027 babf 6008 f8be 20da 01bf
00000290: 2009 403f 40ba 3d3e 40ed 333e 80fe c33d
000002a0: c07b 333f accc 0f40 b826 1840 14ab 0740
000002b0: 6333 4940 6ca3 f63f d0e7 253e 603f a53e
000002c0: 84ce d43e 5018 a43e a45f 4e3e 9fe9 a53e
000002d0: 7ecc 623f e0e7 dd3e 48fa 333f 7275 953f
000002e0: b239 883f b090 073f 4840 093f 50b6 643f
000002f0: 90c4 963f f004 223f 807e aa3d 105c c3be
00000300: 509b c53e e077 8fbe 3001 d3be d02a b2bf
00000310: 40ce c9bf bc48 cabf 80a5 00be e0bb 0c3e
00000320: 30a4 c2be 7888 413f cc9e 0940 1005 9e3e
00000330: e0af 47bf 5805 49c0 3888 5dc0 eeb5 81c0
00000340: 7241 86c0 4c5f 63c0 802a 29be d06f 6c3f
00000350: e08b de3e 60a1 3d3f c036 653f c0ff 233e
00000360: 80b1 4f3f e8b9 913f 407b 4c3e e011 c53e
00000370: f022 353f 004a 123f d85a 8c3f 90e0 3e3f
00000380: 805e 433d 7096 ee3e 0007 96bc 0023 51bd
00000390: ccbc 203f 80bd 78bd 9026 0ebe 403e 4fbf
000003a0: 5a14 3ac0 ecd6 5bc0 c03a 8c3e c8de f03f
000003b0: b800 583f 94db 873f a065 a93f 80da 3c3f
000003c0: 0a8b a83f 3551 c23f 9e1d c53f 1fe2 b13f
000003d0: 2cc4 0f40 98a5 f53f ec08 dc3f 3433 3f40
000003e0: 446e 7940 3ebd 8840 d095 0040 3066 6540
000003f0: 206f e03f 30a8 18c0 6043 63bf 0041 38be
0.0 0.08211118 0.24131927 0.015618563 0.08714855 0.017064571 -0.32319006 1.2323942
1.1500378 0.608922 -0.58790207 0.5593138 -1.279757 0.3635292 0.15399265 -0.24038613
0.317505 0.115273714 -0.55918217 1.1024642 1.3645744 -2.9404578 0.35830593 -0.8008127
-1.3070612 0.0 0.09044556 0.38118672 0.15163583 0.2284782 0.982422 0.03496766
0.46015513 -0.05695486 -0.13579464 -0.0033051968 -0.42397797 0.018253446 0.61373687 -0.3461337
-2.6361146 -2.7578878 -2.3579252 -1.1009398 -1.3492332 -1.1723547 1.3609381 1.3891635
0.9410577 1.7308221 4.094117 2.973964 2.4479487 2.2823706 1.518116 1.1042128
0.52574635 0.28198528 0.15184784 -0.7764673 -1.26756 -0.41007805 -2.1256275 -2.6512938
-2.6156907 -1.6157888 -0.74129903 -0.02116263 0.59134305 0.9848139 1.9454067 2.5327075
1.9798808 2.2896013 -0.23052025 -0.2500534 -1.4348226 -1.3316994 -2.0165567 -2.6217961
-2.573656 -2.0668538 -1.2093832 -0.69322824 -0.6135049 -0.3605175 0.84544754 -0.72256374
0.97070646 1.5088568 1.3007872 0.32425237 0.4169513 -0.009999394 0.4757877 -0.17285234
-0.0026934743 0.63547695 1.021097 0.54980314 0.8562051 2.1676965 3.123015 2.5055428
1.4464464 0.94615936 0.7902012 2.0176115 1.5838919 -2.2365313 -5.3790226 -4.37395
-4.1092963 -1.9957399 -1.2879921 -1.1110296 -1.0167041 -0.17097282 -0.35248947 -0.011752129
0.35459185 -0.09950876 -0.053231716 0.012719154 -1.0156302 -0.50996923 -0.78314877 -0.8439493
-1.467061 0.42742825 0.64927864 0.22815037 -0.001452446 0.13302803 0.08745098 0.096069336
0.1067152 1.0220156 0.9604306 1.5694714 1.070782 2.2741504 2.6055105 2.5679874
2.7260752 1.1421843 1.0509262 1.1523666 1.5780945 0.8705244 0.64179707 -0.8151932
-1.2759161 -3.209672 -3.3231606 -3.2249045 -3.5075965 -3.312148 -3.1518645 -2.4148912
-1.7955904 -1.4543304 -0.4844389 -0.5072346 0.75013924 0.1852808 0.17570972 0.095700264
0.701107 2.2468672 2.3773632 2.1198168 3.1437614 1.9268622 0.1620171 0.32274914
0.4156381 0.320498 0.20153672 0.324048 0.8859328 0.4334097 0.70303774 1.1676466
1.0642607 0.5295515 0.5361371 0.89340687 1.1778736 0.63288784 0.08324909 -0.38156176
0.38595057 -0.28021145 -0.41211843 -1.3919315 -1.5766068 -1.5803447 -0.12563133 0.13743544
-0.3801589 0.7559886 2.1503172 0.30863237 -0.7800274 -3.1409512 -3.4614391 -4.053458
-4.195489 -3.5526915 -0.16520119 0.9235811 0.4346609 0.74074364 0.89536667 0.1601553
0.8113022 1.1384859 0.19968891 0.384902 0.70756435 0.57144165 1.0965223 0.74561405
0.047697544 0.4659915 -0.018313885 -0.05105877 0.6278808 -0.060727596 -0.13881898 -0.8095436
-2.9074922 -3.4349928 0.27388573 1.8817987 0.84376097 1.0613885 1.3234138 0.73770905
1.3167431 1.5181032 1.5399663 1.3897132 2.2463484 1.919116 1.7190223 2.9875002
3.897355 4.273101 2.0091438 3.584362 1.7533913 -2.3852654 -0.8877468 -0.17993546
